weight/actions_history_2025-03-24_23-37-41.npy (npy, 20128 bytes, 1 tensors)

array f4 [500, 10]
00000000: 668c f2bc ee09 4fbd 300e 25bd ee76 59be
00000010: 21d7 22be 86f3 093e d618 f23c 4e03 98bd
00000020: d5c7 983e 3229 053e b702 86bc 12cb d1bd
00000030: 5fa2 33be 967e 31be a3d5 7bbe 6284 da3d
00000040: 00aa 97bd c0ab 8a3c cef2 5e3e 0ca0 483e
00000050: ece1 273e 1ec0 2cbe b03c acbd 581e b6be
00000060: 82ab a8be 8073 bf3d 8e8b 9fbe 3ae8 5f3e
00000070: 2110 cc3e 0c0d 733e cc88 813e 834a 81be
00000080: fe3d 1abe 5ceb 6dbe 94e7 9bbe 7063 083e
00000090: 49b8 a3be e465 8e3e 2ca4 213f f652 1a3e
000000a0: b2ef 223e 68ae b6be 40ce 08bf 7740 833e
000000b0: b665 95bd 8879 883e 45fa 3abd e83a f13d
000000c0: c2c2 453e e40d 193e 62a5 c43d 03bb ddbe
000000d0: 91bb b2be 5acd c73d f23b a8bd acda a13e
000000e0: 8b1e 283e 8219 0dbe 03ca 993d 1838 363c
000000f0: 7cd2 013d ff33 00bf ed84 e5be 1443 ae3e
00000100: 6d50 02be 74e2 8c3e 6a2d a83e 1858 73be
00000110: 3880 613c c450 edbc 682a 123d 9947 0fbf
00000120: a69e 10bf 26b1 1b3f 7657 ffbd b0ad 3f3e
00000130: 7462 0b3f d584 b4be 303f 59bd 4c67 a9bd
00000140: 8c87 ba3d 9adb 10bf 2ffe dabe 861d 043f
00000150: ff94 fdbd 365a d63d 6967 3a3f 3f0e ecbe
00000160: c6d6 de3d 6e7e 28bd aa8b 203e 6a89 03bf
00000170: c881 85be 2cab 6a3e 57d2 39be 20d8 0e3e
00000180: 930a 2d3f c91a d4be 7633 ad3e eaad 85bd
00000190: 7eca 853e 6a8e f4be 4d07 aebe e2f2 2c3e
000001a0: 4731 e7bd 1a12 053e 0f17 d03e 5263 9dbe
000001b0: 3917 9f3e 55cc 76bd ea6f bc3e ac9f cebe
000001c0: a694 cbbe ca14 93bd 44af 84be 280f 403d
000001d0: b80f 133e b818 65be c685 463e 2fd2 2dbd
000001e0: c37e 0c3f d499 b2be f431 7ebe 82fe 4ebe
000001f0: be1e 96be 582d 2abd 4043 56ba 6642 50bd
00000200: 9ca6 f73e 781f b4bc 8fc7 1b3f 879b c7be
00000210: 0a41 1dbe 8674 94be ce75 8abe 708a 423d
00000220: c2c5 edbd 2985 403e 8019 103f ca92 5b3d
00000230: f86e 073f bbf2 00bf b0bc 50be 9807 33be
00000240: 3ba9 61be b206 273e b25c 00be 15bd 433e
00000250: 1c09 b33e 9324 cd3d 9cd1 d33e 7540 01bf
00000260: 0de4 9bbe 02b5 963c 7a55 fbbd 5a90 9b3e
00000270: 01eb 5fbd 5c8e 483d 2a02 2d3d a966 d63d
00000280: 1054 9b3e 7cae f9be c69f 97be 9d8e b03d
00000290: 6e88 cfbd 9f36 c53e 8da5 1f3d 8a45 a9bd
000002a0: e4ac eb3c e9d1 8b3d bb32 663e 4c17 0dbf
000002b0: 9a38 e8be cd7c e83e 1a01 eebd 18db 973e
000002c0: 342a 973e 98d9 3cbe 8dcb 8abd 44b8 eebd
000002d0: 7df3 6c3e 7b37 13bf 79e8 05bf 451b 273f
000002e0: ae0b f1bd c6ce 553e 436e 013f 8f42 afbe
000002f0: c83a 64bc 9a12 9dbd d229 a03e e806 10bf
00000300: a2e5 fbbe e1d8 2f3f 6c2f 47be f216 193e
00000310: 26ab 2a3f 5d66 f3be 7125 f73d 9afd 7fbd
00000320: c4fc cb3e 1444 0cbf 0dfb c0be ec88 113f
00000330: b324 7ebe 0ad4 223e 586a 243f 0ca2 0cbf
00000340: 928f 5a3e 04f0 d2bd eebe fe3e 68c5 04bf
00000350: dd70 96be 2892 733e 7304 4ebe af40 383e
00000360: 2101 ca3e 0a08 02bf e3c7 823e 7584 6dbd
00000370: 0ff3 1a3f e89f fbbe f119 dbbe b648 433e
00000380: d710 30be c6df 193e f251 423e 1182 dfbe
00000390: 0a90 813e 9a20 843c 864d 323f 8aea cbbe
000003a0: 04c8 a1be 90b2 7dbd e61e a4be bed7 a33d
000003b0: faaa d03c 691a acbe 89e6 2b3e 60ee ef3b
000003c0: 5542 433f e6c0 a9be 10a6 2ebe 74fb c9bd
000003d0: 94c6 81be a493 733d cd06 73bd 607b cfbc
000003e0: 329e 823e c882 78bc e105 3b3f 2498 bfbe
000003f0: 1fe4 9bbd 6421 54be 800c 8dbe 9c3f 223e
-0.029607963 -0.05054658 -0.040296733 -0.21236774 -0.15902378 0.13471803 0.029552858 -0.07422505
0.2983996 0.13003996 -0.016358716 -0.10243811 -0.17542408 -0.17333445 -0.24593215 0.10669781
-0.07405472 0.0169276 0.2177231 0.19592303 0.16394776 -0.16870162 -0.08410013 -0.35570025
-0.3294335 0.09348202 -0.3116116 0.21865931 0.39856055 0.23735446 0.2529968 -0.2525216
-0.1506271 -0.23234314 -0.30450118 0.13319182 -0.31976536 0.2781211 0.6314113 0.1507071
0.15911749 -0.35679936 -0.5343971 0.2563512 -0.072947904 0.2665522 -0.045648832 0.117788136
0.19312575 0.14946705 0.09601857 -0.4330674 -0.34908727 0.097559646 -0.08214559 0.31612146
0.16417901 -0.13779262 0.07509234 0.011121772 0.031694874 -0.5007934 -0.44827977 0.34035552
-0.12725993 0.2751652 0.32847148 -0.23764074 0.01376348 -0.028969176 0.035684973 -0.55968624
-0.5649208 0.6081718 -0.12467854 0.187186 0.544471 -0.35257593 -0.053038776 -0.082716554
0.09107885 -0.56585085 -0.42772052 0.5160755 -0.123819344 0.10466425 0.7281404 -0.4610462
0.108808085 -0.041136198 0.15678278 -0.5138155 -0.26075578 0.2291686 -0.18146645 0.13949633
0.6759426 -0.41426685 0.33828324 -0.06527312 0.26131052 -0.47764903 -0.33989945 0.16889527
-0.11288696 0.12995186 0.40642592 -0.30739838 0.31072405 -0.06025346 0.36804134 -0.40356195
-0.39761847 -0.071816996 -0.25914967 0.046889454 0.14361465 -0.2237271 0.19386968 -0.042436775
0.54880923 -0.34882987 -0.24823743 -0.20214275 -0.2932033 -0.04154715 -0.0008173473 -0.050844572
0.483693 -0.021987662 0.6085138 -0.38985845 -0.15356842 -0.2899515 -0.27043003 0.047495306
-0.11609985 0.18800797 0.5628891 0.053606786 0.529037 -0.5037038 -0.20384479 -0.17483366
-0.22037213 0.16311148 -0.1253536 0.19115098 0.34967887 0.100167416 0.41370857 -0.5048898
-0.30447426 0.018396858 -0.12272163 0.3038357 -0.054667477 0.04896389 0.042238392 0.104687996
0.30337572 -0.48765934 -0.29614085 0.08620951 -0.10133444 0.38518235 0.03897624 -0.08265217
0.028768964 0.068271466 0.2248029 -0.55113673 -0.45355684 0.45407715 -0.11621304 0.29659343
0.29524386 -0.1844238 -0.067771055 -0.1165624 0.23139758 -0.5750653 -0.5230785 0.65275985
-0.11769806 0.20879659 0.5055887 -0.34230468 -0.01393003 -0.076695636 0.31281906 -0.5626054
-0.49198633 0.68690306 -0.19451684 0.14950159 0.666674 -0.47539034 0.12067688 -0.062497713
0.39841282 -0.5479138 -0.37691537 0.5684955 -0.24818687 0.15901199 0.6422477 -0.54934764
0.2134383 -0.102996856 0.49755043 -0.5186372 -0.29382983 0.23786223 -0.20118885 0.17993425
0.39453986 -0.50793517 0.25543126 -0.05798765 0.6052713 -0.49145436 -0.4279323 0.19070706
-0.17193924 0.15026769 0.18976572 -0.4365392 0.25305206 0.016128827 0.6964954 -0.39827377
-0.31597912 -0.06193787 -0.32054824 0.08000134 0.025472153 -0.336139 0.16787161 0.0073221177
0.7627309 -0.33154982 -0.17055535 -0.09862414 -0.25346816 0.059466973 -0.059332658 -0.025327384
0.25511318 -0.015167899 0.73055845 -0.37420762 -0.0761187 -0.20715863 -0.275486 0.15844578
