weight/actions_history_2025-03-28_09-49-54.npy (npy, 20128 bytes, 1 tensors)

array f4 [500, 10]
0.06931447 0.04599511 0.18108998 -0.07635083 0.0668545 -0.014411749 0.11263478 0.1302796
0.04784337 -0.24010082 0.13730317 0.045450013 0.09409046 -0.027348652 0.09989452 -0.14059788
0.1615594 0.23359534 0.020847555 -0.29707548 0.15479428 0.0008587763 0.07127997 0.013090039
0.083965525 -0.26069662 0.15394372 0.41878077 -0.052446682 -0.23619983 0.18364854 -0.073369846
0.27175575 -0.27309513 0.20988584 -0.3714591 0.05891773 0.5945871 -0.0767725 -0.34005818
0.22563764 -0.0407759 0.33092022 -0.46496215 0.2519771 -0.3896702 -0.06839506 0.80102783
-0.015850369 -0.5747838 0.26469892 -0.0115893595 0.31387752 -0.6157007 0.3892017 -0.3585233
-0.10113409 0.86762375 0.027615163 -0.5283962 0.2730977 -0.008006547 0.15969907 -0.536357
0.3212201 -0.2799026 0.058870316 0.9338484 0.04812861 -0.5493799 0.2615703 -0.120439634
-0.039363507 -0.5387315 0.2352907 -0.6033151 0.04144129 1.060556 0.10043008 -0.48671165
0.19257256 -0.28574196 0.0642094 -0.7137116 0.22632164 -0.65922517 0.012133211 1.2486186
0.017231394 -0.32532972 0.18110934 -0.2749001 0.22149828 -1.0188277 0.32283825 -0.83509046
0.02424664 1.3357708 -0.018499073 -0.43391332 0.17394875 -0.06362152 0.22650886 -1.2677947
0.3457495 -0.9308154 0.0081303045 1.3783917 -0.01869538 -0.6938858 0.12587926 0.09926353
0.042940345 -1.2811908 0.32931173 -0.87013966 0.06389138 1.4946141 -0.051227894 -0.69611716
0.09929757 0.023047011 -0.29336622 -1.0134788 0.30913225 -0.8623503 0.12968196 1.7699016
-0.035848748 -0.4375361 0.015580601 -0.25221372 -0.23861638 -0.99823374 0.27647433 -0.9338973
0.12118238 1.820834 -0.06758101 -0.46002725 0.014039761 -0.4686096 0.18581834 -1.4319389
0.33842492 -1.1245495 0.17769966 1.6736926 0.09003901 -0.5124051 0.060455147 -0.2379321
0.25665548 -1.5316572 0.17878744 -1.0857495 0.058422983 1.5199502 -0.06491589 -0.86627793
0.074198134 -0.043515768 0.19036672 -1.4718739 -0.030940026 -0.80556077 0.045176357 1.428109
-0.07349845 -0.97108865 0.011822465 -0.020417478 -0.05078664 -1.1821513 0.15390815 -0.9114781
0.084475204 1.8762137 -0.109953605 -0.6604332 -0.034598116 -0.28278998 -0.109592885 -1.0580981
0.19691575 -1.0786144 0.08349906 2.0389013 0.0050749825 -0.54159397 -0.0472573 -0.5271686
0.1935299 -1.319891 0.23368675 -1.1177331 0.120699614 1.9507196 0.11165703 -0.56724507
-0.0034537064 -0.35188842 0.33062518 -1.595912 0.23668528 -1.2289609 0.052595332 1.7113822
0.058860373 -0.796605 -0.0039469497 -0.112235054 0.2344539 -1.6044981 0.19893098 -1.0494308
-0.008957505 1.8593733 -0.051048372 -0.75390327 -0.061971974 -0.051664796 0.064063326 -1.3781402
0.20705861 -0.9243148 0.111175805 2.0233397 -0.09792977 -0.76068634 -0.054167934 -0.20384575
-0.14467184 -1.1307845 0.27655894 -1.0643704 0.12841655 2.091924 -0.028578166 -0.55552846
-0.10367161 -0.5279792 0.053922463 -1.2076476 0.22711432 -0.9691227 0.17901352 1.926568
-0.020923685 -0.527985 -0.083748445 -0.5370869 0.23253301 -1.4456465 0.30811855 -1.0582286
00000000: bff4 8d3d 5e65 3c3d a76f 393e d35d 9cbd
00000010: 03eb 883d 421f 6cbc 10ad e63d 0468 053e
00000020: 69f7 433d fddc 75be 3499 0c3e cb29 3a3d
00000030: 80b2 c03d 480a e0bc 8095 cc3d e4f8 0fbe
00000040: d46f 253e 9e33 6f3e 7ec8 aa3c 471a 98be
00000050: 6482 1e3e 801f 613a 3cfb 913d 9a77 563c
00000060: 1ef6 ab3d 077a 85be 6ca3 1d3e 6f6a d63e
00000070: 55d2 56bd 5ede 71be 5d0e 3c3e ee42 96bd
00000080: 9223 8b3e 20d3 8bbe 50ec 563e e32f bebe
00000090: b853 713d dc36 183f e73a 9dbd 1b1c aebe
000000a0: 8e0d 673e a104 27bd 606e a93e 850f eebe
000000b0: 2403 813e da82 c7be b612 8cbd 2910 4d3f
000000c0: a2d8 81bc 0825 13bf 9e86 873e 4ce1 3dbc
000000d0: 8eb4 a03e 909e 1dbf 7245 c73e 5e90 b7be
000000e0: 641f cfbd 971c 5e3f 3239 e23c f944 07bf
000000f0: 76d3 8b3e e42d 03bc 2788 233e b14e 09bf
00000100: f676 a43e 654f 8fbe 0022 713d b010 6f3f
00000110: 8122 453d 29a4 0cbf 8bec 853e 0ea9 f6bd
00000120: a13b 21bd 4fea 09bf 0cf0 703e dc72 1abf
00000130: 58be 293d 4dc0 873f 49ae cd3d 4532 f9be
00000140: be31 453e c54c 92be 3880 833d ceb5 36bf
00000150: dcc0 673e fbc2 28bf 60ca 463c bcd2 9f3f
00000160: da28 8d3c 9e91 a6be ba74 393e b5bf 8cbe
00000170: 72d0 623e f268 82bf 0e4b a53e 7dc8 55bf
00000180: e4a0 c63c 8afa aa3f 5e8b 97bc e329 debe
00000190: 9f1f 323e 004c 82bd f0f1 673e 1947 a2bf
000001a0: 1406 b13e eb49 6ebf f834 053c 246f b03f
000001b0: 0e27 99bc 80a2 31bf 7ee6 003e ad4a cb3d
000001c0: 37e2 2f3d 0ffe a3bf 8c9b a83e 79c1 5ebf
000001d0: 7cd9 823d 844f bf3f 57d4 51bd bc34 32bf
000001e0: 865c cb3d 16cd bc3c 1934 96be acb9 81bf
000001f0: 9546 9e3e fdc2 5cbf 59cb 043e 238c e23f
00000200: 23d6 12bd bb04 e0be c745 7f3c 2822 81be
00000210: da57 74be 3f8c 7fbf 0b8e 8d3e e513 6fbf
00000220: 782e f83d 1711 e93f ea67 8abd b188 ebbe
00000230: 0707 663c 99ed efbe 2a47 3e3e c649 b7bf
00000240: 0846 ad3e 3df1 8fbf e6f6 353e 8f3b d63f
00000250: 5f66 b83d fb2c 03bf d19f 773d 79a4 73be
00000260: 5968 833e 580d c4bf 0e14 373e d7f9 8abf
00000270: f04c 6f3d ba8d c23f 9ff2 84bd 64c4 5dbf
00000280: 31f5 973d 973d 32bd 7eef 423e 5d66 bcbf
00000290: f075 fdbc 3b39 4ebf d80a 393d 47cc b63f
000002a0: 5b86 96bd 4499 78bf 03b3 413c 8e42 a7bc
000002b0: a705 50bd bc50 97bf 199a 1d3e a156 69bf
000002c0: 5601 ad3d c527 f03f 5b2f e1bd 2612 29bf
000002d0: c1b6 0dbd d9c9 90be 3c72 e0bd c26f 87bf
000002e0: 48a4 493e 0910 8abf 8e01 ab3d 5c7d 0240
000002f0: 0a4c a63b e7a5 0abf df90 41bd 85f4 06bf
00000300: b42c 463e 30f2 a8bf 944b 6f3e e111 8fbf
00000310: 5c31 f73d 2eb1 f93f 71ac e43d f936 11bf
00000320: 9457 62bb b82a b4be b447 a93e d846 ccbf
00000330: a05d 723e 974e 9dbf 346e 573d 920e db3f
00000340: 9317 713d 4eee 4bbf 6a55 81bb 7edb e5bd
00000350: af14 703e 3260 cdbf 90b4 4b3e c053 86bf
00000360: 80c2 12bc f2ff ed3f 1918 51bd ceff 40bf
00000370: 53d6 7dbd 779e 53bd a233 833d e666 b0bf
00000380: 2c07 543e e59f 6cbf 24b0 e33d 667e 0140
00000390: 678f c8bd 57bc 42bf 32df 5dbd f1bc 50be
000003a0: db24 14be 8cbd 90bf 2299 8d3e 4a3d 88bf
000003b0: a17f 033e 15e2 0540 c21c eabc 1d37 0ebf
000003c0: c851 d4bd a529 07bf cddd 5c3d 3294 9abf
000003d0: a890 683e 6d18 78bf 524f 373e c899 f63f
000003e0: 2668 abbc 062a 07bf 4e84 abbd 877e 09bf
000003f0: 221d 6e3e f20a b9bf b7c1 9d3e 0974 87bf
