weight/actions_history_2025-03-25_16-46-06.npy (npy, 20128 bytes, 1 tensors)

array f4 [500, 10]
00000000: 6fdc b43c 5cbf d8bc 79bd edbd 8246 8f3d
00000010: e0ff a7be d697 8f3e b8e6 50bc 669e eebc
00000020: c861 af3d e3d6 2dbd 0813 7abd 7a99 34be
00000030: 26f1 24be b856 983d 3763 bfbe 40c3 dc3e
00000040: a254 863c 42b4 80bd 40e5 4e3b ecb8 4bbc
00000050: 5700 34be cd62 b4be bff1 debe bc6e a83e
00000060: 7c43 9ebe 651d f13e 2cb7 fe3d 0027 08b9
00000070: f8c6 3b3d f554 113d cc22 89be ca04 d6be
00000080: a003 19bf 24dc f93e 862e 90be 3f67 033f
00000090: 4645 8e3e 7a0f d1bd 2cf1 2b3e b43d 7a3c
000000a0: 1635 aabe 6e6d c6be 24ad 1dbf 8f25 153f
000000b0: 20c8 36be 2dae 0a3f 04b7 ed3e 4ab6 79be
000000c0: 6316 893e e01c ebba b09d 9dbe 5090 80be
000000d0: c672 25be 242a b2bd 8819 4cbe 4e15 d63e
000000e0: ee77 0f3f 4dae b3be 102c 96bd 66dd 23be
000000f0: abb1 7dbe 180b 74be 2d63 afbe 8ac3 abbd
00000100: eca0 9ebe f30b b43e 266b dc3e a2bc fbbe
00000110: 2815 c6bd bf8b 7abd 3014 33be 581f 6cbe
00000120: d06d 6fbe af51 73be 3696 9cbe ee08 a83e
00000130: d34e 593e c888 dcbe eaae 6bbe ac07 393c
00000140: 1eb8 62bd 231c 85be 24f5 4abd a57a d2be
00000150: 80ea a2be 2ee3 ed3e 6c8f 6b3d 82c0 c2be
00000160: c486 a5bd e2c9 c63c 54e2 fabb 5b2f babe
00000170: 60ab febc 68ad 00bf a365 8bbe 9b84 183f
00000180: a8eb 95bd 27ad c4be 0a0a 863d cd2b 303d
00000190: 652c 93bd 2a22 bcbe 0eec 0dbf 5850 883b
000001a0: 96fa 94be 32d8 223f 2fee 033e 8978 e5be
000001b0: 4056 4e3e b8c6 9dbb 8ddb d5bd 6152 ddbe
000001c0: 13b6 2dbf a0e2 a73d 858d 9dbe 2731 0d3f
000001d0: 4539 563e 7489 fbbe c03a 843d f876 8a3d
000001e0: 1aae 0abd 539a d3be 14eb 30bf 8ab4 ee3d
000001f0: 6efc 78be f0dc 043f 0aad fb3e 6cfb 17bf
00000200: 0088 adbd 186d aabb 6e6a 31bd f381 a9be
00000210: 749c eebe 001b 21b9 beec 7cbe 0aec fb3e
00000220: cab6 ef3e 1d5c 29bf 9dc1 8bbe c728 03be
00000230: aad0 02bd acfb 9cbe 8441 41be 76f0 d0be
00000240: 4e82 aebe d2ac e33e 241d ee3e ab2d 26bf
00000250: d8a9 1ebe 3467 a9bd 8ac3 04bc 058a b9be
00000260: 60da abbe dbdd a0be 276a c3be 67a3 be3e
00000270: 0d79 733e 81c2 1cbf 5c4c a5bd a411 07be
00000280: 62f7 563d d15a 9ebe e454 3bbe 87c8 d9be
00000290: 2e75 acbe 981d e93e 10a5 b73d da95 ecbe
000002a0: 4836 49bc 7c2b 83bd 127f 4d3d f4ab b1be
000002b0: 1d07 03be 01af 07bf a9b6 aabe 8fdf 0a3f
000002c0: 604b b23b a83b e6be 3623 ce3d 1206 ae3c
000002d0: 12c6 5cbc b117 adbe 08c3 28bf 6614 de3c
000002e0: e6e6 82be e289 1e3f c01a d13d e822 ffbe
000002f0: 548f 363e d01b 8e3d 5eab 69bd 9f55 bebe
00000300: 82ba 2abf 4995 543d 8791 a4be 75c8 0c3f
00000310: f536 443e 3384 0ebf 8050 61bd 4071 d73d
00000320: 1f3f 85bd 5f44 b5be 7dca 31bf 4f87 093e
00000330: ef58 c5be 74c8 f03e 5c5a b63e 1789 1bbf
00000340: e8c9 03be 7414 213c 1283 aabd 0e29 8abe
00000350: 6fac d9be 328e 87bc 9269 98be 0e2b d83e
00000360: d843 ee3e 6db9 2bbf fe33 55be e833 8abd
00000370: 67a3 97bd f2be 58be bcf2 1dbe cb87 dabe
00000380: 3ea7 a8be 3041 cd3e 9fdc 003f 0072 29bf
00000390: b454 79bd d881 e0bb c2b8 1abd 53b8 8ebe
000003a0: c85a bebe 4a84 96be 9f4b ccbe fe93 a63e
000003b0: e5d8 6d3e 4839 22bf dc83 96bd 6494 c8bd
000003c0: 4a80 333d 0aa7 99be 23f5 47be cb16 edbe
000003d0: 3590 9ebe fd2e cd3e 7c26 a23d 262b ecbe
000003e0: ba76 24bd 1e49 d1bc 92de 6b3d a7d4 a3be
000003f0: 06a4 31be 16d9 05bf 9616 aabe 891f 043f
0.022077767 -0.026458435 -0.11608405 0.0699587 -0.32812405 0.2804553 -0.01275032 -0.029128265
0.08563572 -0.04244126 -0.061053306 -0.17636672 -0.16107616 0.07438415 -0.37380382 0.43117714
0.016397778 -0.062843814 0.003156975 -0.0124342255 -0.17578255 -0.3523163 -0.43543813 0.32896984
-0.30910861 0.4709274 0.12437281 -0.000129845 0.04584405 0.035481412 -0.2678436 -0.4180053
-0.59771156 0.48800766 -0.28160495 0.51329416 0.27787226 -0.1020803 0.16791219 0.0152735
-0.33243626 -0.38755363 -0.61592317 0.58260435 -0.17849779 0.5417202 0.46428692 -0.24385944
0.26774892 -0.0017937683 -0.3078437 -0.25110102 -0.16157064 -0.08699444 -0.19931614 0.4181313
0.56042373 -0.35093918 -0.07332623 -0.16002426 -0.24774806 -0.23832357 -0.34255353 -0.083869055
-0.3098215 0.35165367 0.43050498 -0.49167353 -0.09672004 -0.06116843 -0.1748817 -0.23058832
-0.23381734 -0.23761629 -0.30583352 0.32819313 0.21221475 -0.43073106 -0.23015943 0.011293333
-0.05535137 -0.2599803 -0.04955019 -0.41109195 -0.31819534 0.46462387 0.057509825 -0.38037497
-0.08082345 0.024266187 -0.007656375 -0.36364254 -0.031087577 -0.50264597 -0.2722598 0.5957734
-0.073203385 -0.38413355 0.065448835 0.04301052 -0.07186202 -0.36744815 -0.55438316 0.0041599683
-0.29097432 0.6361114 0.12883829 -0.44818524 0.2015009 -0.004814949 -0.104422666 -0.43226913
-0.6785595 0.08197522 -0.30772033 0.55153126 0.20920284 -0.49128306 0.06456518 0.06760973
-0.033857442 -0.41328678 -0.691087 0.11655529 -0.24315044 0.51899624 0.49155456 -0.59368014
-0.084732056 -0.0052009933 -0.04331439 -0.33106956 -0.4660374 -0.00015364215 -0.24699685 0.4920352
0.46819144 -0.6615618 -0.27296153 -0.12808524 -0.03193728 -0.3066076 -0.18872648 -0.40808457
-0.3408379 0.4446779 0.46506608 -0.64913434 -0.15494478 -0.082716376 -0.008103261 -0.36238113
-0.33565044 -0.31419262 -0.38166925 0.3723404 0.23776646 -0.6123429 -0.08071205 -0.13190323
0.052482016 -0.30928662 -0.18294102 -0.42535803 -0.3368315 0.4553039 0.0896703 -0.46208078
-0.012281008 -0.06404778 0.05017001 -0.34701502 -0.12795682 -0.5300141 -0.33342484 0.54247373
0.0054411143 -0.4496739 0.1006531 0.021243129 -0.013474958 -0.33807138 -0.65922594 0.027109336
-0.25566787 0.6192914 0.1021018 -0.4983132 0.17828113 0.069388986 -0.057048194 -0.371747
-0.6669084 0.051900182 -0.3214228 0.54993373 0.1916159 -0.5567047 -0.05500841 0.105196476
-0.0650618 -0.35403726 -0.694496 0.13430522 -0.38544413 0.47027934 0.35615814 -0.6075606
-0.1286999 0.009831537 -0.08325781 -0.26984447 -0.4251437 -0.016547296 -0.29768044 0.42220348
0.46536136 -0.6707981 -0.20820615 -0.067481816 -0.074042134 -0.2116659 -0.15424627 -0.42681727
-0.32940096 0.40088797 0.5033664 -0.66189575 -0.060871795 -0.006851416 -0.037773855 -0.27875003
-0.37178636 -0.29397804 -0.39901444 0.32534784 0.2322727 -0.63368654 -0.07349369 -0.09793928
0.043823518 -0.30010253 -0.19527106 -0.46306452 -0.30969396 0.40074912 0.079174966 -0.4612667
-0.04015229 -0.02554756 0.057585306 -0.31998178 -0.17347726 -0.5228437 -0.33220357 0.5161062
