weight/actions_history_2025-03-25_22-32-07.npy (npy, 20128 bytes, 1 tensors)

array f4 [500, 10]
-0.115246594 -0.030134551 -0.23496518 0.02155085 -0.021640278 0.06822208 0.079978645 0.011117216
0.37511533 0.19690111 -0.26250654 -0.04824613 -0.20848897 -0.21135904 -0.024217375 0.132559
0.070422016 -0.0735624 0.25966793 0.18965699 -0.37851247 -0.073264375 -0.38235915 -0.12987688
-0.0009957477 0.09215691 0.20712063 -0.10094255 0.32957315 0.32303035 -0.45722622 -0.09622282
-0.45394483 -0.22997244 -0.00028388947 0.05421225 0.26735267 -0.1630925 0.38251728 0.31382474
-0.351491 -0.08791486 -0.39867795 -0.369184 -0.20445414 0.019252993 0.10499363 0.0158137
0.08382584 0.41934758 -0.2154977 -0.09542021 -0.34924933 -0.32578224 -0.29037187 0.023058854
-0.089556664 0.11801574 0.2517041 0.32113984 -0.13328081 -0.14062214 -0.3030868 -0.4269399
-0.2931719 0.019927688 -0.097403094 0.15555738 0.47387713 0.22460714 -0.16183972 -0.21716198
-0.3143957 -0.34181336 -0.14671275 0.06678551 -0.091893956 0.098714635 0.35163373 0.15425435
-0.2665076 -0.26855743 -0.4351295 -0.1761056 -0.083556674 0.16419753 0.01792679 0.008150954
0.32725948 0.1622236 -0.35952294 -0.31413049 -0.5105111 -0.08468246 -0.018595435 0.2558393
0.057988465 -0.10874699 0.037184715 0.24456185 -0.41403463 -0.35336596 -0.47970766 0.022408199
-0.03544826 0.24284327 0.30292106 -0.21047248 0.011099666 0.15861341 -0.4076063 -0.36561072
-0.5966622 0.18239611 -0.0042859986 0.15713426 0.43215713 -0.32626313 0.08329272 0.049420316
-0.38162655 -0.3350572 -0.5782477 0.23332648 -0.026933141 0.12046384 0.61311567 -0.33539075
0.098893985 0.1438381 -0.28616828 -0.30128646 -0.54790074 0.2247432 -0.07332614 0.022760399
0.6152574 -0.43774414 0.2415508 0.04546215 -0.16685979 -0.23247951 -0.47062555 0.069839574
-0.107770294 0.019833349 0.5426333 -0.3442435 0.3070991 0.11978835 -0.029477043 -0.14048126
-0.46771023 -0.029898647 -0.23089412 -0.013100106 0.31379774 -0.3047412 0.18561243 0.053612385
0.074545614 -0.08369379 -0.4368224 0.020459913 -0.25664502 -0.019906461 0.18474245 -0.11140162
0.23487118 0.17195433 0.14411417 -0.10425106 -0.37555555 -0.06372504 -0.17396253 -0.081799805
0.15195769 -0.026562275 0.28199285 0.09055179 0.15935089 -0.15691537 -0.36882573 -0.08115961
-0.24400064 -0.017375298 0.123236224 -0.009014782 0.23439907 0.16318947 0.09207295 -0.17576443
-0.4743392 -0.015665103 -0.18828684 0.066645786 0.06996298 -0.062328737 0.11778072 0.13969502
0.0038848165 -0.21417403 -0.5874154 0.09023073 -0.11862878 0.1584281 0.12228052 -0.1434372
0.10355286 0.2615789 -0.07037631 -0.2653734 -0.6030982 0.19688536 -0.097216226 0.19053924
0.20518096 -0.26333052 0.03879091 0.14427343 -0.112436675 -0.32519877 -0.6389547 0.31581017
-0.107196696 0.1629082 0.38151067 -0.35305744 0.11931504 0.11058566 -0.05834546 -0.33156466
-0.62267727 0.38457653 -0.12942669 0.111539476 0.5055052 -0.4828748 0.22255741 0.033389848
0.023455897 -0.3061319 -0.57502943 0.3559895 -0.13134125 0.06482671 0.57556665 -0.57699054
0.3629647 0.055535775 0.10844665 -0.25165468 -0.48939037 0.20094775 -0.11830588 0.088708855
00000000: 6806 ecbd bcdc f6bc b69a 70be 688b b03c
00000010: f446 b1bc 05b8 8b3d d8cb a33d fc24 363c
00000020: 1e0f c03e 72a0 493e 4267 86be bc9d 45bd
00000030: 227e 55be 816e 58be 8463 c6bc 8cbd 073e
00000040: 6b39 903d e2a7 96bd 32f3 843e 7135 423e
00000050: 63cc c1be a20b 96bd 94c4 c3be 72fe 04be
00000060: c083 82ba c3bc bc3d 6e17 543e f8ba cebd
00000070: d0bd a83e 3c64 a53e 8e19 eabe 7810 c5bd
00000080: 756b e8be e57d 6bbe 00d7 94b9 aa0d 5e3d
00000090: 73e2 883e b801 27be 4ed9 c33e a3ad a03e
000000a0: a1f6 b3be b50c b4bd 841f ccbe af05 bdbe
000000b0: 6d5c 51be 74b8 9d3c e606 d73d bc8b 813c
000000c0: e2ac ab3d bab4 d63e 6eab 5cbe ac6b c3bd
000000d0: cfd0 b2be eecc a6be 9fab 94be ece5 bc3c
000000e0: 7c69 b7bd 3cb2 f13d 5cdf 803e 716c a43e
000000f0: c47a 08be 40ff 0fbe 312e 9bbe de97 dabe
00000100: a11a 96be 643f a33c 467b c7bd 6f4a 1f3e
00000110: 06a0 f23e 6aff 653e 50b9 25be b65f 5ebe
00000120: 79f8 a0be 2902 afbe de3b 16be d7c6 883d
00000130: e632 bcbd e62a ca3d 5609 b43e daf4 1d3e
00000140: af73 88be 5c80 89be 4bc9 debe 0755 34be
00000150: c31f abbd 6623 283e 34db 923c 948b 053c
00000160: 8e8e a73e f21d 263e 6413 b8be b6d5 a0be
00000170: dbb0 02bf ff6d adbd 7455 98bc 5efd 823e
00000180: 5085 6d3d beb6 debd 004f 183d 6c6e 7a3e
00000190: 59fc d3be 62ec b4be 3e9c f5be 6691 b73c
000001a0: 3232 11bd e8ab 783e 7818 9b3e 1986 57be
000001b0: 60db 353c 8e6b 223e c6b1 d0be 5431 bbbe
000001c0: dbbe 18bf 0cc6 3a3e 9071 8cbb cee7 203e
000001d0: b343 dd3e f60b a7be 6095 aa3d f56c 4a3d
000001e0: 8e64 c3be 9e8c abbe 0b08 14bf 23ed 6e3e
000001f0: e4a2 dcbc bfb5 f63d 26f5 1c3f 56b8 abbe
00000200: ee88 ca3d 4b4a 133e a684 92be 3842 9abe
00000210: 3943 0cbf 1523 663e 042c 96bd 0474 ba3c
00000220: 8281 1d3f 0020 e0be 1859 773e 8536 3a3d
00000230: 4bdd 2abe 1c0f 6ebe d5f5 f0be 0d08 8f3d
00000240: acb6 dcbd 8c79 a23c 04ea 0a3f af40 b0be
00000250: 183c 9d3e 9853 f53d d779 f1bc 52da 0fbe
00000260: b777 efbe 02ee f4bc 826f 6cbe d4a1 56bc
00000270: 19aa a03e 0a07 9cbe 2f11 3e3e a998 5b3d
00000280: 5fab 983d a667 abbd 30a7 dfbe 8c9b a73c
00000290: fa66 83be e012 a3bc 202d 3d3e 8826 e4bd
000002a0: 1282 703e cc14 303e aa92 133e 9481 d5bd
000002b0: d148 c0be 4682 82bd 3c23 32be a886 a7bd
000002c0: cc9a 1b3e 2199 d9bc 5e61 903e 3873 b93d
000002d0: e12c 233e 6cae 20be bad6 bcbe 0237 a6bd
000002e0: 4edb 79be a456 8ebc 4663 fc3d bcb2 13bc
000002f0: 4f06 703e 241b 273e be90 bc3d 97fb 33be
00000300: 96dc f2be 1a54 80bc 44ce 40be 967d 883d
00000310: c048 8f3d 6b4c 7fbd 0537 f13d 360c 0f3e
00000320: 6898 7e3b 7050 5bbe db60 16bf e4ca b83d
00000330: a5f3 f2bd fa3a 223e 366e fa3d 34e1 12be
00000340: 8613 d43d abed 853e 7421 90bd 06df 87be
00000350: a564 1abf 519c 493e 4d19 c7bd b81c 433e
00000360: f51a 523e 42d3 86be 38e3 1e3d 6abc 133e
00000370: 3345 e6bd 7480 a6be 8992 23bf dfb1 a13e
00000380: f189 dbbd 68d1 263e 5e55 c33e f2c3 b4be
00000390: 725b f43d bc7a e23d a6fb 6ebd d8c2 a9be
000003a0: c767 1fbf 37e7 c43e 6e88 04be cf6e e43d
000003b0: ca68 013f 5e3b f7be 17e6 633e cbc3 083d
000003c0: 9526 c03c 52bd 9cbe 2135 13bf 4144 b63e
000003d0: 527e 06be dec3 843d 5658 133f a7b5 13bf
000003e0: 82d6 b93e 7b79 633d 4719 de3d e2d8 80be
000003f0: 6091 fabe 3fc5 4d3e 5a4a f2bd fdac b53d
