weight/actions_history_2025-03-22_18-06-15.npy (npy, 20128 bytes, 1 tensors)

array f4 [500, 10]
000000 50 8a 7f 3c 48 6c 7f 3b 86 d3 bc 3c ac e3 84 bd
       0.015596941 0.0038974453 0.023050081 -0.064887375
000010 59 0f 82 bd 24 ba 33 3e 64 c3 85 3d 2a 0e e8 3e
       -0.063505836 0.17551476 0.065314084 0.45323306
000020 51 eb 51 bd 43 fc 1c 3d e1 1b 95 3d 8a 0c 3a bd
       -0.051249806 0.038326513 0.07280708 -0.045422114
000030 35 ff 33 3e 48 41 a1 be 2b 01 a9 bd 34 67 55 3c
       0.17577823 -0.31495118 -0.08252176 0.013025094
000040 d4 e6 9b be 78 d9 bf 3e 0e 24 9e 3c 7c 98 4b 3c
       -0.30449545 0.37470603 0.019304302 0.012426492
000050 cd 0c 6f 3d 8c 98 26 3d 45 94 3b 3e 9a 57 98 be
       0.058361817 0.040672824 0.18318279 -0.29754335
000060 38 3f 46 3c b0 7f 5e 3e cb 4c 46 3e 2c e0 dd bd
       0.012100033 0.21728396 0.19365232 -0.10833773
000070 2a a3 5b 3e e4 48 d0 bd 68 7c 38 3c 5e a2 9d 3d
       0.21448961 -0.10170153 0.0112601295 0.07696985
000080 68 47 ae 3d 5a 15 f2 be b8 3e 29 3e 22 cf 4f 3e
       0.085097134 -0.47281915 0.16527832 0.20293859
000090 6b a6 87 3f f0 b4 0c 3e 37 c2 7c 3d 63 b4 35 3e
       1.0597662 0.13740897 0.061708655 0.17744593
0000a0 16 70 15 3d 8a 32 33 3c 1c 6b b6 be 6f dd 98 be
       0.036483847 0.010937342 -0.35628593 -0.2985644
0000b0 68 5f 33 be 5a 0d 5e be 90 5e 62 3f 22 c8 3d 3f
       -0.17516863 -0.2168478 0.8842554 0.74133503
0000c0 97 60 6c 3d fd c1 8f 3e 00 0c 8b bc b0 b9 f1 ba
       0.057709303 0.2807769 -0.016973495 -0.001844218
0000d0 06 2b 06 bf b6 00 e2 be 44 d3 8f bc b4 7f 06 be
       -0.524094 -0.44141167 -0.017556794 -0.13134652
0000e0 62 fb 55 3f 54 be e8 3e e7 fd 73 3d b8 8a b3 3d
       0.83586705 0.4545771 0.059568312 0.08766693
0000f0 dc 68 9d bc 00 c3 a0 b8 3a f2 0c bf 27 07 13 bf
       -0.01921504 -7.665716e-05 -0.5505711 -0.5743279
000100 9a ab 41 bd fc 3c 9d bd 4a 26 7c 3f 0f 4d 1b 3f
       -0.047282793 -0.076776475 0.98495924 0.6066446
000110 f9 62 79 bd a6 b3 04 3e dc 6d 49 bd b6 50 1b bc
       -0.060885403 0.12959155 -0.049177036 -0.009479692
000120 8f f8 1d bf 75 c0 2b bf 61 01 9b bd 92 b4 1a be
       -0.61707395 -0.6709054 -0.075686224 -0.15107945
000130 cc 6c 85 3f 04 8e 1d 3f a4 32 16 bc b4 d3 c1 3d
       1.0423827 0.61544824 -0.009167347 0.09464207
000140 42 c5 a7 bd db eb f4 bc d3 bc 25 bf 78 54 3c bf
       -0.08191921 -0.02989762 -0.6474125 -0.7356639
000150 52 8b 3d bd 30 45 d9 bd 34 2f 79 3f a5 62 15 3f
       -0.046275444 -0.106088996 0.9733765 0.58353645
000160 52 72 df bc da e7 b3 3d 5a 66 08 be 2f 0a a9 bd
       -0.027276192 0.087844566 -0.13320294 -0.082538955
000170 5c a3 24 bf fc 23 38 bf 92 71 6e bd b1 17 4b bd
       -0.64311767 -0.7192991 -0.058213778 -0.04958314
000180 a5 7b 62 3f 6e f3 09 3f 5c 9a 20 3c 8e 14 2d 3e
       0.88469917 0.5388707 0.009802427 0.16902372
000190 ad a4 36 be 4c 1b 07 be d9 30 2f bf 87 94 35 bf
       -0.17836256 -0.13194007 -0.6843391 -0.7092976
0001a0 c5 db a9 bd d8 ab 9b bd aa 11 5d 3f df 78 01 3f
       -0.08293871 -0.07601136 0.8635508 0.5057506
0001b0 a4 85 12 bc 84 b9 3a 3e 7f 0a 61 be 2a af 34 be
       -0.008942995 0.18234831 -0.2197666 -0.17644945
0001c0 c0 dd 2e bf 2f b1 33 bf b1 52 84 bd 42 3f 87 bc
       -0.68307114 -0.70192236 -0.06461085 -0.016509656
0001d0 33 34 4c 3f 7e f8 fd 3e 9c 79 76 3c f6 35 69 3e
       0.7976715 0.49603647 0.015043642 0.2277449
0001e0 06 61 85 be 33 5a 89 be 03 1d 15 bf 1c ab 21 bf
       -0.26050586 -0.2682663 -0.58247393 -0.6315172
0001f0 81 8b f0 bd cf f1 22 3d da 54 c9 3e 70 8b d4 3c
       -0.11745358 0.039781388 0.3932255 0.025945395
000200 1c a6 90 bd 09 9b 25 3d 8c a3 9d be 96 8d bc be
       -0.07062933 0.040431056 -0.3078884 -0.36826771
000210 54 da 07 bf 88 3a b5 be 7e 28 63 3d d6 13 1d 3e
       -0.5306752 -0.35396218 0.05545854 0.15339598
000220 88 d3 ab 3b 8e 54 da be 4a 8c 47 be 2c 77 62 be
       0.0052437223 -0.42642635 -0.1948711 -0.22115773
000230 a8 0d c2 be 0f 60 f6 3d 9d c0 bf be e1 c6 93 be
       -0.37901044 0.120300405 -0.3745164 -0.2886267
000240 3f 79 88 3e d5 aa 0e 3e 1e 8a ef bd 38 7e ba 3d
       0.26655003 0.13932355 -0.11696266 0.091061056
000250 4c b4 ca be 58 98 d8 3b 14 8e 25 bd c0 da da b9
       -0.3959068 0.0066099577 -0.0404187 -0.00041743182
000260 9e 6e a4 be d8 ca 38 be 4a 62 02 3e 22 51 ba bc
       -0.32115644 -0.18046129 0.12732807 -0.022743765
000270 62 fa fb 3d 28 66 b7 3d e7 53 6e 3d ee ec e3 3c
       0.12303616 0.08955032 0.058185484 0.027822938
000280 a0 a7 88 3b 2a 73 7b 3c a4 45 5e be c4 c8 42 be
       0.004170373 0.0153472815 -0.21706253 -0.19021899
000290 90 6f 88 3b 14 7c 8e 3d cb 7f b4 3e 02 de d5 3e
       0.00416369 0.0695726 0.35253748 0.4177094
0002a0 9e ca c6 3c 1b 56 33 3d 1a 23 16 3d 33 b7 f1 bc
       0.024266537 0.04378329 0.03665457 -0.029506302
0002b0 6a c9 b7 be fa 8d 08 bd 72 18 0c be 96 c7 ee 3c
       -0.35895854 -0.033338524 -0.136812 0.029147904
0002c0 04 31 01 3f 26 6b 7c 3e f2 24 d5 bc 78 e2 a3 3b
       0.50465417 0.24650249 -0.026018593 0.0050013624
0002d0 10 ad 9e bc 5a ab 1a 3c 5b 13 90 be 95 ef b5 bd
       -0.019369632 0.009440267 -0.28139767 -0.08883587
0002e0 5e a7 66 bd 5f 30 07 3d f7 57 de 3e 04 86 4f 3e
       -0.056311958 0.033005115 0.43426487 0.20265967
0002f0 ac 2d b0 3d 6c 05 0a 3e e8 c7 e0 bc c6 0b 04 bd
       0.08602461 0.13478631 -0.027439073 -0.03223779
000300 3b db a7 be 9f 94 de bd 82 1c 28 bd 9c 25 79 3c
       -0.32784447 -0.10868191 -0.041042812 0.015206721
000310 5b 7a e9 3e 30 3f 5d 3e 74 dc bd 3d e8 ef fe 3d
       0.45601162 0.21606135 0.09270564 0.12448102
000320 f4 10 38 bd 2b 3f ab bd db 96 be be 31 ab e0 bd
       -0.044938043 -0.08361658 -0.3722447 -0.10970152
000330 5e 6c 41 bd 78 22 a4 3b 20 f5 84 3e 14 85 50 bd
       -0.047222488 0.005008992 0.25968266 -0.050908163
000340 1c f2 95 bd 73 66 63 bd 9c 40 78 bd ca dc 0b be
       -0.07321569 -0.055517625 -0.06060849 -0.13658443
000350 38 cb ba be 10 8b ef 3b 48 7e 2a bc 9f 33 08 3d
       -0.3648317 0.0073102787 -0.010406084 0.033252355
000360 04 77 c6 3d a2 28 aa be eb 1f 18 be d3 37 5c be
       0.09690669 -0.33234125 -0.14855926 -0.2150567
000370 c6 de 16 be ad 07 eb 3d 74 92 a4 be ba 9d 5c 3d
       -0.14733419 0.114760734 -0.32142985 0.053861357
000380 48 c5 3f 3e ca 6f da 3d 8a af b0 bc b0 89 36 3d
       0.187276 0.10665853 -0.021568079 0.044564903
000390 0b 52 93 be a7 3c 33 3d 95 ee 46 3d ca 80 6e 3c
       -0.2877353 0.043759014 0.048567373 0.014557073
0003a0 71 17 98 be 64 b9 d7 bc ce 40 5e 3d a5 d1 3b bd
       -0.29705384 -0.026333518 0.05426102 -0.04585423
0003b0 13 16 a4 3e cc b7 82 3e 34 dc ba 3d 2c 7d 2f bc
       0.3204809 0.2553085 0.09124032 -0.010710996
0003c0 64 81 3d 3d 5a 7b 34 bd 67 0b ac be 28 5a 37 bc
       0.046265975 -0.04406295 -0.3360245 -0.0111909285
0003d0 74 35 00 be 2d 19 27 3d 03 ac 06 3f 90 f4 44 3e
       -0.12520391 0.040795494 0.5260622 0.19233918
0003e0 79 8e 2b bd 49 f4 11 3d 40 d4 11 bd cc be cb bb
       -0.04188392 0.03563336 -0.035602808 -0.006217813
0003f0 43 06 b7 be d6 22 0b bd 27 f3 dd bd 20 2b df ba
       -0.35746965 -0.03396877 -0.10837393 -0.0017026402
