weight/actions_history_2025-03-25_10-15-39.npy (npy, 20128 bytes, 1 tensors)

array f4 [500, 10]
00000000: 6652 d2bd f494 2fbd 0c31 2fbe 965d 43bd
00000010: c677 36bd 6294 d13d 708f 8b3c c5de 323d
00000020: f96d 963e be06 3c3e 2fa0 40be e446 c7bd
00000030: c266 24be c989 24be fbc2 a9bd d94f 053d
00000040: 1a4b 3dbd e765 5d3d 0c0a 713e b222 553d
00000050: 32ff 77be ea42 3abe 9d15 7cbe 0e5f 34be
00000060: 4edd 61bd ff30 083d a076 e43c 8f05 3e3d
00000070: 6b5f 903e bc53 2a3e 2c74 a9be d567 92be
00000080: b611 cebe a2d0 f0bd 1839 653c 51b2 663d
00000090: eac0 493e c4f9 743c 6c50 5c3e 346d 683e
000000a0: c3d0 b4be 7f24 9ebe 8ca0 d9be 9ec6 28be
000000b0: ba71 debd ba93 bf3c a46c 223e e405 8dbc
000000c0: 4e18 833d a096 183e 1470 b5be cd89 b5be
000000d0: d09e d7be dd60 7cbe 5058 10be 79ba 1a3d
000000e0: fea4 343e 285c 82bc e218 b53d c69c 713e
000000f0: a7cc b6be 5746 b3be 56d7 06bf ec03 dfbd
00000100: 82af bdbd 95e6 393d c35b 5c3e 6444 83bc
00000110: ea1c d83d 003b 1d3e c38a d0be e0ac b2be
00000120: 9c68 e9be 9a14 6dbe ceb6 61bd 5c03 d83d
00000130: 7833 963e 03bd 6bbd 08dd 3f3e e4cf 503e
00000140: d353 e4be ed86 aebe ed8c 03bf fa99 2cbe
00000150: a27e 17bd 92d5 093e c476 833e 5a43 89bd
00000160: 5407 b43d e834 0f3e 7b2c f7be 6fb0 a7be
00000170: c23c f4be 718c 64be 8cda 30bd 605f 123e
00000180: 7e11 893e a68f f5bc 1ebc 463e 2e7f 643e
00000190: bf0e 00bf 76bc a6be 371e 0bbf d0b1 10be
000001a0: 026e 59bd 3461 e53d 6059 8a3e 2292 81bd
000001b0: 0033 ce3d 26f0 873e 87eb 02bf f402 a0be
000001c0: c8ea d6be 5d53 9cbe 7413 94bd 8891 d43d
000001d0: 2a55 933e b0a6 10bb 58f0 e53d 845c 793e
000001e0: be16 d2be 08e1 acbe eaaf cabe a05b b3be
000001f0: 3471 4dbe fe69 973c b680 8b3e c6e3 923d
00000200: 1492 1e3e d0d6 5b3d 8bcf 2dbe 0c88 d7be
00000210: c33f a7be 82b1 d0be 1ac3 bebe bceb 86bd
00000220: 6a98 fb3d 24c5 893d f81f 2d3e 60ca f13c
00000230: 1019 be3a c5f4 e0be 2bb0 94be 19c0 c2be
00000240: 3591 d0be 8c9c d0bd 8992 1b3d 52ae 083e
00000250: 50b2 8a3e e22c a63d 0148 cb3c 7ead 01bf
00000260: 724f 6abe 82a9 bcbe 41b3 aebe 3ad0 2ebd
00000270: a873 083c 2ac9 e23d f83b 863e a174 843d
00000280: 57ed 0ebe 469e 0dbf d824 c7be 3626 01be
00000290: 7e3a 04be 46af 303e f435 c83c 3088 5ebb
000002a0: 6efd 553e 6c51 563e d441 6cbe 6579 febe
000002b0: faad a2be 0cba a3bd f673 7fbd 57c6 823e
000002c0: c649 893d 5035 a9bd 10d8 833d fa00 2e3e
000002d0: 8288 8fbe 2d7b dfbe d9f7 a0be f5c0 b03d
000002e0: 2324 84bd 045e 5f3e 921b b13e 0f45 3bbe
000002f0: b4cb 203e d6e2 acbd 8c5e 90be 8779 dfbe
00000300: 888b e9be d2f1 6d3e 88bd 14be 28c4 0c3e
00000310: 40d3 b53e a951 6fbe 9c02 5fbc 8870 89bc
00000320: 75aa 60be 43c4 ccbe 00ea e0be e8f7 a03e
00000330: eced 10be ba4c a23d 0018 013f 63d7 97be
00000340: 105c 023e 78f0 df3c 7191 0dbe 6eb9 bcbe
00000350: 1a71 dcbe 66c5 a43e 16dd 38be 268d c0bc
00000360: d263 0e3f 7bf7 c7be 0dd8 1b3e 1c3a b03c
00000370: 14d3 a9bb 2907 94be 64ff bcbe 8e51 2b3e
00000380: f453 46be a0e8 d2ba 5041 dd3e 785b c5be
00000390: 5902 6f3e 5150 c33d c60f dd3d 0508 42be
000003a0: 0e03 bfbe 0ce6 1e3e 4abf 30be b507 1d3d
000003b0: a4d1 c03e 1b21 8bbe b9f6 cd3e 4f90 993d
000003c0: 9003 113e 4064 0abe ba55 bcbe 4055 c33d
000003d0: 2e7b 1abe 37c1 4c3d 084a 593e a312 87be
000003e0: 2a49 723e cf71 c23d f2ce 383e 32cb 5bbd
000003f0: 5a36 c6be 3cbf 5e3d 8443 76be 4a08 b83c
-0.102696225 -0.042866662 -0.17108554 -0.047696672 -0.04454782 0.1023338 0.01703617 0.04366948
0.29380777 0.18361947 -0.18811105 -0.09730318 -0.16054824 -0.16068186 -0.08289143 0.03254685
-0.0462142 0.05405226 0.23538989 0.05203504 -0.24218443 -0.18189588 -0.2461762 -0.17614385
-0.055142693 0.03324985 0.027888596 0.04639202 0.28197798 0.16633505 -0.33096445 -0.28594843
-0.40247887 -0.117585436 0.013990663 0.0563224 0.19702497 0.014952127 0.21515054 0.22697908
-0.35315523 -0.3088722 -0.425053 -0.16482016 -0.10861535 0.023385871 0.15861756 -0.017214723
0.0640112 0.14901209 -0.3543707 -0.35456696 -0.42113352 -0.24646325 -0.14096189 0.03777549
0.17641065 -0.015913084 0.08842637 0.2359496 -0.35703012 -0.35014603 -0.52672327 -0.1088942
-0.09261991 0.045385916 0.2151938 -0.016023822 0.1055239 0.15354538 -0.40730867 -0.34897518
-0.45587623 -0.2315239 -0.055105977 0.10547516 0.29336143 -0.057553302 0.1873666 0.20391804
-0.44595203 -0.34087315 -0.5138691 -0.16855612 -0.036986 0.13460377 0.25676548 -0.067022994
0.0879046 0.13985026 -0.48276123 -0.32751796 -0.47702605 -0.22319199 -0.043177173 0.14294195
0.26771158 -0.029975723 0.19407699 0.2231414 -0.500225 -0.3256566 -0.5434298 -0.1413033
-0.053083427 0.11200181 0.27021313 -0.06326701 0.10068321 0.26550406 -0.51140636 -0.31252253
-0.41976 -0.3053235 -0.07230273 0.103793204 0.28775913 -0.002207201 0.112274826 0.24351698
-0.41032976 -0.33765435 -0.39587337 -0.35030842 -0.20062715 0.018483158 0.27246636 0.071723506
0.15485412 0.053671658 -0.16973703 -0.42095983 -0.32665834 -0.40760428 -0.37258226 -0.065879315
0.1228493 0.06727055 0.16906726 0.029515445 0.0014503319 -0.43936744 -0.29040655 -0.38037184
-0.40735784 -0.10186109 0.037981544 0.13347748 0.27089167 0.081140295 0.024814608 -0.50655353
-0.22881868 -0.36848074 -0.34121135 -0.04267905 0.008328356 0.11073525 0.26217628 0.06467558
-0.13957725 -0.5531963 -0.38895297 -0.12612233 -0.12912938 0.17254362 0.02443979 -0.0033955686
0.20897457 0.20929497 -0.23071986 -0.49701992 -0.3177336 -0.0799447 -0.06236645 0.25541946
0.06703524 -0.08262122 0.06437695 0.1699256 -0.28033835 -0.43648663 -0.31439093 0.08630554
-0.06452205 0.21813208 0.34591347 -0.18288063 0.15702707 -0.08441703 -0.28197134 -0.43647406
-0.45614266 0.23236778 -0.14525425 0.13746703 0.35512733 -0.23370995 -0.013611462 -0.016777292
-0.21940024 -0.39993486 -0.43928528 0.31439137 -0.1415326 0.07924791 0.50427246 -0.29656515
0.12730432 0.027336344 -0.13825013 -0.36860222 -0.4305504 0.32181853 -0.18053088 -0.023504805
0.55621064 -0.39056 0.15219136 0.021512084 -0.005182633 -0.28911713 -0.36913598 0.1673033
-0.19367963 -0.0016091056 0.43213892 -0.38546348 0.2334074 0.095368035 0.10794024 -0.18948372
-0.37307018 0.15517443 -0.17260471 0.038337428 0.37659943 -0.27173695 0.40227297 0.07498228
0.14161515 -0.13514805 -0.36784154 0.095377445 -0.15086052 0.04998895 0.21219647 -0.26381406
0.23660722 0.094943635 0.18047693 -0.05366058 -0.38713342 0.054381594 -0.24049193 0.02246489
