weight/actions_history_2025-03-24_23-13-49.npy (npy, 20128 bytes, 1 tensors)

array f4 [500, 10]
00000000: b7c7 2abe 803f 69ba 7832 5bbe 222b 043d
00000010: 7220 03bd eabb a13d d48c 153e 0761 4f3d
00000020: b3a7 8c3e 285a 963e 5abd 97be f8b2 5c3c
00000030: 127b 8ebe ffec d3bd bc82 fcbc 48f2 af3d
00000040: 5652 743e 56f2 f2bc 7bc1 603e 38cf 643e
00000050: 4220 c9be 501c 43bb 325d b5be 5d1b 92bd
00000060: b04e 18bd aefa fd3c 303a ba3e f82a 43bd
00000070: febb 683e 6844 883e c6fa e7be 8426 a6bc
00000080: f9bf 01bf c35d c9bd bc66 ddbc a06a 13bc
00000090: 1e21 ea3e 027f f3bd 3bd7 533e fe7a a13e
000000a0: 7438 e1be c2a1 aabc 780b 10bf fb47 a0bc
000000b0: 4442 eebd f05c 18bb 7863 e93e e4f4 f4bd
000000c0: 6a13 c33c c682 993e a8b7 dfbe 8abb 1bbd
000000d0: f2cf 02bf 7bb8 05be 60bd 1ebd e5e9 133d
000000e0: 085e 0b3f 34e9 15be 85ea 333e f365 a33e
000000f0: be7b e9be 4800 08bd a7c8 ffbe 7372 2dbe
00000100: 746d 9dbc 1682 913d aeb1 fd3e 6894 cabd
00000110: 3d8e 833e cf54 b43e 7804 e7be f4c6 8fbc
00000120: 5b2f 05bf e5c9 23be c0fb e2bb ea01 c73d
00000130: 4e19 023f 8900 cabd 181a 9c3e 687f 9e3e
00000140: 18c2 e0be 08fa a63c 3cad cebe cccd 88be
00000150: d29b 44bd e5e2 1a3e 4a66 c23e a070 8dba
00000160: 9d00 763e 561f 873e 2cf5 cdbe ba63 773d
00000170: 0b8c 87be 3b17 c6be 1845 88be a66e f23d
00000180: dc7e 8c3e 51b2 093e 2871 873e 25b9 853e
00000190: 67bb 66be 40e7 d23c fedb 46be 6a65 bdbe
000001a0: 70a1 99be 52d4 993d 0c38 5dbc d938 a93e
000001b0: 7f5c 8c3e d95a 873e 8ccc 1dbe 463b 41bd
000001c0: 8192 37be 9b3e c6be b8ec 88be 8ca8 3c3c
000001d0: 68b7 e1bb 7c05 b33e 7076 ae3e 0f0b 8a3e
000001e0: 7d7c 76be fe6a 1cbe 443e a0be 0a71 67be
000001f0: 4ddc 4abe 4256 ac3d 3129 4c3d 069b 6a3e
00000200: 9bed 283e d3b6 243e bc80 adbe bb8a 3bbe
00000210: e7d0 c6be 6568 dabd 8836 1abd 775e 693e
00000220: 8595 ec3d 1ce4 b83d 6c22 31bc 152f 473e
00000230: 8c68 d4be a638 9ebe b728 d9be 1a20 3fbc
00000240: 20bb b2bb dfdc 5c3e 794d 943e 11a9 60bd
00000250: 6369 76bd f4a6 913d 0277 e7be a74b c3be
00000260: 97cd 0dbf 6438 453e 7001 7cbc be48 363e
00000270: 0598 003f 80ce 44be 4b13 14bd 5aeb e63c
00000280: 10ef cbbe b9e0 b4be 4c6d 20bf c454 a93e
00000290: eecb 92bd 92ba d13d 58c3 343f 73d4 b8be
000002a0: 82a9 873c 255e 783d b80e 8abe d297 a2be
000002b0: 7f99 1bbf e512 b33e ca00 9fbd cd35 773d
000002c0: fb51 543f 8bcc 04bf eeef b83d 44d6 833d
000002d0: c675 f3bd e238 73be b38a ffbe c50a 493e
000002e0: 7519 bbbd fed6 ab3d daf7 2c3f 13b0 0cbf
000002f0: 9db4 5e3e e477 e43d 3a29 8d3d a3a3 c9bd
00000300: cbcf f6be dbfb d73d 085d 0cbe e288 8c3d
00000310: 4628 c73e 506b abbe 457b 2d3e aca9 f93d
00000320: 4d17 473e 5f13 8b3d 7ffc debe 325b 303d
00000330: 92ed 96be e6fc cf3c ab19 8a3e 2e6e 68be
00000340: 932f 113e d4ba ce3d a9e3 7f3e 3a3c 443e
00000350: 63bf a5be 7bba c6bd 60c1 bebe 8c20 36bd
00000360: a47e 283e e6f2 eebc 24b1 f83d 6e01 d93d
00000370: 2895 893e 9e7c 5f3e 446f 81be 1fc1 adbd
00000380: a44e c9be 56d2 91bd cafd bb3d 8050 dd3d
00000390: c298 0f3e f6a7 f33d 2f4b 503e 10a6 e73d
000003a0: cafc 6fbe b302 96bd 6761 96be 4205 883c
000003b0: cec6 f43c 2aaf 313e 4c6d e93d e293 1c3e
000003c0: 06cb e73d 1cf4 34bd 2c0e 77be 1aa9 82bd
000003d0: 104b 5ebe 8e32 cb3d 1b5d 563d d197 6c3d
000003e0: 3781 273d e4fc 263e 1cc7 9bbb 57ce 3ebe
000003f0: 8998 dbbe a5a4 323e 8662 efbd 2070 383e
-0.16677748 -0.0008897707 -0.21405971 0.032267697 -0.032013364 0.0789717 0.14604503 0.05062964
0.27471694 0.2936566 -0.2963665 0.013470404 -0.2782827 -0.10347938 -0.030824058 0.08591133
0.23859534 -0.02965657 0.21948807 0.22344673 -0.39282423 -0.0029771514 -0.35422665 -0.071341254
-0.037184417 0.031003322 0.3637252 -0.0476484 0.22727963 0.2661469 -0.45308512 -0.020282038
-0.5068355 -0.09832337 -0.027026527 -0.008997589 0.4572839 -0.11889459 0.20687573 0.31539148
-0.43988383 -0.020829085 -0.562675 -0.019565573 -0.11633733 -0.0023248754 0.455837 -0.11960772
0.023812968 0.29982585 -0.43694806 -0.038020648 -0.5109855 -0.13058655 -0.03875482 0.03611173
0.54440355 -0.14639741 0.17569931 0.3191372 -0.4560222 -0.033203393 -0.49957773 -0.1693819
-0.01921723 0.0710489 0.4954962 -0.098915875 0.25694457 0.35220954 -0.45120597 -0.017550923
-0.52025384 -0.15994985 -0.0069269836 0.09717162 0.5081986 -0.09863383 0.30488658 0.30956578
-0.43898082 0.020382896 -0.40366542 -0.2671951 -0.048000164 0.15125616 0.37968665 -0.0010791011
0.24023671 0.26391095 -0.40226114 0.06039784 -0.26474032 -0.38689598 -0.26615214 0.11837511
0.27440536 0.13446929 0.2645352 0.26117817 -0.22532426 0.025745034 -0.19419858 -0.36991435
-0.3000598 0.075112 -0.013502132 0.33051184 0.2741432 0.264365 -0.1541006 -0.04717567
-0.1792698 -0.3871964 -0.26743102 0.011514794 -0.006888319 0.34965122 0.34074736 0.26961562
-0.24070926 -0.1527519 -0.31297505 -0.22601715 -0.198106 0.0841489 0.04984397 0.22910699
0.1649689 0.16085367 -0.3388728 -0.1831464 -0.38831255 -0.10664443 -0.03764966 0.22789942
0.11551956 0.090278834 -0.0108114295 0.19451554 -0.41486013 -0.30902594 -0.42413875 -0.011665368
-0.005454436 0.2156863 0.28965357 -0.054848734 -0.0601591 0.07111922 -0.45207983 -0.38143656
-0.5539183 0.19259793 -0.015381202 0.17801186 0.50231963 -0.19219398 -0.03615121 0.028188396
-0.39830828 -0.353277 -0.62666774 0.33072484 -0.07167803 0.102406636 0.7061057 -0.36099586
0.01656032 0.06063666 -0.26964355 -0.31756455 -0.6078109 0.34975353 -0.077638224 0.060354043
0.8293759 -0.5187461 0.09030138 0.06437352 -0.11887698 -0.23752168 -0.49910507 0.19633015
-0.09135715 0.08390616 0.6756569 -0.5495617 0.21748586 0.1115568 0.06892629 -0.09845664
-0.48205408 0.105460845 -0.13707364 0.06862046 0.38897914 -0.3348031 0.16941555 0.121905655
0.19442482 0.06790804 -0.43552014 0.04305572 -0.29478127 0.025389146 0.26972708 -0.2269828
0.14178304 0.100942284 0.24989189 0.191636 -0.3237258 -0.09703537 -0.37256908 -0.044464633
0.1645456 -0.029168557 0.12143162 0.10595976 0.2687161 0.21824881 -0.252802 -0.084841006
-0.3931781 -0.071201965 0.09179266 0.1080637 0.14023116 0.118972704 0.2034118 0.11310971
-0.23436275 -0.073247336 -0.29371187 0.01660407 0.029879954 0.17351976 0.113978 0.15290788
0.113180205 -0.044178113 -0.241265 -0.0637991 -0.21708322 0.09921752 0.052334886 0.05776197
0.040894713 0.16307408 -0.0047539603 -0.186334 -0.42889813 0.1744562 -0.11688714 0.18011522
