weight/actions_history_2025-03-25_08-22-39.npy (npy, 20128 bytes, 1 tensors)

array f4 [500, 10]
-0.0798011 -0.091898054 -0.1253457 -0.11517795 -0.043314137 -0.03753206 -0.011597805 0.04221342
0.28937495 0.093859136 -0.107325405 -0.12546724 -0.15094152 -0.2652515 -0.09476059 -0.03304329
-0.14757204 -0.011015277 0.1489014 0.097182944 -0.09879783 -0.19514087 -0.22622998 -0.23131153
-0.103030756 -0.107073545 -0.13169718 0.0340493 0.20443454 0.10580419 -0.111112356 -0.2706081
-0.25870958 -0.37157077 -0.129919 -0.13934202 -0.16023901 -0.046148032 0.25478262 0.10339676
-0.2447013 -0.25569114 -0.41710752 -0.2677966 -0.04002192 -0.07471308 -0.00811667 -0.11438146
0.18103579 0.07759237 -0.37622932 -0.19201663 -0.46369302 -0.2702557 -0.031921573 0.044770245
0.04876399 -0.1210036 -0.113516584 0.16470653 -0.5205375 -0.1314216 -0.51466966 -0.29073873
0.079295434 0.072534665 0.19314727 -0.18204193 -0.15701196 0.18717848 -0.6187843 -0.107268624
-0.67914796 -0.13073479 0.055270948 0.07756969 0.27363345 -0.19267334 -0.20282246 0.14712813
-0.67323065 -0.12952319 -0.6623132 -0.13702804 0.05331441 0.009318318 0.42132068 -0.29622197
-0.18834253 0.13917877 -0.6255498 -0.16366851 -0.7089988 -0.16079964 -0.093407206 -0.12969382
0.5120924 -0.29941213 -0.17519085 0.078942 -0.41364458 -0.1501162 -0.59281445 -0.24350792
-0.25229782 -0.26410052 0.34762385 -0.17426191 -0.18988295 0.08259831 -0.06156577 -0.22423309
-0.5815278 -0.14750335 -0.39123 -0.32387653 0.22938344 -0.0004762709 0.049789052 -0.04154944
0.13513447 -0.20450348 -0.69733596 -0.07563701 -0.3400567 -0.3942522 0.1534029 0.09492545
0.07766239 -0.15247986 0.179858 -0.15902102 -0.64041257 -0.10676387 -0.2636772 -0.38170525
0.19751218 0.121059224 0.09837787 -0.14636464 0.04947363 -0.1506337 -0.6368581 -0.10365312
-0.23979348 -0.1751735 0.26897198 -0.09185672 3.5557896e-05 -0.04874602 -0.042894583 -0.17497608
-0.6942754 -0.08416741 -0.20448017 -0.11697994 0.31289908 -0.20145828 -0.010607656 0.09318946
-0.10945425 -0.2252821 -0.8238106 0.069504894 -0.20981212 -0.09512417 0.4497623 -0.31456894
-0.12090045 0.111362174 -0.13124996 -0.23907295 -0.7461308 -0.040925045 -0.19457647 -0.06277765
0.5208885 -0.39301503 -0.16132332 0.13540635 -0.09789115 -0.24901548 -0.7657969 0.018520342
-0.15242654 -0.07944965 0.558976 -0.42454982 -0.057932477 0.09033905 -0.022097718 -0.26213452
-0.7268244 -0.04408466 -0.20748475 -0.0938728 0.5823809 -0.46700826 -0.004082639 0.021289788
0.09716892 -0.2796978 -0.7407454 -0.12537023 -0.25428766 -0.13920465 0.40712762 -0.4271663
0.0140093975 -0.039946582 0.23303556 -0.25817975 -0.7590376 -0.12407436 -0.27439398 -0.24767113
0.38338673 -0.29638696 0.054807913 -0.11161606 0.33355892 -0.21301362 -0.6586865 -0.30321547
-0.33163857 -0.30127957 0.31001022 -0.25495002 0.09331894 -0.19414265 0.3983638 -0.21325299
-0.6963099 -0.14851484 -0.30464712 -0.33736312 0.24424616 -0.07144688 0.10331914 -0.07592709
0.370631 -0.20787111 -0.6682651 -0.21032742 -0.26188505 -0.22093494 0.17901915 -0.08830084
0.056123953 -0.027747381 0.2330361 -0.16579126 -0.6729773 -0.15627453 -0.17168686 -0.04401995
00000000: c26e a3bd 0c35 bcbd a05a 00be 6be2 ebbd
00000010: 2a6a 31bd 38bb 19bd b804 3ebc fbe7 2c3d
00000020: f428 943e 3839 c03d 6ccd dbbd 7c7a 00be
00000030: 6a90 1abe 0bcf 87be d711 c2bd 6758 07bd
00000040: 201d 17be 6c79 34bc 9c79 183e da07 c73d
00000050: 8456 cabd 02d3 47be d5a8 67be eedc 6cbe
00000060: ca01 d3bd 6049 dbbd a0db 06be 4777 0b3d
00000070: 4a57 513e deaf d83d e08e e3bd 258d 8abe
00000080: 9575 84be 863e bebe 7d09 05be adaf 0ebe
00000090: b215 24be b805 3dbd de72 823e aec1 d33d
000000a0: fa92 7abe f3e9 82be 1e8f d5be a31c 89be
000000b0: 06ee 23bd 2c03 99bd c8fb 04bc d440 eabd
000000c0: 7261 393e c0e8 9e3d 21a1 c0be 02a0 44be
000000d0: 2c69 edbe f55e 8abe 32c0 02bd 0161 373d
000000e0: c0bc 473d bcd0 f7bd 627b e8bd d4a8 283e
000000f0: f241 05bf 6293 06be 64c1 03bf b5db 94be
00000100: a565 a23d 0e8d 943d 66c8 453e 3369 3abe
00000110: bec7 20be b7ab 3f3e a668 1ebf a7af dbbd
00000120: a4dc 2dbf 57df 05be ca63 623d dcdc 9e3d
00000130: af19 8c3e 294c 45be b1b0 4fbe c2a8 163e
00000140: d858 2cbf baa1 04be 5c8d 29bf 1451 0cbe
00000150: 3660 5a3d dcab 183c 58b7 d73e 68aa 97be
00000160: dddc 40be e184 0e3e 0824 20bf b898 27be
00000170: f280 35bf a9a8 24be 474c bfbd 75ce 04be
00000180: 7d18 033f 8c4c 99be 3b65 33be 58ac a13d
00000190: 39c9 d3be 10b8 19be b0c2 17bf 245a 79be
000001a0: 2e2d 81be 2f38 87be c1fb b13e b771 32be
000001b0: ad70 42be 4e29 a93d 642c 7cbd 5c9d 65be
000001c0: 02df 14bf 1e0b 17be 4c4f c8be 25d3 a5be
000001d0: 7ee3 6a3e 00b4 f9b9 9bef 4b3d bf2f 2abd
000001e0: b160 0a3e 5c69 51be 9c84 32bf 94e7 9abd
000001f0: e91b aebe 6ddb c9be a615 1d3e 4668 c23d
00000200: 760d 9f3d ae23 1cbe b22c 383e 68d6 22be
00000210: 14f2 23bf 04a7 dabd b300 87be df6e c3be
00000220: a240 4a3e e6ed f73d 567a c93d 9de0 15be
00000230: dca4 4a3d b83f 1abe 2209 23bf 1648 d4bd
00000240: 6c8c 75be af60 33be b2b6 893e 601f bcbd
00000250: 0024 1538 e8a9 47bd 3bb2 2fbd ee2c 33be
00000260: 08bc 31bf f75f acbd 4063 51be 2e93 efbd
00000270: 4f34 a03e 144b 4ebe bccb 2dbc 1eda be3d
00000280: 8d29 e0bd 5ab0 66be 40e5 52bf 9558 8e3d
00000290: fdd8 56be 76d0 c2bd 3f47 e63e 2e0f a1be
000002a0: a89a f7bd da11 e43d 6466 06be 8acf 74be
000002b0: 6e02 3fbf 05a1 27bd 0e3f 47be 9291 80bd
000002c0: f358 053f 4439 c9be f131 25be f6a7 0a3e
000002d0: 287b c8bd eafd 7ebe 440b 44bf f9b7 973c
000002e0: b415 1cbe 80b6 a2bd 0d19 0f3f 985e d9be
000002f0: 9b4a 6dbd ae03 b93d 4606 b5bc 7f36 86be
00000300: 2a11 3abf 1e92 34bd e276 54be 6240 c0bd
00000310: ea16 153f b51b efbe a8c7 85bb ec67 ae3c
00000320: 8000 c73d 8d34 8fbe 7ea1 3dbf 0e61 00be
00000330: fe31 82be aa8b 0ebe 0873 d03e 8bb5 dabe
00000340: ac87 653c 079f 23bd e0a0 6e3e 2330 84be
00000350: 4a50 42bf b31a febd 5e7d 8cbe 809d 7dbe
00000360: 444b c43e 08c0 97be 437e 603d f696 e4bd
00000370: 3cc8 aa3e 3e20 5abe ae9f 28bf 0f3f 9bbe
00000380: 88cc a9be 5141 9abe a9b9 9e3e cf88 82be
00000390: 001e bf3d 55cd 46be 57f6 cb3e fe5e 5abe
000003a0: 5e41 32bf 4614 18be b5fa 9bbe dcba acbe
000003b0: aa1b 7a3e be52 92bd fc98 d33d aa7f 9bbd
000003c0: 59c3 bd3e 2adc 54be 6c13 2bbf 1260 57be
000003d0: cc15 86be c53c 62be cc50 373e 12d7 b4bd
000003e0: 3be2 653d 7a4e e3bc 04a1 6e3e 2fc5 29be
000003f0: 3e48 2cbf 6e06 20be aece 2fbe 434e 34bd
