weight/actions_history_2025-03-24_20-56-53.npy (npy, 80128 bytes, 1 tensors)

array f4 [500, 4, 10]
000000 16 3a 7a 3d 85 07 39 bd e4 25 87 3d 4b 04 00 be
       0.06109055 -0.045173187 0.06599024 -0.12501638
000010 10 a5 5a be 5a 81 3f 3e 9c 5d 8b be 0e b3 fc 3c
       -0.21352029 0.18701687 -0.27219856 0.030847099
000020 86 61 e1 3e 20 45 80 3d 36 75 0f 3e c9 a4 0e be
       0.44019717 0.062631845 0.14009556 -0.13930048
000030 f8 28 bd 3d cb ed a9 bd 88 16 75 be 92 b4 40 3e
       0.0923633 -0.082973085 -0.23934376 0.18818882
000040 85 ac 91 be 88 ac c1 3d 9c c4 15 3f 32 0e f3 bc
       -0.28451934 0.09456736 0.5850313 -0.029669855
000050 61 e3 c9 3d a8 c6 b4 bd 70 bc 54 3e 1f 92 de bd
       0.09857822 -0.08826953 0.20775008 -0.10867714
000060 ca 50 6b be e6 b0 88 3e e6 39 5b be 23 09 4c 3d
       -0.22980037 0.26697463 -0.21408805 0.0498134
000070 00 d7 29 3f 4c 89 f6 3d c0 f8 8b 3b 2c e3 92 bd
       0.6634369 0.12037906 0.0042715967 -0.07172236
000080 94 db 24 bd 1f 92 43 3d f3 16 0d be 88 9c 45 3e
       -0.04024847 0.047746774 -0.13778286 0.19297993
000090 00 bd 12 be 10 8f 02 bb 64 87 7b 3e 48 58 4b 3e
       -0.1432991 -0.0019921698 0.24563366 0.19857895
0000a0 99 db b8 3d 54 5e 34 be 00 64 68 3b a8 6e 9b 3d
       0.0902626 -0.17614108 0.0035459995 0.075894654
0000b0 60 22 7a be 83 a4 a5 3e 0f 30 82 be 0e 22 d7 3c
       -0.24427176 0.32352075 -0.2542729 0.026261356
0000c0 dd e5 0e 3e a9 cc 5e 3e dd 65 9a 3e 34 1d be be
       0.13954873 0.21757759 0.3015584 -0.37131655
0000d0 4c 19 5c 3e 45 a2 e7 bd 07 f0 8a be f3 d1 c0 3e
       0.21494025 -0.11310247 -0.2713625 0.3766018
0000e0 04 c3 eb be 1a f5 d6 3c d8 ab f7 3e e0 ba d3 bc
       -0.46047223 0.02623992 0.48373294 -0.025845945
0000f0 b8 bd 62 3e 2c fd 9b be 26 b8 69 3e 2a 07 e9 bc
       0.22142684 -0.30466592 0.22824153 -0.028445799
000100 25 de 8b be 19 54 fe 3e a6 bd d4 be 22 76 c2 3c
       -0.2731792 0.49673536 -0.4155094 0.02373797
000110 52 b3 07 3f 2c 0d da 3d c6 bf 82 3d df e0 6e be
       0.53007996 0.106470436 0.06384234 -0.23327969
000120 d6 ff ba 3d e8 c7 9f bd c1 71 91 be 54 94 a2 3e
       0.09130828 -0.07801801 -0.284071 0.3175379
000130 b2 7a a4 be 94 a6 0d 3c fe 32 a8 3e 70 a2 c1 3d
       -0.3212486 0.008645672 0.32851404 0.094548106
000140 dd 0f a3 3d 0c 4f f6 be 29 69 4a be aa 37 ca 3e
       0.0796201 -0.48107183 -0.19766678 0.39495593
000150 9b ef ba bd 57 c7 c1 3e 02 43 28 be 12 e2 d1 bd
       -0.09127732 0.37847397 -0.16431811 -0.102481976
000160 9c 17 6f 3d 0b ae 61 3e c1 ca b4 3e c1 54 1e bf
       0.058372125 0.22039048 0.3531094 -0.61848074
000170 fc 57 50 3d 94 ff 87 3e 68 25 e3 bd 57 45 f5 3e
       0.05086516 0.26562178 -0.11091119 0.47904465
000180 6c cd 91 be 5c 91 f3 bd 71 2c b6 3e 7c da 79 3d
       -0.28477037 -0.118929595 0.3558078 0.06099938
000190 1c d8 8a 3e 22 5d 15 bf a0 cb ad 3d 65 52 95 3e
       0.27118003 -0.58345234 0.08486104 0.29164425
0001a0 e8 ca 1d be 90 05 27 3f 0f 89 a4 be fb 90 09 be
       -0.15409434 0.6524286 -0.32135817 -0.13434212
0001b0 b0 5b c4 3e c1 1d 01 3e 68 f6 0d 3e 57 ca dd be
       0.38351202 0.12609006 0.13863528 -0.43318436
0001c0 00 b4 52 3a 9e 82 77 3e 8a 58 57 be bf 39 e6 3e
       0.00080376863 0.2417092 -0.21029869 0.44965932
0001d0 1b 9e 95 be 6a e2 d2 3d 75 20 f4 3e 9a dc 1e 3d
       -0.29222187 0.10297091 0.47681013 0.0387846
0001e0 4e f5 04 3e 92 cc 5d bf 92 b8 16 be 0d 04 c0 3e
       0.12984201 -0.86640275 -0.14718845 0.3750309
0001f0 68 b2 7f 3c 35 d6 e0 3e a8 fb 78 bd 03 57 a5 be
       0.0156065 0.43913427 -0.060786873 -0.32292947
000200 24 6e f7 3d f5 fa 55 3e 56 45 49 3e 0f 84 61 bf
       0.120815545 0.20896514 0.19655356 -0.8809213
000210 2e 5a fe 3d d2 85 51 3e 9f 1e a6 bd dc 79 2a 3f
       0.12419544 0.20461205 -0.08111309 0.6659219
000220 08 78 34 be 30 cf b8 be 90 bc c0 3e e0 a2 bb 3d
       -0.17623913 -0.36095572 0.37643862 0.09161925
000230 ba 98 79 3e 8f 60 61 bf d8 ae 3b 3e 18 1a ba 3e
       0.24374667 -0.8803796 0.18328416 0.36348033
000240 7d ef 07 be 02 ad 4b 3f 93 bb 2e be 2a 85 df be
       -0.13274951 0.79560864 -0.17063741 -0.43656284
000250 c3 39 bc 3e fe df cd 3d 5e 6f 09 3e 25 b7 36 bf
       0.3676282 0.10052489 0.1342139 -0.71373206
000260 c0 22 98 3b a2 f3 a2 3e 7c f5 9e bd c0 f5 16 3f
       0.0046428144 0.31826502 -0.07761666 0.58968735
000270 80 77 1a be 93 4f 6b be b8 7c 97 3e 49 90 14 3e
       -0.15084648 -0.22979574 0.2958734 0.14508165
000280 02 ca 74 3e ec 37 96 bf 77 59 bd be bf 3e 6c 3f
       0.23905185 -1.1735816 -0.3698232 0.9228324
000290 08 8a 3f bc 1a 66 0d 3f 24 7e e4 3d 2f 33 04 bf
       -0.011690624 0.5523392 0.11156872 -0.516406
0002a0 49 f8 3b 3e 74 cd fb 3c 6c f2 21 3e 17 f6 8a bf
       0.18356432 0.030737616 0.15815133 -1.0856351
0002b0 ee 88 46 3e 55 7a c2 3e 65 3c 4a bd 12 95 43 3f
       0.19388172 0.37983957 -0.049374003 0.7639934
0002c0 30 7b 5f bd 8a cd 0e bf f2 13 74 3e 82 e8 98 bd
       -0.05456084 -0.5578238 0.23835734 -0.07466222
0002d0 64 c8 82 3e d4 3c 8e bf bc 08 dc bc 48 b7 4f 3f
       0.2554351 -1.1112313 -0.026859634 0.8113904
0002e0 cc 7e 52 be f4 ed 61 3f a0 4e df bb e7 f3 08 bf
       -0.20556182 0.8825371 -0.0068147928 -0.53497165
0002f0 9b 13 64 3e a0 ad 84 bd e6 3c 97 3d 8c 29 84 bf
       0.22273104 -0.06478429 0.07384662 -1.0325179
000300 2a 33 0a be 0d d0 14 3f 04 7f a4 bc 8c aa 23 3f
       -0.1349608 0.5812996 -0.020080097 0.6393211
000310 c4 6e a7 bd f6 10 bb be 42 80 6c 3e 40 77 0d bd
       -0.08175424 -0.36536378 0.23095801 -0.034537554
000320 af d1 b0 3e 85 b3 b6 bf 8a 95 90 be a6 09 8b 3f
       0.34534976 -1.4273535 -0.2823909 1.086232
000330 46 c1 8f bd 54 e1 03 3f d5 77 b5 3e f1 f5 32 bf
       -0.07019286 0.515157 0.35442987 -0.69906527
000340 80 de fc 3d c0 6b bf 3b 15 cd db 3d ac 3c a5 bf
       0.12347126 0.005841702 0.10732476 -1.290914
000350 2e 1a 85 3d 15 3c 21 3f 92 74 bf bd d6 77 54 3f
       0.06499134 0.629823 -0.09348406 0.82995355
000360 20 46 7b bc 86 43 48 bf 9c f8 0c 3e 26 99 dd bd
       -0.015336543 -0.7822803 0.13766712 -0.10820226
000370 7a 9d b5 3e d6 58 a9 bf 6c 0f 8d bc df 8e 8c 3f
       0.35471708 -1.3230236 -0.017219268 1.0981101
000380 71 ff ba be 0a ec 5b 3f 8e 1a 26 3e 06 b7 54 bf
       -0.3652301 0.8590704 0.16221067 -0.8309177
000390 0f 20 57 3d 4a c2 23 be 9a 4a 6b 3e 34 55 a3 bf
       0.052520808 -0.15992084 0.22977677 -1.2760377
0003a0 b5 0f a7 be e8 95 73 3f 76 05 2d be 2e df 2a 3f
       -0.3262917 0.95150614 -0.16896614 0.66746795
0003b0 40 9f a6 3d dc 34 1b bf 76 a2 75 3d 92 fa 80 bd
       0.08135843 -0.6062753 0.059969388 -0.062977925
0003c0 9b 2f 28 3f 10 ca c8 bf e4 0e d8 be f8 17 b4 3f
       0.6569764 -1.5686665 -0.4219886 1.4069815
0003d0 fa 54 86 be 61 65 fc 3e f4 b9 d7 3e 41 c2 6d bf
       -0.26236707 0.49296096 0.42134058 -0.9287453
0003e0 f3 a2 57 3e f8 8c b4 3b 24 30 32 3e eb fc b9 bf
       0.21058254 0.005509969 0.17401177 -1.453031
0003f0 74 11 fa bc eb 9e 81 3f ca 85 c6 bd f0 ce 57 3f
       -0.0305259 1.0126623 -0.09693487 0.84300137
