weight/actions_history_2025-03-25_08-26-30.npy (npy, 20128 bytes, 1 tensors)

array f4 [500, 10]
0	0xbcbffb4b	-0.023435256
1	0xbd67ee61	-0.05662382
2	0x3b063e80	0.002048403
3	0xbde75976	-0.1129636
4	0xbe5400c8	-0.20703423
5	0x3e2e0fc4	0.16998202
6	0xbe16d983	-0.14731412
7	0xbcb0ce70	-0.021582812
8	0x3f19db48	0.6010022
9	0x3dee57aa	0.11637814
10	0x3b9b3c04	0.004737379
11	0xbd036f34	-0.032088473
12	0xbd0aaf9c	-0.03385888
13	0xbac3b444	-0.0014931043
14	0xbeb26635	-0.34843603
15	0x3e09b4b5	0.1344784
16	0xbeb2ab7e	-0.34896463
17	0x3df32fcc	0.11874351
18	0x3f2082ef	0.6269979
19	0x3e7ed60a	0.24886337
20	0x3dae17d8	0.085006416
21	0xbc03d520	-0.008046418
22	0x3d5613c0	0.05226493
23	0x3bf38adb	0.0074323243
24	0xbed2c2ae	-0.41164154
25	0x3e10dfb0	0.1414783
26	0xbeedca96	-0.46443623
27	0x3df3d9ba	0.119067624
28	0x3f3084db	0.6895272
29	0x3e21fddc	0.15819496
30	0x3ddeeee2	0.10885407
31	0xbdb61468	-0.08890611
32	0xbd9fbde7	-0.07799893
33	0x3e43c9de	0.19119975
34	0xbe804b9e	-0.2505769
35	0x3e3b1b79	0.18272199
36	0xbe987654	-0.29777777
37	0x3d412ae4	0.047160044
38	0x3f0f2766	0.5591949
39	0x3d61b555	0.055104572
40	0x3d95aa58	0.07307881
41	0xbdc94646	-0.09827857
42	0xbe6e128a	-0.2324926
43	0x3ef29ef8	0.4738691
44	0xbe198b17	-0.14994465
45	0x3e9dc08c	0.30810964
46	0xbcaf58e0	-0.021404684
47	0xbe02f2aa	-0.12787881
48	0x3ea9b381	0.33144763
49	0xba7cf2c0	-0.00096492097
50	0xbc48287e	-0.012216685
51	0xbe1225e4	-0.14272267
52	0xbe6b3b8a	-0.22971931
53	0x3f045062	0.51685154
54	0xbe21e883	-0.15811352
55	0x3eabb1dc	0.33534133
56	0x3e1217f8	0.14266956
57	0xbe939124	-0.2882167
58	0x3e95e191	0.29273656
59	0xbd97d55a	-0.074137405
60	0xbda45a4f	-0.080250375
61	0xbe39d867	-0.18148957
62	0xbec9151b	-0.39273915
63	0x3f368b00	0.7130585
64	0xbe1e88e1	-0.15481903
65	0x3e9985b4	0.2998482
66	0x3eaa9a42	0.33320814
67	0xbec912ca	-0.39272147
68	0x3e73b4b0	0.23799396
69	0xbc74d66c	-0.0149437
70	0xbd318706	-0.04334166
71	0xbe71fe1f	-0.23632096
72	0xbed458b1	-0.41473916
73	0x3f5d9062	0.86548436
74	0xbdf5fad8	-0.12010735
75	0x3e7100d2	0.23535469
76	0x3f094c73	0.5363228
77	0xbee9ee70	-0.45689726
78	0x3e99f31b	0.30068287
79	0x3b0efd80	0.0021818578
80	0x3da26c5b	0.079308234
81	0xbe97d75c	-0.29656494
82	0xbead0fe9	-0.338012
83	0x3f5be1c9	0.85891396
84	0xbdd7f676	-0.105450556
85	0x3e7e46cc	0.24831694
86	0x3f2639d8	0.6493201
87	0xbef7478e	-0.4829678
88	0x3ea6b82c	0.32562387
89	0xbc9fdd5e	-0.019514736
90	0x3e52394b	0.20529668
91	0xbe8cc0d4	-0.27490866
92	0xbe58f2ff	-0.21186446
93	0x3f1e87d1	0.6192599
94	0xbd67cdce	-0.056592755
95	0x3e72366a	0.2365357
96	0x3f10736a	0.5642611
97	0xbf070ce5	-0.5275405
98	0x3ec8682d	0.3914198
99	0x3cc7b13e	0.024376508
100	0x3e8ae7d1	0.27129987
101	0xbe8f4904	-0.27985394
102	0xbe22bb1e	-0.15891692
103	0x3eeb2ef1	0.4593425
104	0xbd5aaafe	-0.053385727
105	0x3e88bdf0	0.2670741
106	0x3e9bbc64	0.30417168
107	0xbedbd220	-0.4293375
108	0x3e1968a5	0.14981325
109	0x3d454553	0.048161816
110	0x3ebb3903	0.36566934
111	0xbe7e91a9	-0.24860252
112	0xbe745ca0	-0.23863459
113	0x3ea4aa93	0.32161388
114	0xbe3c2ad8	-0.18375719
115	0x3e48a2c5	0.19593342
116	0x3d797f3e	0.060912363
117	0xbe963640	-0.29338264
118	0xbc9d5750	-0.019206673
119	0x3ddddaf4	0.108327776
120	0x3edc9333	0.43081054
121	0xbe1fd407	-0.15608226
122	0x3d0dca48	0.03461674
123	0x3c0132cc	0.007885646
124	0xbeb48d40	-0.35264015
125	0x3e1c52cf	0.15265964
126	0xbdae6b6e	-0.08516584
127	0xbe395cd8	-0.18101823
128	0x3e96d826	0.29461783
129	0x3e65e6fe	0.22451398
130	0x3eedcf6e	0.4644732
131	0xbdb88f20	-0.09011674
132	0x3e39194c	0.18076056
133	0xbdf61e7e	-0.12017535
134	0xbee1d67e	-0.44108957
135	0x3da95ce4	0.082696706
136	0xbe4d05ef	-0.20021795
137	0xbd318376	-0.04333826
138	0x3ef48f7a	0.47765714
139	0x3dfde0d8	0.12396401
140	0x3ee3eca2	0.44516474
141	0xbe2d9404	-0.16950995
142	0x3e4317aa	0.19051996
143	0xbd8f787a	-0.07005401
144	0xbec5f3de	-0.38662618
145	0x3e155544	0.14583308
146	0xbea754ce	-0.32681888
147	0x3e176560	0.14784765
148	0x3f015125	0.5051444
149	0x3e30e53c	0.17274946
150	0x3ea4dc69	0.3219941
151	0xbe9d46be	-0.30718035
152	0x3c98a148	0.018631592
153	0x3e2aa58f	0.16664718
154	0xbea9ecbc	-0.33188426
155	0x3e9fe3a6	0.3122837
156	0xbe71a48f	-0.2359793
157	0x3dc69988	0.096972525
158	0x3eb88069	0.3603547
159	0x3d63ee81	0.055647377
160	0x3e42aa13	0.1901019
161	0xbea1b288	-0.3158152
162	0x3d6db450	0.058033288
163	0x3e50b14a	0.2038013
164	0xbe9de828	-0.30841184
165	0x3eb72a72	0.3577457
166	0xbd3ef922	-0.04662431
167	0xbc040998	-0.008058928
168	0x3e798c88	0.24370015
169	0xbd15942f	-0.036518272
170	0x3db5cda4	0.088771135
171	0xbea38198	-0.3193481
172	0xbe2c836c	-0.16847008
173	0x3ed6f27b	0.41981873
174	0xbe982fce	-0.29723972
175	0x3e9c5b92	0.30538613
176	0x3dab591b	0.08366605
177	0xbd8f5163	-0.06997945
178	0x3e46eb20	0.1942563
179	0xbd9dc868	-0.0770424
180	0x3e0a3c66	0.13499603
181	0xbea618c4	-0.3244077
182	0xbe7f945c	-0.24958938
183	0x3f21ddc3	0.63229007
184	0xbe987508	-0.29776788
185	0x3e718718	0.2358669
186	0x3e8af407	0.27139303
187	0xbe575c01	-0.2103119
188	0x3dc066f5	0.093946375
189	0xbe1266d1	-0.14297034
190	0x3e7ad8f7	0.24496828
191	0xbea0b1b6	-0.31385583
192	0xbed40695	-0.41411272
193	0x3f7c7817	0.9862074
194	0xbe7ed10c	-0.24884433
195	0x3e09dc28	0.13462889
196	0x3f0f21e8	0.5591111
197	0xbe9ded62	-0.3084517
198	0x3e3f54b8	0.18684661
199	0xbe3d187c	-0.18466371
200	0x3eb174c1	0.3465939
201	0xbeb34d36	-0.35019845
202	0xbec0f0ba	-0.3768366
203	0x3f7fa482	0.99860394
204	0xbe73aea7	-0.23797093
205	0x3e0d0816	0.13772616
206	0x3f2c3f2a	0.6728388
207	0xbedfa182	-0.43677908
208	0x3ebe6275	0.37184492
209	0xbe0629bf	-0.13101862
210	0x3edf4a63	0.4361144
211	0xbeabebd6	-0.33578366
212	0xbe896a0c	-0.2683872
213	0x3f51aca5	0.8190406
214	0xbe6a3346	-0.22871122
215	0x3e2e58c6	0.17026052
216	0x3f0db224	0.55349946
217	0xbefc36b6	-0.4926049
218	0x3e963ad7	0.29341766
219	0xbe00c39f	-0.12574624
220	0x3f050dd7	0.5197424
221	0xbeafff4a	-0.34374458
222	0xbe63e9f2	-0.22257212
223	0x3f1ec925	0.6202567
224	0xbe431b75	-0.19053443
225	0x3e7917b8	0.24325454
226	0x3e9b18be	0.30292314
227	0xbf0105fc	-0.50399756
228	0x3dbf0379	0.09326834
229	0xbcddaa96	-0.02705888
230	0x3f17cbf1	0.59295565
231	0xbe9dc8c2	-0.3081723
232	0xbe88bf5e	-0.26708502
233	0x3edc6648	0.43046784
234	0xbe780599	-0.24220885
235	0x3e4d94b6	0.2007626
236	0x3da3ff8c	0.08007726
237	0xbedf41c6	-0.4360487
238	0xbd7f2f66	-0.062301062
239	0x3dc640c0	0.09680319
240	0x3f2aa50b	0.66658086
241	0xbe45beb5	-0.1931103
242	0xbde74794	-0.11292949
243	0x3e351c03	0.17686467
244	0xbeaca2a6	-0.3371784
245	0x3dea7d9a	0.11449738
246	0xbda2414e	-0.07922612
247	0xbe92aaae	-0.28645843
248	0x3df918b9	0.121629186
249	0x3e3c0c67	0.18364106
250	0x3f2fd362	0.6868192
251	0xbe2bdfa8	-0.16784537
252	0x3da3e718	0.08003062
253	0xbd1d1c03	-0.038356792
254	0xbec1e3b0	-0.37869024
255	0x3df35d5e	0.11883043
