weight/actions_history_2025-03-24_22-37-02.npy (npy, 80128 bytes, 1 tensors)

array f4 [500, 4, 10]
0	0x3de658c2	0.11247398
1	0xbdff209e	-0.12457393
2	0x3e45e12b	0.19324176
3	0xbde781c3	-0.11304047
4	0xbe91b430	-0.28457785
5	0x3e949095	0.29016557
6	0xbe8477df	-0.25872704
7	0x3beb03f0	0.0071721002
8	0x3f2d86ea	0.6778399
9	0x3dcabcd4	0.09899297
10	0x3ce42d31	0.02785358
11	0xbe280278	-0.16407192
12	0x3df35c10	0.11882794
13	0xbd9a72cb	-0.07541426
14	0xbe8040fd	-0.25049582
15	0x3e80076d	0.25005665
16	0xbe52ee04	-0.20598608
17	0xbd630785	-0.055427093
18	0x3f101d20	0.5629444
19	0x3de63a1c	0.11241552
20	0x3c8a84ad	0.016908968
21	0xbe17993e	-0.14804551
22	0x3d8e830e	0.069585904
23	0xbda7c8a2	-0.081925645
24	0xbe53773c	-0.20650953
25	0x3e7531f9	0.23944844
26	0xbe5ca38a	-0.2154676
27	0xbda80b0c	-0.08205232
28	0x3eeb1380	0.45913315
29	0x3dab6680	0.0836916
30	0x3ce43efb	0.027862063
31	0xbe186a16	-0.14884219
32	0xbcd8735c	-0.026422195
33	0x3dda9f1b	0.10674878
34	0xbe2e88ca	-0.17044368
35	0x3e6f4551	0.23366286
36	0xbe112ff0	-0.14178443
37	0xbc8e8bf0	-0.017400712
38	0x3ec0b568	0.37638402
39	0x3e082eff	0.13299178
40	0x3e8d4b4c	0.2759651
41	0xbf06a7a5	-0.52599555
42	0x3e4bb605	0.19893654
43	0xbe110e0c	-0.14165515
44	0xbebc5dfe	-0.3679046
45	0x3f017bdd	0.50579625
46	0xbf0f2f0a	-0.5593115
47	0xbdcf8177	-0.10132115
48	0x3f0b675c	0.5445459
49	0x3c9d12ee	0.019174065
50	0x3d7eaab4	0.062174514
51	0xbee3d553	-0.4449869
52	0x3bd4a870	0.006489806
53	0x3e245a58	0.16050088
54	0xbe8501b5	-0.25977865
55	0x3edc7b9b	0.43063053
56	0xbe9553bb	-0.29165444
57	0xbdb27c04	-0.0871506
58	0x3e2cba24	0.16867882
59	0x3e500488	0.20314229
60	0x3d8fe632	0.07026328
61	0xbee8491f	-0.45368287
62	0xbc92ad66	-0.017904948
63	0x3e615564	0.2200523
64	0xbe2352c6	-0.15949544
65	0x3ed0d5f5	0.40788236
66	0xbe3c329c	-0.18378681
67	0xbe3d20a4	-0.18469483
68	0x3e4d2936	0.20035252
69	0x3e255f45	0.16149624
70	0x3dc274de	0.09494947
71	0xbeebeaa6	-0.4607746
72	0x3e07fd94	0.13280326
73	0x3bbc46fd	0.005745767
74	0xbe654180	-0.22388268
75	0x3ec086a0	0.3760271
76	0xbe63c420	-0.22242785
77	0xbe51d267	-0.20490418
78	0x3ecbbd30	0.39792776
79	0x3d1c7ea1	0.0382067
80	0x3ea85577	0.32877705
81	0xbf601fe9	-0.8754869
82	0x3e14af08	0.14519894
83	0x3e30c491	0.17262484
84	0xbe3fa274	-0.18714315
85	0x3f219bbf	0.63128275
86	0xbed264f6	-0.41092652
87	0xbe870048	-0.26367402
88	0x3ebeb83a	0.3724993
89	0x3d092fe5	0.03349294
90	0x3da63fac	0.08117613
91	0xbf463748	-0.774281
92	0xbda21167	-0.079134755
93	0x3f05c888	0.5225911
94	0xbe0ec497	-0.1394218
95	0x3f0b9ee0	0.545393
96	0xbddce448	-0.10785729
97	0xbe58a2fe	-0.21155927
98	0x3e7bec94	0.24601966
99	0x3e378020	0.1791997
100	0x3cc1a29d	0.02363711
101	0xbf478858	-0.7794242
102	0xbd95bf5e	-0.07311891
103	0x3eb07f46	0.34472102
104	0xbb8ccc20	-0.0042967945
105	0x3ef23e4f	0.47313163
106	0xbde83124	-0.11337498
107	0xbea229e2	-0.3167258
108	0x3e3f2e16	0.18669924
109	0x3e06dd10	0.13170266
110	0x3dc18dd3	0.09450879
111	0xbf452662	-0.7701169
112	0x3d7ed898	0.06221828
113	0x3e86fd14	0.26364958
114	0xbe2a78b4	-0.16647607
115	0x3f0c25ce	0.54745185
116	0xbe1a6eca	-0.15081325
117	0xbe969798	-0.29412532
118	0x3eb69bb3	0.35665664
119	0x3d783685	0.06059887
120	0x3e8ab45d	0.2709073
121	0xbf8b8ddc	-1.0902667
122	0x3dd48c06	0.1037827
123	0x3eacc14f	0.33741233
124	0xbe3f841e	-0.18702742
125	0x3f2e98e9	0.6820207
126	0xbe2b34eb	-0.16719405
127	0xbef26cf0	-0.47348738
128	0x3e820487	0.2539408
129	0x3cd22e9e	0.025656994
130	0x3d9d5298	0.07681769
131	0xbf935177	-1.1509236
132	0xbe282918	-0.16421926
133	0x3f233f37	0.63768333
134	0xbdb42e38	-0.08797878
135	0x3f137333	0.57597655
136	0xbd352c4c	-0.044231698
137	0xbee6c6ca	-0.4507354
138	0x3e60c262	0.21949151
139	0x3d6f4029	0.058410797
140	0xbcd2f9b9	-0.025753843
141	0xbf88763e	-1.0661085
142	0xbdb46036	-0.08807413
143	0x3f02608f	0.50928587
144	0x3b8cec80	0.004300654
145	0x3f068d87	0.52559704
146	0x3c707450	0.014676169
147	0xbf12ba64	-0.5731566
148	0x3e219076	0.15777764
149	0x3d8710ac	0.06594977
150	0x3d102760	0.0351938
151	0xbf85f208	-1.0464487
152	0x3dd3a912	0.10334982
153	0x3eb2db88	0.34933114
154	0xbd928b8e	-0.07155524
155	0x3f2095f9	0.6272884
156	0xbdebc3e2	-0.11511971
157	0xbf0e6453	-0.5562183
158	0x3e8886ae	0.26665252
159	0x3d708ef7	0.058730092
160	0x3e7c4603	0.24636082
161	0xbfa7b93f	-1.3103408
162	0x3e275c65	0.1634384
163	0x3efbf31f	0.49208924
164	0xbdb5e232	-0.08881034
165	0x3f4123a1	0.7544499
166	0xbd029fa0	-0.03189051
167	0xbf3c3944	-0.7352488
168	0x3e5af51e	0.21382567
169	0xbe040507	-0.12892543
170	0x3e934f13	0.28771266
171	0xbfb84111	-1.4394857
172	0xbeef5e12	-0.46751457
173	0x3faa2bad	1.3294579
174	0xbe053617	-0.13008915
175	0x3f3162e9	0.6929155
176	0x3e7b892a	0.24564043
177	0xbf2578ec	-0.6463764
178	0x3eb8bfdb	0.36083874
179	0xbd9508c2	-0.07277061
180	0x3d7da37e	0.061923496
181	0xbfadec3b	-1.3587717
182	0xbded2848	-0.11579949
183	0x3f6546c5	0.8956111
184	0x3d3d99ae	0.04628914
185	0x3f1a287c	0.60218024
186	0x3e5792f2	0.21052149
187	0xbf4fbd48	-0.81148195
188	0x3e00f5fc	0.12593836
189	0xbd90d9e1	-0.07072807
190	0x3d186bf4	0.037212327
191	0xbfa590af	-1.2934779
192	0x3dd61a2a	0.10454209
193	0x3f09bc33	0.53802794
194	0xbcfb08ec	-0.030643903
195	0x3f467f35	0.7753785
196	0xbd2b0302	-0.041750915
197	0xbf49e28a	-0.78861296
198	0x3e344370	0.1760385
199	0xbd5d1f38	-0.05398485
200	0x3e053c8d	0.1301138
201	0xbfc2267d	-1.5167996
202	0x3d524e04	0.051343933
203	0x3f44392b	0.7664973
204	0xbe83c3fc	-0.25735462
205	0x3f479e14	0.77975583
206	0x3dc2c056	0.095093414
207	0xbf678966	-0.9044403
208	0x3e152dec	0.14568299
209	0xbe3ca8d9	-0.18423785
210	0x3f0f121f	0.55887026
211	0xbfd3fff8	-1.656249
212	0xbe8cd8de	-0.27509207
213	0x3fb17447	1.386361
214	0xbe812ce8	-0.25229573
215	0x3f2fda29	0.6869226
216	0x3f0ce690	0.5503931
217	0xbf825cb3	-1.018454
218	0x3ec45932	0.383493
219	0xbccc242d	-0.024919594
220	0x3df40ae8	0.11916143
221	0xbfc9f645	-1.577828
222	0xbe4215ec	-0.18953675
223	0x3f8ce63f	1.1007766
224	0xbd5202f7	-0.05127236
225	0x3f1b4677	0.60654396
226	0x3eab6503	0.33475503
227	0xbf84d79e	-1.0378301
228	0x3e3489d0	0.17630696
229	0xbb556a10	-0.003256444
230	0xbd14f654	-0.03636773
231	0xbfc02f0d	-1.5014359
232	0xba676b80	-0.00088279694
233	0x3f493058	0.7858939
234	0xbd369dd0	-0.044584095
235	0x3f4a066f	0.78916067
236	0x3d2cfd40	0.042233706
237	0xbf72de47	-0.9487042
238	0x3de433c7	0.11142688
239	0xbdf2fb06	-0.11864285
240	0x3e762409	0.24037184
241	0xbfddc398	-1.7325315
242	0xbe3b566a	-0.18294683
243	0x3f9f2437	1.2432927
244	0xbed1e7f8	-0.4099729
245	0x3f53a087	0.8266682
246	0x3e4876ea	0.19576612
247	0xbf817580	-1.0113983
248	0x3da3bc8a	0.07994945
249	0xbe20fa7b	-0.1572055
250	0x3f5857b9	0.84508854
251	0xbfe7b01a	-1.8100617
252	0xbedbc80c	-0.4292606
253	0x3fe53c77	1.7909077
254	0xbec1ecea	-0.37876064
255	0x3f343055	0.7038625
