weight/actions_history_2025-03-25_19-21-44.npy (npy, 20128 bytes, 1 tensors)

array f4 [500, 10]
00000000: d603 48bc 7a74 e03c 5847 5dbe 5aad 32bc
00000010: 3715 5cbe 3709 0d3e 3c93 d0bd 9819 0abd
00000020: b37b e33e 5853 6a3e 2953 103e 5402 97bd
00000030: c3f0 14bd b57d e4bd 404f c1be 4ca5 883e
00000040: 36cc 97be 5506 a93d 96db 333f 7c76 d73d
00000050: 93d3 9a3e 6ec8 82be bc7a 87bd bccb 98bd
00000060: cb08 9dbe d6d1 973e 937d 7fbe d245 0e3e
00000070: 8c9c 5a3f af6d 1a3d c690 8a3e 5e0b c4be
00000080: a469 8ebe 6882 813e 8e66 87bd 88a7 b73e
00000090: 7898 c6bc 688f 52bd 291f 1a3f 147f ad3d
000000a0: 22ad 5f3e c0f2 e5be f02e d8be 51d8 0c3f
000000b0: 58d1 83bd 3899 b73e a2ac 3b3e 8a2d 15be
000000c0: f868 cf3e 94d6 fa3d 31f9 273e 8437 0fbf
000000d0: ca8b e7be cfc9 273f e925 34be 30d7 b43e
000000e0: f2ee 983e f853 8fbe 4a36 8f3e c89a 88bd
000000f0: 8aab 343e 8496 28bf 56ee 2abf 4ecf 843f
00000100: 6d87 6dbe 915a 663e 6712 203f 6f6f b5be
00000110: 14e8 5c3e f5cd 39be 1bd4 b13e c608 35bf
00000120: 1c60 2bbf b102 9b3f 95aa 7cbe b6a2 e03d
00000130: 89a6 593f 0be6 fcbe 4d7f 003e f6b4 16be
00000140: d651 eb3e b9e0 33bf 4764 01bf 9d72 913f
00000150: 7f8c 7cbe d74e 413d dfe2 6b3f df9c 07bf
00000160: 4120 363e ff02 31be 21cd 093f d9d2 22bf
00000170: 32f9 a6be 1d4b 513f c05d e5bd 0232 f53c
00000180: 0ad5 463f 4636 05bf 3781 6e3e 7e59 85bd
00000190: c223 0c3f d8b2 1ebf 6f37 ddbe adbf 433f
000001a0: 4ec0 b0bd 4418 a93d a243 ee3e 5449 dabe
000001b0: d8ad 693d 4f73 5abd 0917 1a3f 3e0d 0fbf
000001c0: 9a06 fdbe f34d e73e 7503 3ebe 647a a83d
000001d0: fe58 913e ed24 c5be 36c4 86bd 5155 183d
000001e0: f3e6 3d3f 41fe f9be 06cd 53be 62f6 0a3e
000001f0: 1eef 9ebe b75c 463d e10a 523e 4917 b1be
00000200: 34c2 b23d 12ad 253e 1736 513f beb7 f8be
00000210: 80c8 b4bd 5e28 8dbc 047f eabe 6049 863a
00000220: a43c 723e 6aaf 54be dc20 af3e 7695 e93d
00000230: 77ae 513f c968 08bf 042b 013d 5bca 23bd
00000240: 3475 afbe 0ee5 e83d 2688 a33d 009e fcbc
00000250: 4f6a bf3e ca43 213e 6355 2e3f 08f4 0dbf
00000260: 14e9 f6bd a6d3 ee3d e08b 89be b8eb 953e
00000270: 1d54 0b3e 425b 00be 5563 cd3e c2f1 b63d
00000280: 4047 093f a86e 0bbf 7c46 4dbe 841e 823e
00000290: 7ff1 5ebe 405a c23e 9ca0 e53d 6668 6fbe
000002a0: 7f8e 9a3e cdc6 4a3d 26c6 d93e 9810 0bbf
000002b0: 5fb5 85be 220d ed3e 09f8 24be 369f b93e
000002c0: 08fc 963e bfe8 bebe 9c56 b43e be4f ef3c
000002d0: 9fcc a93e 5e27 16bf e2d9 fbbe af87 4b3f
000002e0: e3dd 06be 6f30 bc3e f0c9 dd3e ffcc e5be
000002f0: d68a 863e c2d6 bfbc c680 ad3e 6a8b 21bf
00000300: 664a 28bf ff93 8f3f 6b14 3abe 28c8 913e
00000310: 494c 2e3f aac1 01bf 8f43 893e 8021 04be
00000320: 61a3 023f cc03 30bf 30ae 29bf 141c ab3f
00000330: a62b 65be 3771 193e 89ca 753f 846f 0bbf
00000340: 0d3c 223e 68f5 3dbe 82c4 1d3f 52e1 33bf
00000350: 74fe 06bf f52a 9b3f 9c4a 7ebe c036 e53d
00000360: 8a76 623f a54d 1cbf a237 2c3e f2f4 25be
00000370: 121e 293f 65c5 2fbf 1a77 afbe 77e7 603f
00000380: f882 8abe 9c9c ae3d 81fa 103f 5a5b 12bf
00000390: 684a 96bd 5261 7ebe fa5a 423f 1a57 33bf
000003a0: 2b7f f7be 3fab 343f 2e3d 37be 20a1 dd3d
000003b0: 8aa2 a33e e9bd 0ebf eeea a0be 6de3 2ebd
000003c0: c082 553f 0d09 25bf 6c8f f3be c9f1 093f
000003d0: ac5e 8bbe ae60 d23c c45a 2b3e 0ff2 08bf
000003e0: e040 96be 5b2c 263d c947 6c3f 923e 08bf
000003f0: 4d11 83be 59a8 633e 3e8b cebe 8e99 c1bc
-0.012207946 0.02739929 -0.21609247 -0.010905588 -0.21492468 0.13773046 -0.10184333 -0.033715814
0.44430313 0.22883356 0.14094223 -0.07373491 -0.03636242 -0.11156789 -0.37755775 0.26688612
-0.29647988 0.08253161 0.70256937 0.10520646 0.30239543 -0.2554354 -0.066152066 -0.07460734
-0.3067077 0.2965228 -0.24950247 0.13893822 0.8539512 0.03770226 0.27063578 -0.38289922
-0.27814972 0.25294805 -0.06611358 0.35870004 -0.024242625 -0.051406294 0.60203797 0.08471504
0.21843389 -0.44911766 -0.4222331 0.5501757 -0.064364135 0.35859084 0.18327573 -0.14568153
0.40509772 0.12247959 0.16403653 -0.55944085 -0.45223838 0.6554231 -0.17592587 0.35320425
0.298698 -0.2799375 0.27971107 -0.06670147 0.17643562 -0.6585467 -0.6676992 1.0375764
-0.23196192 0.22495486 0.6252808 -0.3543658 0.21572906 -0.18144973 0.34732136 -0.7071651
-0.66943526 1.2110196 -0.24674447 0.10968535 0.8501974 -0.4939426 0.12548561 -0.14717469
0.45960873 -0.70264775 -0.50543636 1.1363102 -0.2466297 0.04719433 0.9214305 -0.5297374
0.17785741 -0.17286299 0.53828627 -0.6360298 -0.32611996 0.8175524 -0.11199522 0.029931072
0.7766882 -0.5203594 0.23291479 -0.0651121 0.5474206 -0.61991644 -0.43206355 0.7646435
-0.08630429 0.082565814 0.46535975 -0.4263407 0.057050556 -0.053332623 0.601914 -0.5587958
-0.494191 0.45176658 -0.18556006 0.08226469 0.28388208 -0.38504735 -0.06580393 0.03719074
0.74180526 -0.48826793 -0.20683679 0.1357055 -0.31041807 0.048428264 0.20511962 -0.34588078
0.087284476 0.16179302 0.8172316 -0.48577684 -0.08827305 -0.017231163 -0.4580003 0.0010245256
0.23655945 -0.2077004 0.34204757 0.114054605 0.8190684 -0.5328489 0.031535164 -0.039987903
-0.34269106 0.11371814 0.07984953 -0.030837059 0.37385795 0.15748516 0.6809904 -0.5545049
-0.12056175 0.116614625 -0.2686453 0.29281402 0.13606305 -0.12534812 0.40114847 0.089328304
0.53624344 -0.54465723 -0.20046419 0.25413907 -0.21771811 0.3795948 0.112122744 -0.23379669
0.3018684 0.049505997 0.42533988 -0.54322195 -0.26114938 0.46299082 -0.16110243 0.3625428
0.2948916 -0.37286946 0.35222328 0.029212829 0.33163926 -0.5865382 -0.4918967 0.7950391
-0.1317058 0.36755702 0.4331813 -0.44882962 0.26277798 -0.023417834 0.3388731 -0.63103354
-0.65738523 1.121704 -0.18171851 0.2847302 0.6808515 -0.5068613 0.26809356 -0.12903404
0.51030546 -0.68755794 -0.66281414 1.3367944 -0.22379932 0.14984594 0.9601217 -0.54467034
0.1584322 -0.18550646 0.6162797 -0.70265687 -0.52732015 1.2122484 -0.24833149 0.11192083
0.88462126 -0.61055976 0.16818097 -0.1620672 0.6606151 -0.68660575 -0.34270555 0.8785319
-0.27053046 0.085259646 0.5663224 -0.5717064 -0.073384106 -0.24841812 0.7592007 -0.7005478
-0.4833921 0.705738 -0.17894432 0.10821748 0.31959945 -0.5575853 -0.31429237 -0.04269736
0.83402634 -0.64466935 -0.4757036 0.5388456 -0.27220666 0.025680866 0.16733843 -0.5349435
-0.2934637 0.040569644 0.92297035 -0.53220475 -0.25599137 0.22232188 -0.40340608 -0.02363279
