weight/actions_history_2025-03-25_08-28-49.npy (npy, 20128 bytes, 1 tensors)

array f4 [500, 10]
00000000: c031 033a a0e3 733d e6a4 19be 8be5 4a3d
00000010: 2cd9 76be 9a2d 523e 2043 b0bd 7029 91bc
00000020: 8e54 bd3e 4e14 3a3e 0230 883c 122d d43d
00000030: 1596 36be 5515 263e cff5 99be 0cf5 843e
00000040: 080e d0bd 0e6a 15bd f9de b83e ad73 ec3d
00000050: 2661 823d 7008 ca3d e486 7bbe e0a1 ba3e
00000060: b4bf 30be 6c89 b23e 70fa 6d3b 7058 d8bd
00000070: 9b90 a23e c71b cf3d 29e4 743d d02d 6ebb
00000080: 5469 ddbe c11c 2f3f 40c5 7dbc 1311 c43e
00000090: 730d 7f3e a951 36be b95c be3e bcbb 3c3c
000000a0: 18f3 1a3e c0f3 a3bc 489a 2abf a066 653f
000000b0: aa11 42be 72e0 563e fc7f 553e 32f5 28be
000000c0: 176a fa3d 01f8 a63d 9140 933e 0c77 77bd
000000d0: 8d17 1dbf 8337 a53f ac7b 70be 8767 883e
000000e0: ee7e 2a3f 40a5 78be 8a84 3a3e 561f 05bd
000000f0: cbac dc3e 1c41 ffbd ed44 22bf 2f5d a63f
00000100: f3f8 8fbe a2a3 883e f0bd 5b3f d18c b8be
00000110: e081 803e 11db 94bd 9802 083f 0c0f 06be
00000120: c7b0 00bf 2bdf a03f c817 7bbe 3713 993e
00000130: a7eb 5e3f 2158 d2be 9518 903e 333e e6bd
00000140: df74 243f aa27 2cbd 4c0e 67be fb0c 6c3f
00000150: f013 15be 1afc a93e 4e3a 1a3f 2324 e0be
00000160: 0e6c 673e 5723 a8bd 9bcd 3c3f 7c68 603d
00000170: 82e8 c4be a06f 563f 225f 18be 60b4 c93e
00000180: 59b0 943e bf8a c4be e3b9 abbd d3aa c5bd
00000190: c819 463f e001 113e dd9f 99be 1697 013f
000001a0: d815 93be e7d1 c53e 16a8 e33d be11 9bbe
000001b0: 8e59 1abe 840f 8dbc ebc0 313f a5cf 963e
000001c0: 6b86 e3bd 9c97 433e 36d5 c9be d8eb 5f3e
000001d0: 0ee8 bb3c e07b 30be 32ef 503d 3295 743d
000001e0: 107c 133f d4b6 b83e 40ba d93a 14a8 b93c
000001f0: fa16 d2be e0c4 313e 529e a73c 2ee3 dbbd
00000200: 2711 bc3e 47fc d83d e908 f13e f413 853e
00000210: 9c31 44be a4cb 9b3e f10b 66be 6fbd bf3e
00000220: 3e60 943c 6cac 5dbc 06a6 353e 94fe 753e
00000230: d368 c33e ac4d 673d 1088 97be f817 eb3e
00000240: d91d 9fbe b05f b13e 2d77 5b3e d2fc 71bd
00000250: a58c fb3d 3e94 033d ca97 9c3e 1556 c1bd
00000260: 85aa dcbe f2db 2b3f e0f1 6fbe e0af c43e
00000270: b856 b73e 300d 24be 52f8 293e 30fd aebc
00000280: 28a0 bb3e dc0a 37be 4909 09bf 994a 7d3f
00000290: 0ccb 04be b182 d93e e489 193f db28 9ebe
000002a0: 5e1d 6c3e edac c1bd 377b e83e 10e9 67be
000002b0: e732 21bf 9960 9d3f 6029 d3bd d35a e43e
000002c0: 6c3f 443f 80a1 dcbe 9479 793e d8d6 c4bd
000002d0: 488a 0b3f 755b 57be e9f1 cfbe 2b4d 853f
000002e0: ebfa 06be 31a5 ce3e ad9a 283f 90bb f7be
000002f0: 5938 a23d 92f6 78bd eed7 213f 372c e5bd
00000300: 9294 4dbe 63e9 273f 8378 35be 6d13 cf3e
00000310: 829e ba3e f106 fbbe 42fa 6cbe e77e b2bd
00000320: 2add 2f3f 6036 90bd d2c6 a6be ead9 113f
00000330: d80a 81be a02f ba3e 7419 3d3e 9be3 cebe
00000340: f19e bfbe 3077 ffbb d240 353f 4282 683d
00000350: dee5 2ebe 3c34 773e 8cd2 bbbe 0815 513e
00000360: 997d 5e3d a7b5 abbe c63a 2ebe 4bcc 863d
00000370: d96e 3b3f 2031 033e 7e5e 36bd fe39 843d
00000380: dac7 b6be 1ff3 213e 089f ebbb 4238 2ebe
00000390: 259e f43d 796f f73d c297 2c3f 207a f83b
000003a0: fe5f 213e 60f0 3cbe 3e0e a4be 546b 6d3e
000003b0: 3683 b0bd 2aac b8bd 9456 563e c0c6 0f3e
000003c0: 573e 173f b286 abbd f451 e6bd 0e2e d33d
000003d0: b8bf 83be f386 e53e 3dba 36bd d2d3 dabd
000003e0: f7b4 ba3d 8bc3 f53d 4a34 023f 86e3 aabd
000003f0: f15e a0bd 8665 453e 30d2 27be 31ee f03e
0.0005004667 0.059543252 -0.1500431 0.049535315 -0.24106282 0.20525208 -0.08606553 -0.017719954
0.36978573 0.18171808 0.016624454 0.10360159 -0.17830689 0.16219075 -0.3007035 0.25968206
-0.10158926 -0.036478095 0.36107615 0.11545501 0.06366186 0.098648906 -0.24563175 0.36451626
-0.17260629 0.3487047 0.0036312602 -0.10563743 0.3175095 0.1011272 0.059787903 -0.0036343224
-0.4324442 0.6840325 -0.015488923 0.38294277 0.24907474 -0.17804588 0.37180117 0.011519369
0.15131795 -0.02001369 -0.66641665 0.8960972 -0.18952051 0.20984057 0.20849603 -0.16499785
0.12227266 0.08152772 0.28760198 -0.060416266 -0.6136406 1.2907566 -0.23484677 0.26641485
0.6659993 -0.24281788 0.18214622 -0.032500587 0.4310058 -0.124635905 -0.6338642 1.2997187
-0.2811962 0.26687342 0.85836697 -0.36044934 0.25099087 -0.07268346 0.5312896 -0.13091677
-0.5026974 1.2568105 -0.2452079 0.29897472 0.87078327 -0.41082862 0.28143755 -0.11242332
0.6424083 -0.042030014 -0.22564048 0.92207307 -0.14558387 0.3320015 0.60245216 -0.4377757
0.22599813 -0.082098655 0.7375123 0.054787144 -0.3845864 0.83764076 -0.1488004 0.39395428
0.29040793 -0.38387105 -0.083850645 -0.09651723 0.7738309 0.14160872 -0.30004779 0.50621164
-0.28727603 0.38636705 0.11116044 -0.30286974 -0.15073225 -0.017219312 0.69434994 0.29455295
-0.111096226 0.19100803 -0.3942048 0.21867311 0.0229378 -0.17234755 0.051009364 0.059712596
0.5761118 0.36076987 0.0016611293 0.022663154 -0.41033155 0.17360258 0.020461235 -0.107366905
0.36731836 0.10594993 0.4707711 0.25991786 -0.1915955 0.30428803 -0.22465493 0.37449214
0.018112298 -0.013529878 0.17739114 0.24022895 0.38165912 0.056470558 -0.29595995 0.45916724
-0.3107746 0.34643316 0.2143218 -0.059079 0.12282685 0.032123797 0.30584556 -0.09440247
-0.43098846 0.67132485 -0.23432112 0.38415432 0.3580835 -0.16020656 0.16598633 -0.021360964
0.36645627 -0.17875236 -0.53529793 0.9894195 -0.12968081 0.42482522 0.5997603 -0.30890545
0.23058078 -0.09456811 0.45406505 -0.226475 -0.62968296 1.2295104 -0.10310626 0.44600543
0.76659274 -0.43091965 0.24362785 -0.09611291 0.54507875 -0.21030982 -0.4061425 1.0414175
-0.13181655 0.40360406 0.65861017 -0.48385286 0.07920904 -0.060782023 0.6322011 -0.11190074
-0.20076206 0.65590495 -0.17721753 0.40444508 0.36449057 -0.49028733 -0.23142341 -0.08715611
0.68696845 -0.07041621 -0.32573563 0.56973135 -0.25203586 0.3636446 0.18466741 -0.40408024
-0.3742595 -0.0077961907 0.7080203 0.05676485 -0.17079875 0.2414102 -0.36684072 0.20418179
0.054318998 -0.33537027 -0.17014608 0.065819345 0.73216015 0.12811708 -0.04452371 0.06456374
-0.3569935 0.158154 -0.007190589 -0.17013648 0.11944226 0.120818086 0.67419064 0.007582918
0.15759274 -0.18451071 -0.32042116 0.23185474 -0.086187765 -0.09017213 0.20931464 0.14040661
0.590795 -0.083753005 -0.112461 0.103115186 -0.25732207 0.4482952 -0.044611204 -0.10684933
0.091165476 0.120001875 0.50861037 -0.08344178 -0.07830609 0.1927701 -0.16388774 0.47056726
