weight/actions_history_2025-03-22_20-56-29.npy (npy, 80128 bytes, 1 tensors)

array f4 [500, 4, 10]
00000000: c050 f83a 3267 debd eea2 babd 1fcd 803d
00000010: 7435 3ebd ec8e d53e bd1d 27bf c764 d23e
00000020: 678b 2bbe 3196 873d dd17 143d f59c 62bd
00000030: 55cb 03be 2cb8 07bd d21c febd 1b54 8a3e
00000040: ea04 aabe d522 c93e d306 1fbe 606d 8c3a
00000050: 005c 813b bbe1 53bd f9a9 1bbe 562b 023e
00000060: a8b1 80bc c717 673e 082f 20be b6b7 e93e
00000070: 0b79 78bd a48f 5d3d 9021 99bb 6aa5 f2bc
00000080: 60f3 0fbe 3dc7 a33d 783a 09bd ab13 6b3e
00000090: 84a8 29be 4905 c93e 1269 efbc 0414 993d
000000a0: e016 fdbc 7281 b93d 66f0 d63e efe7 febe
000000b0: b9fc 3cbe fcfb e93d 91da 9cbc f144 16be
000000c0: f606 1d3e bce8 86be 94a1 0bbd 4fc2 65be
000000d0: f368 60be 6ef9 5e3e 682a 8dbc 7896 a73e
000000e0: 309a 53be 5721 4cbe 6a09 1d3e 5fff a4bd
000000f0: 20ff 9cbb a687 81bd 4c61 633d 4ca6 75be
00000100: 4070 a53a c22a 993e d4fc 8abe 88fe 63be
00000110: 80e0 b4b9 23c7 febd 86b3 1b3d f01f 5cbc
00000120: 664d 823e 9fb3 dcbe 8ca4 53bd 569f 6b3e
00000130: 969e 90be 86e4 48bd 2ec1 96bd 35c0 37be
00000140: 041d 58bd c867 5e3c 8231 4ebe d47c 48be
00000150: e58c 48be 1a7c fe3d 16f7 0e3f c3cc 0f3f
00000160: db6c 41be b4b4 283f 08b6 4a3c 0d82 c6be
00000170: e933 323e 8d2a 9cbe 50e4 a33e 3067 143e
00000180: 7dab 2a3e 6182 86bf db57 2a3d 55fd 083e
00000190: a093 663d 84df efbd 289c 923d f46d 39be
000001a0: 93eb 153e e6d0 b73c a44b 373f a04c d8be
000001b0: 6d36 073e 0819 8d3e b5bb 613d b875 f93b
000001c0: bb0d 28be 90de e7bb 38aa fcbc 3efd d03d
000001d0: 6a3f 253f 281c a23b 332e 683d 3c60 853e
000001e0: f2de aebd 5acc 93bd 9858 aebe 3a07 10be
000001f0: 24e3 603d 7944 21bd 2c1a a63b ee1f 503e
00000200: 4064 12ba 847f 29be 77c2 7c3e 6fcb a0be
00000210: 3aa6 913d b694 65be b245 463e 115a 203d
00000220: 4b5f 2c3f dcb9 9ebd 1d91 4c3e caae 003f
00000230: e42f 04bd 5cd7 863d 6c3b c9be 8587 f0be
00000240: 6030 253e 9313 693d bda0 e83e 58bf 043f
00000250: e0b8 84bd 6590 0b3f 544a d3bd fa83 b13d
00000260: 1e02 9dbe 8c9b d3be f084 113c b315 41bd
00000270: dc90 0d3f 9833 0c3f b0af 24bc 5050 913e
00000280: ceec 89be 9a01 8dbe 88f0 953d fe3f 2ebf
00000290: 9c04 94be d84a b7bb 6b37 623f ae86 3b3e
000002a0: ad8e 08bd aa9d b83e a0c8 14bb daba 883d
000002b0: fcfd 4cbf 860f 24be 30d3 123c dc52 203d
000002c0: cb83 953e 0844 7b3e 72d5 f4bd 0a2e 30be
000002d0: 2ab9 cfbd 7a8d 623d d25e cbbe 3818 eabc
000002e0: 1b11 18be cad6 83be e259 c13e 5eb6 833e
000002f0: 53d3 5abd 658c ccbd e471 3dbe ac77 843d
00000300: 46a2 fdbe 2edb 85be 7676 8dbd 3a2c d3bd
00000310: d739 403f 5f5e 0c3f 95d0 0fbe d0eb b23c
00000320: 3c8b e3be 7aa7 b6be c0b3 d4be d4d7 a5be
00000330: d84c d9bc 64b4 933d 8a94 123f e510 053f
00000340: 82e1 d0bd 62c3 bc3e 9ce5 14be 0887 e23d
00000350: e2a5 dcbe 1a37 9abe ae0e 173e b0c8 b83d
00000360: ddd4 ffbc 5a2d 4d3d 4746 9c3d a00f 0f3d
00000370: 0ee1 47be 7e70 cabc 0cbd a2be 68aa 65bf
00000380: b8d3 c43d b54d 413e 6672 0b3f 95d4 113f
00000390: c0b3 a13d 587a a83e 1a9e 6dbe cd07 1bbd
000003a0: 2c1d e8be a7d9 32bf 40e0 fd3c 1c88 273e
000003b0: 7051 243f 8638 f83e 0d63 30bd 3e3b 823e
000003c0: fa8a 1abf 3249 01bf 0a4c f2be d8d6 08bf
000003d0: 7ed4 e4be 24e7 2ebe 9839 873f fa1a 993e
000003e0: 6270 be3d 7eae ea3e b6e2 dcbd e06b 77bb
000003f0: 46de e1be c2ea 7abd 9dfc 04be 11df cd3c
0.0018944964 -0.10859527 -0.091131076 0.06289124 -0.046437696 0.41710603 -0.6527975 0.41092512
-0.16752397 0.066204436 0.03615557 -0.055325467 -0.12870534 -0.033134624 -0.12407841 0.27017292
-0.33206874 0.39284387 -0.15529947 0.0010713749 0.003947735 -0.051728945 -0.15201558 0.12711844
-0.015709713 0.22567664 -0.15642941 0.45647973 -0.06066231 0.054092064 -0.0046731904 -0.029619891
-0.14057684 0.07996986 -0.033503026 0.22956721 -0.1656819 0.39261845 -0.029224906 0.07474521
-0.030894697 0.09057893 0.41980284 -0.49786326 -0.18455781 0.11425015 -0.01914719 -0.14674737
0.15334687 -0.26349437 -0.03408964 -0.22437404 -0.21915035 0.21774837 -0.017232135 0.32731986
-0.20664287 -0.19934593 0.15335622 -0.08056521 -0.0047911555 -0.06324701 0.05551271 -0.23989218
0.0012621954 0.29915434 -0.27146018 -0.22265065 -0.0003449954 -0.12440326 0.038013004 -0.013435349
0.25449675 -0.4310579 -0.051670596 0.2301 -0.2824599 -0.049046062 -0.07361065 -0.17944415
-0.052762046 0.013574548 -0.20136073 -0.19578868 -0.19584997 0.12426014 0.55845773 0.56171817
-0.18889181 0.6590073 0.012372501 -0.38771096 0.17402615 -0.30501214 0.32010126 0.14492488
0.1666698 -1.0508538 0.04158769 0.13377889 0.05629313 -0.11712554 0.07158691 -0.1810835
0.14640646 0.022438478 0.71599793 -0.4224596 0.13204356 0.2755816 0.055110652 0.00761291
-0.16411488 -0.007076092 -0.030842885 0.10204552 0.6454989 0.004947204 0.056684684 0.26049984
-0.08538617 -0.07216711 -0.34051967 -0.14065257 0.05490412 -0.03937194 0.005069038 0.2032468
-0.00055843964 -0.1655255 0.24683557 -0.31405208 0.07111783 -0.2242001 0.19362524 0.039148394
0.67332906 -0.077502936 0.19977231 0.50266707 -0.032272235 0.06584045 -0.39303148 -0.46978393
0.16131735 0.056903433 0.45435134 0.5185447 -0.064805746 0.54517204 -0.10316911 0.08667751
-0.30665678 -0.4132961 0.008881792 -0.047139835 0.5529916 0.54766226 -0.010051653 0.28381586
-0.2693848 -0.27540284 0.07321268 -0.68066394 -0.28909767 -0.005593639 0.8836581 0.18313095
-0.03333919 0.36057788 -0.002270259 0.06676264 -0.8007505 -0.16021547 0.008961484 0.03914152
0.29202113 0.2453767 -0.11954774 -0.17205063 -0.10142739 0.055310704 -0.3972078 -0.028576002
-0.14850275 -0.2574981 0.37763888 0.25725073 -0.05342419 -0.09987716 -0.18500477 0.06468138
-0.49537867 -0.26143783 -0.0690736 -0.1031117 0.75088257 0.548315 -0.14044411 0.02184096
-0.44442165 -0.3567465 -0.41543388 -0.32391226 -0.0265259 0.07212141 0.572579 0.51978904
-0.10199262 0.36867815 -0.14540714 0.110609114 -0.4309531 -0.30120164 0.14751694 0.09022653
-0.03122943 0.05009208 0.07630592 0.03492701 -0.19519445 -0.024711844 -0.31784856 -0.89713144
0.09610695 0.18877299 0.54471433 0.56965 0.07895613 0.3290584 -0.23204842 -0.037849236
-0.45334756 -0.6986336 0.03099072 0.16360515 0.64186764 0.48480624 -0.043063212 0.25435823
-0.6036831 -0.5050231 -0.47323638 -0.53452826 -0.4469337 -0.1708036 1.0564451 0.29903394
0.09298779 0.45836252 -0.10785429 -0.0037753507 -0.44114894 -0.06125904 -0.1298699 0.02513078
