weight/actions_history_2025-03-24_23-42-53.npy (npy, 20128 bytes, 1 tensors)

array f4 [500, 10]
-0.09284373 -0.061561644 -0.2583424 -0.05395458 -0.009711482 0.0060363 0.085002504 -0.037151568
0.15381894 0.07309505 -0.15386607 -0.115449965 -0.22896987 -0.19260815 -0.04043086 -0.022662427
0.005823143 0.0068394504 0.08253811 0.1690412 -0.13922533 -0.14835086 -0.29422268 -0.21762769
-0.066570625 -0.08355328 -0.03121388 0.002390407 0.12908973 0.096780434 -0.09515582 -0.20634177
-0.36164358 -0.20400454 -0.09204522 -0.1529875 -0.07304775 0.033893656 0.29299414 0.10698633
-0.23223615 -0.2022467 -0.6482992 0.018477147 -0.0441358 -0.09562832 0.15261622 -0.08118281
0.05776258 0.09515908 -0.36634544 -0.16524638 -0.53508884 -0.25300017 0.01638744 0.10584904
0.13696858 -0.14090456 -0.16738601 0.17164725 -0.44222322 -0.15121567 -0.7112646 -0.025993029
0.10441544 0.091976464 0.3297204 -0.2201985 -0.1845628 0.15165912 -0.48059753 -0.1267491
-0.726187 -0.06839315 0.090390526 0.13519807 0.36453754 -0.24917392 -0.22600888 0.1894491
-0.47547534 -0.14019758 -0.7438886 -0.0634992 0.042726554 0.05622342 0.49681938 -0.31485254
-0.07000367 0.22609372 -0.3787665 -0.1643044 -0.6704279 -0.14278355 -0.048779603 -0.043664575
0.48777753 -0.26334557 -0.12115489 0.11102109 -0.2231798 -0.17912917 -0.65002346 -0.21052334
-0.17332895 -0.15749604 0.37617177 -0.15215075 0.03104217 0.11453326 -0.037442148 -0.1251356
-0.6758268 -0.1707708 -0.28300744 -0.27030638 0.29546428 -0.07150614 0.020221312 -0.10251056
0.14601266 -0.103490405 -0.6374303 -0.11732682 -0.235612 -0.3619922 0.2571559 0.025566678
0.06696891 -0.116867155 0.18159702 -0.07976689 -0.6657654 -0.1359613 -0.18213797 -0.24266294
0.23064864 0.07008046 0.07887146 -0.06977911 0.08324462 -0.08851355 -0.67374444 -0.15191054
-0.1373071 -0.04348868 0.23805147 -0.041307993 -0.016008716 0.045530666 -0.023652662 -0.11859905
-0.6118592 -0.1788485 -0.059673853 0.047076967 0.24132568 -0.13696769 -0.07975988 0.14074816
-0.0966473 -0.1363414 -0.72488487 -0.026847225 -0.05216869 0.06223436 0.27391794 -0.23264347
-0.19280802 0.055616926 -0.1552149 -0.17864138 -0.7417979 -0.04692693 -0.06422754 0.05498833
0.39642197 -0.2876517 -0.15379354 0.11870323 -0.14811376 -0.24249062 -0.7801511 0.024490388
-0.055758364 -0.04959311 0.54207087 -0.38987178 -0.06422019 0.15255128 -0.10482738 -0.28450197
-0.71178615 -0.06985248 -0.096579134 -0.0039130338 0.5550819 -0.45222753 -0.056554962 0.14089401
-0.012211729 -0.29549798 -0.76416755 -0.09486279 -0.15774488 -0.06580801 0.49678928 -0.44198123
-0.014939334 0.09125988 0.14245382 -0.24524245 -0.68746436 -0.20290628 -0.21111374 -0.12414825
0.33641064 -0.36769754 -0.021874558 -0.069704115 0.2736204 -0.20459467 -0.66570187 -0.30174038
-0.30363613 -0.24631141 0.2826998 -0.25164527 0.12302913 -0.15157092 0.378166 -0.20270616
-0.5961392 -0.20915262 -0.32008207 -0.33710212 0.20912397 -0.11464697 0.13348716 -0.16705425
0.40715414 -0.22133836 -0.5502422 -0.27410406 -0.2538146 -0.23792894 0.11743398 -0.03659201
0.12697627 0.0034411661 0.30208257 -0.24968946 -0.52692556 -0.23492965 -0.14290628 -0.10596666
00000000: da24 bebd 1028 7cbd 7445 84be 7aff 5cbd
00000010: e81c 1fbc 28cc c53b cb15 ae3d 3e2c 18bd
00000020: b682 1d3e dcb2 953d 118f 1dbe 0871 ecbd
00000030: 1477 6abe 123b 45be d49a 25bd 8ea6 b9bc
00000040: 10d0 be3b 781d e03b be09 a93d 2319 2d3e
00000050: 1691 0ebe 4ae9 17be 5ba4 96be cbd9 5ebe
00000060: 2e56 88bd fb1d abbd 40b4 ffbc 60a8 1c3b
00000070: 1930 043e d234 c63d 0ee1 c2bd 424b 53be
00000080: 5929 b9be 91e6 50be 3482 bcbd c1a8 1cbe
00000090: 0f9a 95bd 13d4 0a3d 5403 963e a61b db3d
000000a0: 50cf 6dbe c219 4fbe f0f6 25bf 635d 973c
000000b0: bec7 34bd c8d8 c3bd 6d47 1c3e 2c43 a6bd
000000c0: 7598 6c3d c4e2 c23d a191 bbbe 5936 29be
000000d0: 95fb 08bf 3d89 81be f43e 863c 62c7 d83d
000000e0: 7e41 0c3e 4949 10be 3d67 2bbe 4cc4 2f3e
000000f0: 156b e2be 48d8 1abe 7015 36bf 55ef d4bc
00000100: c3d7 d53d 285e bc3d 1dd1 a83e b77b 61be
00000110: 08fe 3cbe 874c 1b3e e110 f6be 84ca 01be
00000120: 64e7 39bf b511 8cbd ab1e b93d 5d71 0a3e
00000130: aaa4 ba3e 7327 7fbe df6e 67be f2fe 413e
00000140: 8171 f3be f48f 0fbe 7c6f 3ebf de0b 82bd
00000150: 0a02 2f3d 874a 663d 1c5f fe3e 5a34 a1be
00000160: 165e 8fbd 1d85 673e afed c1be 6a3f 28be
00000170: 2aa1 2bbf da35 12be 1fcd 47bd a0d9 32bd
00000180: fabd f93e 3bd5 86be 0e20 f8bd 065f e33d
00000190: 3f89 64be a36d 37be f067 26bf 6e93 57be
000001a0: 257d 31be a446 21be 9699 c03e 68cd 1bbe
000001b0: 264c fe3c 6a90 ea3d f05c 19bd 8c23 00be
000001c0: fc02 2dbf 8ade 2ebe 5ae6 90be 9965 8abe
000001d0: 1847 973e d071 92bd 2aa7 a53c 0ef1 d1bd
000001e0: 5884 153e c7f2 d3bd a22e 23bf 0b49 f0bd
000001f0: 4644 71be 0b57 b9be f0a9 833e 3671 d13c
00000200: ff26 893d 0c58 efbd 92f4 393e d35c a3bd
00000210: 9a6f 2abf 7039 0bbe 6082 3abe a27c 78be
00000220: 282f 6c3e 5886 8f3d 5c87 a13d 5ae8 8ebd
00000230: 287c aa3d 9846 b5bd 847a 2cbf 708e 1bbe
00000240: 3c9a 0cbe 3021 32bd c4c3 733e 9232 29bd
00000250: b624 83bc 5d7e 3a3d 3ac3 c1bc 0fe4 f2bd
00000260: cea2 1cbf 1024 37be 926c 74bd c7d3 403d
00000270: 141e 773e 4241 0cbe 2659 a3bd 4920 103e
00000280: 05ef c5bd 149d 0bbe 0e92 39bf b6ee dbbc
00000290: d6ae 55bd 75e9 7e3d f93e 8c3e 173a 6ebe
000002a0: 776f 45be 93ce 633d a8f0 1ebe c4ed 36be
000002b0: 78e6 3dbf 7436 40bd ba89 83bd 713b 613d
000002c0: d2f7 ca3e 1547 93be 0e7c 1dbe ae1a f33d
000002d0: 22ab 17be 764f 78be fcb7 47bf 11a0 c83c
000002e0: e262 64bd 2522 4bbd 28c5 0a3f 469d c7be
000002f0: e085 83bd 6736 1c3e bdaf d6bd 3eaa 91be
00000300: 9e37 36bf d10e 8fbd 48cb c5bd e838 80bb
00000310: d919 0e3f 5e8a e7be 2da6 67bd 8546 103e
00000320: b413 48bc 834b 97be 7ca0 43bf 6c47 c2bd
00000330: e087 21be 5ac6 86bd 2a5b fe3e 5d4b e2be
00000340: 1cc4 74bc 76e6 ba3d 6adf 113e d620 7bbe
00000350: aafd 2fbf aac6 4fbe 332e 58be 7041 febd
00000360: 043e ac3e da42 bcbe 4632 b3bc 08c1 8ebd
00000370: f917 8c3e 4481 51be 706b 2abf b77d 9abe
00000380: 3276 9bbe 0f39 7cbe 07be 903e a6d7 80be
00000390: b2f6 fb3d 6835 1bbe f99e c13e 3492 4fbe
000003a0: 949c 18bf 1b2c 56be cce1 a3be a698 acbe
000003b0: 9824 563e 08cc eabd dcb0 083e 4510 2bbe
000003c0: 8276 d03e 86a6 62be acdc 0cbf 5e57 8cbe
000003d0: fdf3 81be a5a3 73be 3a81 f03d 81e1 15bd
000003e0: 1106 023e 3085 613b 91aa 9a3e 98ae 7fbe
000003f0: 98e4 06bf 6691 70be 0656 12be 0c05 d9bd
