weight/actions_history_2025-03-24_18-42-48.npy (npy, 80128 bytes, 1 tensors)

array f4 [500, 4, 10]
0	0xc00466ff	-2.0687864
1	0xbf374ee6	-0.71604764
2	0xbf145df9	-0.5795589
3	0x3ef614ab	0.48062643
4	0xbf3e7f7b	-0.7441327
5	0xbf2b6647	-0.6695294
6	0x3ea43c71	0.32077363
7	0x3edbf92b	0.42963538
8	0xbce32df0	-0.027731866
9	0x3d8b9150	0.068148255
10	0xbfed29c5	-1.8528372
11	0xbf3b1ff8	-0.73095655
12	0xbf175df6	-0.5912775
13	0x3f02682f	0.5094022
14	0xbf43f4e0	-0.76545525
15	0xbf2c631b	-0.6733872
16	0x3ea92fe4	0.3304435
17	0x3ee8d7bc	0.45477092
18	0x3d8b6155	0.06805674
19	0xbdaedd64	-0.08538321
20	0xbfe4b7b4	-1.7868562
21	0xbf330652	-0.6993152
22	0xbf109984	-0.56484246
23	0x3effd45d	0.49966708
24	0xbf457074	-0.77124715
25	0xbf2c4139	-0.6728702
26	0x3ea921d7	0.3303363
27	0x3ef8f87e	0.48627084
28	0x3d96c8d9	0.073625274
29	0x3c424a4c	0.011858534
30	0xc0033665	-2.050195
31	0xbf3c842a	-0.73639166
32	0xbf1c91f1	-0.6116019
33	0x3f017e67	0.505835
34	0xbf3b1818	-0.7308364
35	0xbf28246b	-0.6568057
36	0x3e8809db	0.2657002
37	0x3eeb7448	0.45987153
38	0x3dc69808	0.096969664
39	0x3d0bbbba	0.034114577
40	0xc05852d1	-3.3800547
41	0xbf4d33d3	-0.801572
42	0xbf03b886	-0.51453435
43	0xbce2a2ee	-0.027665582
44	0xc00b2f98	-2.17478
45	0xbfe79288	-1.8091593
46	0x3f0dbc39	0.5536533
47	0x3f16fc16	0.589784
48	0x3d5b4a10	0.05353743
49	0x3d4c21ba	0.04983685
50	0xc056a52b	-3.353831
51	0xbf499b00	-0.78752136
52	0xbefef412	-0.49795586
53	0xbb40ab60	-0.0029399022
54	0xc00a40f8	-2.1602154
55	0xbfe667c6	-1.8000419
56	0x3f0d95c0	0.55306625
57	0x3f17690c	0.59144664
58	0x3c6340a0	0.013870388
59	0x3d466cf8	0.048443764
60	0xc04c013b	-3.187575
61	0xbf4dfb75	-0.8046182
62	0xbeecc50b	-0.46244082
63	0xbbc66188	-0.006054107
64	0xc0086522	-2.1311727
65	0xbfe12a20	-1.759098
66	0x3f13d249	0.57742745
67	0x3f226eb4	0.6345017
68	0xbcc98fc0	-0.024604678
69	0x3d87afae	0.06625305
70	0xc0529fb9	-3.2909987
71	0xbf4cbef9	-0.799789
72	0xbeeae5c2	-0.45878416
73	0xbc514918	-0.012773775
74	0xc009f05c	-2.1552954
75	0xbfe16ad9	-1.7610732
76	0x3f0fdba8	0.56194544
77	0x3f13a342	0.57670987
78	0xbd3410f2	-0.043961473
79	0x3c9f61bc	0.019455783
80	0xbfa75e26	-1.3075607
81	0xbf6649d0	-0.8995638
82	0x3e027138	0.12738502
83	0x3dfdabfa	0.123863176
84	0xbffb7fff	-1.9648436
85	0xbfc8a5e6	-1.5675628
86	0x3f7238ee	0.9461812
87	0x3fbcbb14	1.4744592
88	0xbc64f950	-0.013975456
89	0x3dc32715	0.09528939
90	0xbfa29786	-1.2702491
91	0xbf5a8319	-0.8535629
92	0x3df29c58	0.118462265
93	0x3e00ed16	0.12590441
94	0xbffa23bc	-1.9542155
95	0xbfc6a31e	-1.551853
96	0x3f7246d9	0.94639355
97	0x3fb78102	1.4336245
98	0x3bdc4320	0.006721869
99	0x3c0b9ba4	0.008520994
100	0xbf993d5b	-1.1971849
101	0xbf63b613	-0.889497
102	0x3e01bb9f	0.12669228
103	0x3e0efa32	0.1396263
104	0xbff9a631	-1.9503843
105	0xbfc465c7	-1.534356
106	0x3f74ac2e	0.95575225
107	0x3fbb3fe4	1.4628873
108	0x3d87227c	0.06598374
109	0x3a7be2c0	0.00096086785
110	0xbfa38b09	-1.2776805
111	0xbf6741a4	-0.90334535
112	0x3ddf7e88	0.10912806
113	0x3e2fe8ec	0.17178696
114	0xbffa4832	-1.9553282
115	0xbfc4f0d1	-1.5385991
116	0x3f73cd17	0.9523482
117	0x3fbecd50	1.4906406
118	0x3dd51f4a	0.104063585
119	0x3d3820cc	0.044953153
120	0x3d6f75ef	0.05846208
121	0xbf81902e	-1.0122125
122	0x3e16457e	0.14674947
123	0x3e8ae8cd	0.27130738
124	0xc00c4757	-2.1918542
125	0xbfd425ee	-1.6574075
126	0x3f90a0a7	1.1299027
127	0x3fd99293	1.6997856
128	0x3db98146	0.0905786
129	0x3e82467d	0.25444403
130	0x3e31abfa	0.1735076
131	0xbf7b97f8	-0.9827876
132	0x3e3d3a05	0.18479164
133	0x3e81e3a7	0.25368997
134	0xc008e0fc	-2.138732
135	0xbfd237c4	-1.6423268
136	0x3f95775f	1.1677054
137	0x3fd365b5	1.6515414
138	0x3da582fe	0.080816254
139	0x3d6eb7fe	0.058280937
140	0x3e50b32d	0.2038085
141	0xbf817519	-1.011386
142	0x3e3073ec	0.1723172
143	0x3e89a035	0.2688004
144	0xc00a18ca	-2.157763
145	0xbfd1a3ec	-1.637815
146	0x3f92bd4d	1.146402
147	0x3fdcccec	1.7250037
148	0x3dcbda88	0.09953791
149	0x3e490204	0.19629675
150	0xbd27932e	-0.040911846
151	0xbf868e9d	-1.0512272
152	0x3e3d8542	0.18507865
153	0x3e79632a	0.24354234
154	0xc00a7d09	-2.1638815
155	0xbfd380d0	-1.6523685
156	0x3f8d811f	1.105503
157	0x3fd2fbf1	1.6483136
158	0x3d236850	0.039894402
159	0x3e581670	0.21102309
160	0x3fae0377	1.3594807
161	0xbf8c20cf	-1.0947512
162	0x3d880b50	0.06642783
163	0x3f077e07	0.5292668
164	0xc0238fe4	-2.5556574
165	0xbfe3ca0b	-1.7796034
166	0x3faf4846	1.3693931
167	0x40067fde	2.1015544
168	0x3d1fac5c	0.038982734
169	0x3e49aa98	0.19693983
170	0x3fbec55b	1.4903978
171	0xbf8809c7	-1.0627984
172	0x3dba1588	0.09086138
173	0x3f02ec39	0.511417
174	0xc021474c	-2.5199766
175	0xbfe54fdb	-1.7914995
176	0x3fabba17	1.3416165
177	0x40037304	2.053895
178	0xbca978e8	-0.020687535
179	0x3dc90e6b	0.09817203
180	0x3fbeeeef	1.4916667
181	0xbf8e0bf0	-1.1097393
182	0x3daa3642	0.0831113
183	0x3f086c87	0.532906
184	0xc020e86e	-2.5141864
185	0xbfe3869f	-1.7775458
186	0x3fab2f9b	1.3373903
187	0x4002992e	2.0405993
188	0xb7b6a000	-2.1770597e-05
189	0x3ddd083d	0.10792587
190	0x3fdb6fa7	1.7143449
191	0xbf8e6d0c	-1.1127028
192	0x3e07e806	0.13272104
193	0x3f0371e8	0.5134568
194	0xc01ff2ad	-2.4991868
195	0xbfeb9fef	-1.8408183
196	0x3faea74a	1.3644803
197	0x4004757c	2.0696707
198	0x3ce8ec68	0.02843304
199	0x3de48315	0.111578144
200	0x400e4e89	2.2235434
201	0xbf994122	-1.1973002
202	0x3e54dff8	0.20788562
203	0x3f1272b9	0.572063
204	0xc02e32aa	-2.7218423
205	0xbff1334c	-1.884378
206	0x3fc72b72	1.5560133
207	0x4015b760	2.3393173
208	0x3e0da0a2	0.13830808
209	0x3ebcb0ce	0.3685364
210	0x40163cbf	2.3474576
211	0xbf93b9c7	-1.154107
212	0x3e7c00f8	0.24609745
213	0x3f0b8808	0.5450444
214	0xc02ce1fe	-2.7012935
215	0xbfef0671	-1.8673841
216	0x3fc8146b	1.5631231
217	0x4015877e	2.3363948
218	0x3d83465f	0.064099066
219	0x3ecced8f	0.40024993
220	0x401dbeb4	2.4647646
221	0xbf98aa79	-1.1927024
222	0x3e68e2a8	0.22742712
223	0x3f11ee1a	0.5700394
224	0xc02ecb48	-2.7311573
225	0xbff1b27f	-1.8882598
226	0x3fc63c4b	1.548715
227	0x40170b4a	2.360064
228	0x3ddc0ca0	0.107445955
229	0x3ec977dc	0.39349258
230	0x4014d07b	2.3252246
231	0xbf985b7c	-1.1902919
232	0x3e74c5d2	0.23903587
233	0x3f15a8b9	0.58460575
234	0xc02d430a	-2.7072167
235	0xbff0c532	-1.8810179
236	0x3fca3bf5	1.5799547
237	0x4017a1b4	2.3692446
238	0x3da728f9	0.08162112
239	0x3ed5d4e7	0.41763994
240	0x403ea513	2.9788253
241	0xbfab0d6a	-1.3363469
242	0x3e894636	0.2681138
243	0x3f109434	0.5647614
244	0xc0388b8a	-2.8835168
245	0xbffb7647	-1.964547
246	0x3fe5414c	1.7910552
247	0x4026bc70	2.6052513
248	0x3d95e1f7	0.0731849
249	0x3f1eaa6f	0.6197881
250	0x404debe0	3.2175217
251	0xbf9fd53c	-1.2486949
252	0x3ea83e90	0.3286023
253	0x3f0b0a8c	0.5431297
254	0xc037ba9d	-2.870765
255	0xbffee5b5	-1.9913851
