weight/actions_history_2025-03-25_18-25-00.npy (npy, 20128 bytes, 1 tensors)

array f4 [500, 10]
00000000: b321 73bd 68bb 33bd cf34 b3bd f45e 14be
00000010: 6232 95be b2cc 933e e29d 5cbe e010 833a
00000020: 7ac4 ca3e 5853 cd3c ce5a 95bd 28e4 cfbd
00000030: 58c0 63be f660 ca3d 164d 9fbe f293 c43e
00000040: 1793 e5bd 602a 5a3c 66cf cd3e a414 40bd
00000050: ad38 1dbe 24ad 4fbd deaf bcbe b018 963e
00000060: 2395 4abe e490 fd3e 0f0e ae3d c3e0 89bd
00000070: 688a b03e 4a7a 8cbd 9ba2 87be 3d74 55bd
00000080: 4a0b 26bf bcd5 3a3f 84b3 40bd 2a24 f33e
00000090: 8272 853e 6d62 1ebe 6cd6 c73e 947e f33c
000000a0: 0028 53be 1482 d3bc a079 1cbf 3424 613f
000000b0: f046 2a3c 902d ae3e b8a0 fe3e 1cd0 95be
000000c0: 5455 8f3e f02a d5bb 4683 28be 652b 61bd
000000d0: af38 e5be 4ebd 543f 6c91 7abd 9630 a23e
000000e0: 65b4 3d3f 960b a8be 9c00 923e 4977 09be
000000f0: b582 23be 26a2 08bd 7187 84be e174 223f
00000100: 6c9f 7cbd 8ca6 953e 0955 273f 1209 afbe
00000110: 8af0 e43d 8f10 59be 98da 5dbd c02c f6bb
00000120: 1bfa 93be d681 0b3f a4f5 2bbd f8d9 9c3e
00000130: 7083 ea3e 04eb a7be 5abf 103d 4ef0 45be
00000140: 3624 b83d 4004 133c 7abb 75be 70cd 763e
00000150: dd7e 19be e74c 513e 6d67 a63e c029 b7be
00000160: 08c9 f83d dc32 59bd ab9e 7c3e c893 23bd
00000170: 1cb7 1abe 6c78 a53d 8ea6 89be 337e 663e
00000180: c87f e43d 2eca a8be 304f b33e 4037 7e3d
00000190: fb9f 973e aa23 11be ac98 bf3c 4cc2 0bbe
000001a0: cccb bebe 7e0a a43e d045 0d3b eae1 41be
000001b0: e28d ca3e c606 ff3d fd57 553e b54b 3cbe
000001c0: be4a 59be e87c 2a3e 4842 8dbe 26ea f33e
000001d0: bac6 263d 6822 27be c4db 833e ddc2 023e
000001e0: 0a2b c23d 10fe dbbd e191 94be d96a 973e
000001f0: 5563 2bbe 4d90 1c3f fa4c 003d 1109 66be
00000200: c2f1 463e b44c 913c 1c95 39bc 2a30 fbbd
00000210: d60f bebe 2c07 083f e183 03be 239f 0d3f
00000220: 6892 753e 7011 a1be 5811 9c3e a0f4 0c3c
00000230: bafc 89bc a49b cbbd 06bf 21bf 9854 6d3f
00000240: b7fc 07be 421f e63e 3066 b83e 3a9b c6be
00000250: 8bd5 4c3e 9093 11bc 6250 dd3d 2299 8bbd
00000260: 677c f6be 0a3b 6c3f 36e1 08bd d8bc d43e
00000270: 16da 0c3f 9cd1 04bf 28ee f03c 941e 3abd
00000280: 158e 233e 6036 bcbd e6b8 b5be 098f 4d3f
00000290: 0cd3 1abd 66a6 b23e 09bd 0a3f ab01 0fbf
000002a0: b47c 60bd 404b 51bd d0f8 3f3e 8b49 eabd
000002b0: 144e 6bbe 4b16 fa3e 0dc3 d8bd e47d b43e
000002c0: 7aa5 c53e a1ad 0cbf 84bd 8bbe db42 00be
000002d0: c693 823e 3288 25be 01eb 94be 3074 923e
000002e0: 51c2 72be 54da 903e e017 9f3e 943d 09bf
000002f0: 863e 86bd 0662 c2bd 95e0 ac3e afb7 41be
00000300: b6a6 47be 5c5c 183e 803f 9bbe f7ed 573e
00000310: 24da 103e 42bf d8be 0a3e 313e 0c8d b13c
00000320: 3fbd c53e 7dc9 5abe 3ed4 263d 8fb9 cbbd
00000330: 48f5 b8be 7e8e 833e 3a49 ec3d 38eb 91be
00000340: a261 6f3e d85c e63d b12b a03e eee2 b9be
00000350: 87e9 8c3d e228 49be d009 cbbe 5a04 b43e
00000360: fea0 43bd 43c3 50be 5bbb 983e 44bd 9d3d
00000370: d37c 473e de17 c4be b4a5 0bbe bec3 07bc
00000380: 48e0 9dbe 324e e93e 5fa7 bdbd d226 84be
00000390: 8645 803e 98dc 8dbc 3a1d a53d a967 73be
000003a0: 4377 47be 75cb 323e 81be 48be 0366 213f
000003b0: 6038 6fbb bab5 99be de85 393e e0c8 643b
000003c0: 8037 be3c dc6f 19be 7ef5 80be a426 b13e
000003d0: 4655 d3bd 5b7c 1c3f e238 083e f06f cdbe
000003e0: ce4c 913e 6863 7c3d a587 073d 6ab6 20be
000003f0: 333d e7be 6447 2f3f 8f2c 09be 4af6 123f
-0.05935831 -0.043879896 -0.08750307 -0.14489347 -0.29140002 0.28867108 -0.21544603 0.0009999536
0.39603025 0.025064155 -0.0729271 -0.10150939 -0.22241342 0.09881775 -0.311135 0.38394123
-0.11209696 0.013315767 0.40197295 -0.046894684 -0.15353651 -0.05070223 -0.36852926 0.2931571
-0.19783454 0.49524605 0.08498775 -0.06732323 0.34480596 -0.06859262 -0.26491246 -0.052112807
-0.64860976 0.7298238 -0.0470462 0.47488528 0.26063925 -0.15467234 0.39030778 0.029723443
-0.20620728 -0.025818862 -0.61123085 0.87945867 0.010392889 0.34019136 0.49731994 -0.29260337
0.27994788 -0.0065053627 -0.16456327 -0.054973025 -0.4476981 0.83101356 -0.06117384 0.31677693
0.74103385 -0.3282134 0.2851609 -0.1342441 -0.1596783 -0.03335776 -0.25884584 0.63459593
-0.061675474 0.29228628 0.6536413 -0.34186608 0.11178692 -0.21197723 -0.054163545 -0.007512659
-0.28901753 0.5449499 -0.041982308 0.30635047 0.45803404 -0.3279649 0.035338737 -0.1932995
0.08991282 0.008973181 -0.23997298 0.24101806 -0.14989801 0.20439492 0.32500783 -0.3577404
0.12147719 -0.05302702 0.24669902 -0.039935857 -0.15108913 0.08079609 -0.26884884 0.22509079
0.11157185 -0.3296675 0.35021353 0.06206441 0.29614243 -0.14173761 0.02338823 -0.13648337
-0.3726486 0.32039255 0.0021556504 -0.18933836 0.39561373 0.12452464 0.20834346 -0.18388255
-0.21219918 0.1664921 -0.2758963 0.4763958 0.040716864 -0.16321719 0.25753605 0.12769647
0.09480865 -0.10741818 -0.29017547 0.29573706 -0.16737111 0.61157686 0.03132341 -0.22464396
0.19428161 0.01773677 -0.011327054 -0.12265046 -0.37121457 0.53135943 -0.12843277 0.5532095
0.23981631 -0.31458616 0.30481982 0.008603245 -0.016844142 -0.099417955 -0.63182104 0.92707205
-0.13279997 0.44945723 0.36015463 -0.38790303 0.20003335 -0.008885279 0.108063474 -0.06816317
-0.48141786 0.92277586 -0.033417903 0.41550326 0.5502027 -0.5188234 0.029410437 -0.045439318
0.15972169 -0.09190059 -0.3549263 0.8029638 -0.037798926 0.34892577 0.54194695 -0.5586192
-0.054806426 -0.051097155 0.18747258 -0.114398085 -0.22979003 0.48845133 -0.10584078 0.35252297
0.3860281 -0.54952437 -0.27293026 -0.12525503 0.25503367 -0.16165236 -0.29085544 0.2860427
-0.23706938 0.2829157 0.31072903 -0.53609586 -0.06554894 -0.09491353 0.33765092 -0.18917726
-0.19497189 0.14878982 -0.30321884 0.2108687 0.14145714 -0.42333418 0.17308822 0.021673702
0.38620946 -0.21365924 0.040729754 -0.09947502 -0.36124635 0.2569465 0.11537404 -0.2849977
0.23377088 0.11248177 0.31283334 -0.36305946 0.06880479 -0.19644502 -0.39655924 0.3515957
-0.047760956 -0.20386986 0.2983044 0.07702115 0.1948121 -0.3829946 -0.1363743 -0.008286415
-0.30835176 0.4556747 -0.09260439 -0.25810868 0.25053042 -0.017317101 0.08062215 -0.23770012
-0.19479088 0.17460425 -0.19603921 0.6304628 -0.0036502108 -0.3002146 0.18117473 0.003490977
0.023219824 -0.14984077 -0.25187296 0.34599793 -0.10318999 0.6112725 0.13302949 -0.40124464
0.2837891 0.06161824 0.033088345 -0.15694585 -0.4516388 0.6846831 -0.13395904 0.5740706
