weight/actions_history_2025-03-28_09-48-49.npy (npy, 20128 bytes, 1 tensors)

array f4 [500, 10]
000000 0c 3d 23 3d 94 05 6b bc ca cc 24 3e f8 89 c0 bc
       0.03985314 -0.014344592 0.16093746 -0.023503289
000010 3e 83 86 3e 27 cc 94 be 06 ab 4a bd e8 fb 4f bc
       0.26272005 -0.29062006 -0.049479507 -0.0126943365
000020 8b 59 5d bc 03 c9 ae bd c8 22 0c 3e 40 e7 9e ba
       -0.013510118 -0.08534434 0.13685143 -0.0012123361
000030 cd 5e 47 3e ba 1b 18 bd ef 83 8c 3e c1 be b0 be
       0.19469757 -0.037135817 0.27444407 -0.34520534
000040 ba 5b 4a be 14 0a 75 3d a2 5e 89 bc 84 09 26 be
       -0.19761553 0.059824064 -0.016768757 -0.16214567
000050 82 fa 7a 3e 43 88 03 3d 62 d6 6e 3e b1 35 0c be
       0.24509624 0.03211237 0.23323968 -0.13692357
000060 23 3e 07 3f 89 ee 08 bf 63 08 ab be 75 41 97 3d
       0.5282919 -0.53488976 -0.33404836 0.07385532
000070 c3 fb 68 bd 61 ca 24 be 7a 6a a0 3e 14 68 60 3c
       -0.056880724 -0.16092826 0.31331235 0.013696689
000080 06 3e 9b 3e 4a 6f 30 be 63 fc 1a 3f dd d3 14 bf
       0.30320758 -0.17229953 0.6054136 -0.5813578
000090 4d 89 b8 be b4 6b 23 3e d5 4b b1 bd 06 38 e7 bd
       -0.36042252 0.15959054 -0.08657042 -0.112899825
0000a0 c1 e4 aa 3e 16 81 ce bc e3 01 81 3e 09 3f ca bd
       0.3337765 -0.025208037 0.25196752 -0.09875304
0000b0 a2 71 29 3f af 24 20 bf db bf 93 be 1e db 1a 3e
       0.66189015 -0.62555975 -0.28857312 0.15122649
0000c0 5d 54 48 3c 8c a6 95 bd 58 fb a5 3e 1a da cf bd
       0.012227145 -0.07307157 0.32418323 -0.101490214
0000d0 5b 18 ba 3e 40 87 d5 bd ff 96 39 3f 34 3f 37 bf
       0.36346707 -0.104261875 0.72496027 -0.71580815
0000e0 a3 94 b9 be 62 2e 98 3e 0d 22 92 bd 70 76 91 3d
       -0.36246213 0.29722887 -0.07135401 0.07102668
0000f0 d3 81 97 3e 7b 50 13 be bf 38 bc 3e 60 31 60 be
       0.29591236 -0.1438617 0.36762044 -0.21893835
000100 78 cf 4a 3f e7 be 60 bf 4d 82 d2 be 7e 45 9c 3e
       0.7922282 -0.87791294 -0.41115037 0.30521768
000110 99 04 6a bd fa d2 8d bc 8a 6a 8f 3e 95 de 2f be
       -0.05713329 -0.017312516 0.2801097 -0.17174752
000120 85 f7 ff 3e 64 ed aa be e7 d8 32 3f 29 53 60 bf
       0.4999353 -0.3338424 0.69862217 -0.8762689
000130 38 88 e7 be 00 38 f3 3e 9f 5f 09 bd e5 39 63 bd
       -0.45221114 0.47503662 -0.033538457 -0.055475134
000140 c0 5d 98 3e 45 d7 0d be cd 23 03 3f 1f db ed be
       0.29759026 -0.1385165 0.512265 -0.4645624
000150 56 8c 43 3f 4d 05 81 bf 99 f2 ea be 2e c3 fe 3e
       0.7638601 -1.0079743 -0.45888212 0.49758285
000160 69 d6 6a 3c fd 9e 33 be 32 aa 93 3e ac 0a 15 be
       0.014333346 -0.17541118 0.28840786 -0.14554852
000170 be f5 f2 3e cd d7 0d bf ca 51 34 3f c7 b3 6d bf
       0.4745311 -0.5540741 0.704373 -0.92852443
000180 3f 6c cb be 8d be 10 3f 32 78 8c bc 23 e2 11 be
       -0.39731023 0.5654076 -0.017147157 -0.1424642
000190 6a 35 7b 3e 1d a6 66 be 92 b3 cb 3e b7 02 d0 be
       0.24532095 -0.22524305 0.3978544 -0.4062707
0001a0 cb c9 29 3f 2d 4d 82 bf 54 6b 8f be ed 91 28 3f
       0.66323537 -1.0179802 -0.28011572 0.65847665
0001b0 9c 5c 99 3d 40 d6 4d be 0e 92 58 3e 87 d7 b5 be
       0.07488367 -0.20101261 0.21149465 -0.35515997
0001c0 da 52 a5 3e 50 0b b9 be 57 a2 1e 3f 1b 40 9f bf
       0.32289773 -0.36141443 0.6196646 -1.2441438
0001d0 9d 5f a7 be 03 c0 44 3f 5e 7f 9b 3d 45 14 07 bd
       -0.32690135 0.76855487 0.07592653 -0.032978315
0001e0 19 76 33 3e 7d 49 a5 be a4 69 f3 3e dd 36 2b bf
       0.1752552 -0.3228263 0.47541535 -0.6688059
0001f0 c0 f9 1f 3f 23 79 ad bf 6f 63 e9 be 69 04 49 3f
       0.62490463 -1.3552593 -0.45583674 0.78522354
000200 95 23 11 3c 5d 03 19 bd 7b 68 4c 3e cc dc 45 be
       0.008858581 -0.037356723 0.19961731 -0.19322509
000210 4e d3 e6 3e 84 c2 56 bf 9c 91 26 3f 0a 7c b3 bf
       0.45083088 -0.8389056 0.6506593 -1.4022229
000220 65 ed de be 33 66 4d 3f 7a 72 f7 3b 76 3a 06 be
       -0.43540493 0.8023407 0.0075514885 -0.13108239
000230 9c c8 51 3e ae 93 1a be 0b 1f cf 3e 55 e7 52 bf
       0.20486683 -0.15095398 0.4045337 -0.82384235
000240 18 9d 22 3f f5 bc b9 bf 2a 57 a1 be 1f 18 69 3f
       0.63520956 -1.451079 -0.31511813 0.9105243
000250 11 3d 67 3d a1 29 90 be e4 a0 3c 3e b7 ae 60 be
       0.05645472 -0.2815676 0.1842075 -0.21941648
000260 14 b6 b3 3e ae 07 3c bf c4 1a 1a 3f 4d 12 c0 bf
       0.35099852 -0.7344922 0.6019709 -1.5005585
000270 7b 45 8f be 74 79 84 3f 97 58 c6 3d a6 0e 12 be
       -0.27982697 1.0349565 0.09684866 -0.142634
000280 5e ad 1a 3e 63 0d b2 be a4 3a 8b 3e 46 be 20 bf
       0.15105197 -0.34775838 0.27193177 -0.62790334
000290 c2 b3 07 3f 8f 07 be bf e4 30 85 be 6c 30 81 3f
       0.53008664 -1.4846057 -0.26013863 1.0092902
0002a0 d5 66 23 3e d1 31 07 bd b0 c1 01 3e e9 c6 ae be
       0.15957196 -0.033006493 0.12671542 -0.3413613
0002b0 b8 6d b8 3e cb b3 51 bf 38 19 23 3f 31 f1 d4 bf
       0.3602121 -0.8191497 0.63710356 -1.6636106
0002c0 23 93 ab be a6 7c 84 3f a2 38 d9 3c 0a 66 e2 bc
       -0.33510694 1.035054 0.026516262 -0.027636547
0002d0 75 f1 f1 3d f3 80 5b be f8 ab d0 3e 11 ad 80 bf
       0.118136324 -0.21435909 0.40756202 -1.0052816
0002e0 fa 05 19 3f 8b d1 d7 bf 26 46 85 be 7c 7a 89 3f
       0.59774745 -1.6860822 -0.26030082 1.0740504
0002f0 ae 19 ac 3c 6e f6 1c be bd 08 f0 3d 33 3c 55 be
       0.021008339 -0.1532838 0.11720417 -0.20823745
000300 f6 97 4c 3e 20 6f 52 bf 29 c5 1c 3f 65 a7 d2 bf
       0.19979843 -0.82200813 0.6123834 -1.6457335
000310 9a 4a 01 be fc 28 8c 3f 38 53 a2 3d a2 cd b6 bd
       -0.12626114 1.0950007 0.07926029 -0.0892594
000320 47 36 d4 3d 25 dc aa be d2 47 f1 3d 72 56 18 bf
       0.10361915 -0.33371082 0.11781277 -0.59506905
000330 92 0e 13 3f 21 9b d5 bf 05 4d 3e be bc e8 90 3f
       0.5744411 -1.6687967 -0.18584068 1.1321025
000340 87 b3 b8 3d f4 b8 ad bd bd 8f bf 3d 2f 1b d6 be
       0.09018617 -0.08482543 0.09353588 -0.41817614
000350 e3 eb a1 3e be 55 55 bf 4e 4b 19 3f db 64 da bf
       0.3162528 -0.8333396 0.5988053 -1.7062029
000360 38 05 8d be 50 68 90 3f 46 f1 c8 3c 85 35 77 bd
       -0.27543044 1.1281834 0.02452911 -0.060353775
000370 df 82 f7 3d 8d 00 98 be f7 e2 b6 3e 7e 31 83 bf
       0.120855086 -0.2968792 0.35720035 -1.0249479
000380 1a 32 24 3f 6b b8 e8 bf f5 31 9a be f0 ae 88 3f
       0.6413895 -1.818128 -0.3011624 1.0678387
000390 5d 83 17 3c b5 c6 08 be 8f c2 03 3e e0 e2 fa bd
       0.009247628 -0.1335705 0.12867187 -0.12250304
0003a0 2e 07 b6 3e fb cb 90 bf 78 46 19 3f 6e c0 e1 bf
       0.35552353 -1.131225 0.5987315 -1.763685
0003b0 43 95 55 be d1 2f 95 3f de 83 fc 3c 46 b3 43 be
       -0.2085772 1.1655217 0.030824598 -0.19111356
0003c0 23 8c fe 3d 2b 7e 14 be 32 e8 a1 3d 45 00 4b bf
       0.12429073 -0.14501254 0.07905616 -0.79297286
0003d0 40 4f 1a 3f ae 94 d9 bf 0c b1 d7 bd 4c eb 94 3f
       0.60277176 -1.6998498 -0.10531816 1.1634307
0003e0 07 88 b0 3d fe f3 8e bd 89 1d c2 3d 17 f2 a1 be
       0.08619695 -0.069801316 0.0947829 -0.31630012
0003f0 ee 74 e9 3d 4f 3c 23 bf 92 1d 06 3f a5 d4 d8 bf
       0.11399256 -0.637639 0.5238887 -1.6939894
