weight/actions_history_2025-03-24_22-58-19.npy (npy, 80128 bytes, 1 tensors)

array f4 [500, 4, 10]
-0.09171435 0.0059605837 -0.14881092 -0.034186427 -0.016212128 0.025168624 0.0042588823 0.15533838
0.22228172 0.2566941 -0.098395355 -0.011984795 -0.23458588 -0.03392524 -0.0037224442 0.05976936
0.11744086 -0.014033083 0.119304985 0.15830985 -0.093175456 -0.008451737 -0.24307185 -0.016624354
0.015279695 -0.022082739 0.096122876 -0.013210844 0.20892447 0.12574074 -0.07239448 -0.021002147
-0.12784952 -0.08400295 0.0044209063 0.020654406 0.050506644 0.03879788 0.20804366 0.1267035
-0.21400353 0.025053203 -0.31262305 -0.012797924 0.01574649 0.025405485 0.147209 0.040976677
0.16155268 0.19572839 -0.21710283 -0.046813138 -0.3775745 -0.085590266 -0.044902645 0.024783488
0.19035348 -0.12829861 0.066273004 0.08896197 -0.207106 0.0036536567 -0.21037969 -0.2193695
-0.048512183 -0.053864196 0.11472146 -0.12525594 0.0698661 0.02074223 -0.19093934 -0.016524702
-0.2856429 -0.08435825 -0.022835687 0.030237157 0.14265811 -0.0058518536 0.16768499 0.19188002
-0.33069026 -0.06970335 -0.49241412 -0.049207486 -0.034753814 -0.011734888 0.35193858 -0.21148269
0.062077876 0.11629631 -0.2654805 -0.05803442 -0.47291195 -0.118688956 -0.068477795 -0.037365403
0.24012697 -0.101699814 -0.043724727 0.19000095 -0.25530207 -0.029536549 -0.32109028 -0.25185332
-0.047135666 -0.08825232 0.12653296 -0.010108504 0.11329034 0.11913315 -0.28136882 -0.0104587525
-0.4056142 -0.110134706 -0.027432203 -0.013912667 0.156911 0.014049675 0.05025619 0.2082128
-0.3685034 -0.12629205 -0.5540672 -0.14111234 -0.07657048 -0.06506609 0.46607068 -0.3106963
-0.12287958 0.16596532 -0.31394702 -0.08078752 -0.59169734 -0.16336302 -0.012539901 -0.063271284
0.45448834 -0.241244 0.12602693 0.2363466 -0.27689415 -0.07337326 -0.39410734 -0.2621468
0.009518161 -0.123623654 0.11832124 0.006276522 0.2777992 0.20579687 -0.38818038 -0.042166002
-0.4994843 -0.13506377 -0.010666177 -0.06935561 0.3626354 -0.17809272 0.06004441 0.19595447
-0.37193424 -0.1372525 -0.74831945 -0.07592094 -0.08536228 0.011930447 0.48987797 -0.34580484
-0.059783462 0.26506165 -0.34666914 -0.17891502 -0.81509095 -0.04008513 -0.10644862 -0.00013069436
0.5321866 -0.36231568 -0.025623884 0.15811086 -0.29089424 -0.08555354 -0.3527213 -0.31437978
0.0036993101 -0.08394683 0.07720035 0.0074815564 0.1539744 0.13473752 -0.43374762 -0.030302789
-0.651106 -0.10042836 -0.07649621 -0.09182288 0.3730247 -0.2519752 -0.28800765 0.17996034
-0.35193998 -0.12410051 -0.7556484 -0.1289602 -0.033312142 -0.016258124 0.540854 -0.3214314
-0.08235219 0.2610169 -0.35169962 -0.22206065 -0.8502451 -0.085640706 -0.048257913 -0.0114287175
0.5971249 -0.34501714 -0.09266253 0.24650931 -0.32225576 -0.07226882 -0.3666263 -0.41138008
-0.11296135 -0.04659894 0.059513923 -0.03636141 0.13917542 0.078697905 -0.39627248 -0.01834844
-0.69218975 -0.17840818 -0.072619356 -0.017098203 0.39556953 -0.18695171 -0.14747244 0.21386996
-0.3014425 -0.15910895 -0.8050107 -0.1697979 -0.023060068 0.0057020932 0.59543186 -0.3360141
0.022245947 0.19543508 -0.2878654 -0.24733862 -0.8399075 -0.12038992 -0.023327723 -0.03681835
00000000: bcd4 bbbd 0051 c33b e461 18be 1107 0cbd
00000010: 4ccf 84bc 6e2e ce3c 188e 8b3b 0611 1f3e
00000020: d29d 633e 696d 833e 8183 c9bd e05b 44bc
00000030: 4837 70be 31f5 0abd 40f4 73bb b7d0 743d
00000040: d584 f03d 04eb 65bc 2c56 f43d fa1b 223e
00000050: c6d2 bebd 2879 0abc d4e7 78be cc2f 88bc
00000060: b057 7a3c dce6 b4bc 12dc c43d 4c72 58bc
00000070: 4cf0 553e 2ec2 003e 8f43 94bd b20c acbc
00000080: fcea 02be bd09 acbd 40dd 903b 6e33 a93c
00000090: 0ee0 4e3d 87ea 1e3d 6609 553e 90be 013e
000000a0: be23 5bbe 603c cd3c 2110 a0be 62ae 51bc
000000b0: c8fe 803c 2a1f d03c f5bd 163e 29d7 273d
000000c0: 116e 253e 066d 483e 3450 5ebe 22bf 3fbd
000000d0: 7251 c1be f349 afbd d6eb 37bd be06 cb3c
000000e0: 06ec 423e b660 03be 24ba 873d b131 b63d
000000f0: 9813 54be 3072 6f3b c66d 57be 66a2 60be
00000100: b6b4 46bd b4a0 5cbd 16f3 ea3d 1843 00be
00000110: f515 8f3d 9ceb a93c 9a85 43be d05e 87bc
00000120: c93f 92be 05c4 acbd e811 bbbc eab3 f73c
00000130: f814 123e e8c0 bfbb 9db5 2b3e 327c 443e
00000140: 3c50 a9be a1c0 8ebd b41d fcbe ca8d 49bd
00000150: 045a 0ebd b043 40bc 4b31 b43e eb8e 58be
00000160: 5f45 7e3d c32c ee3d 0fed 87be 80b5 6dbd
00000170: 8421 f2be 3213 f3bd 163e 8cbd 770c 19bd
00000180: d8e3 753e fe47 d0bd b318 33bd 9c8f 423e
00000190: f4b6 82be a2f6 f1bc f265 a4be ebf2 80be
000001a0: 5411 41bd a2bd b4bd db91 013e 249e 25bc
000001b0: c404 e83d 15fc f33d 930f 90be 305b 2bbc
000001c0: aaac cfbe 4e8e e1bd 80b9 e0bc f4f1 63bc
000001d0: 47ad 203e 9c30 663c 6fd9 4d3d bc35 553e
000001e0: 7aac bcbe b452 01be 59d7 0dbf c17f 10be
000001f0: fcd0 9cbd 5f41 85bd d1a0 ee3e 9613 9fbe
00000200: 4aa8 fbbd d0f2 293e aabd a0be ed73 a5bd
00000210: 7a79 17bf a348 27be 2874 4dbc 6094 81bd
00000220: b2b2 e83e ab08 77be 340d 013e d804 723e
00000230: 12c5 8dbe b844 96bd 70c8 c9be 1b38 86be
00000240: 10f2 1b3c 662e fdbd 6852 f23d 48ab cd3b
00000250: b23b 8e3e 6abc 523e 94bf c6be 42b6 2cbd
00000260: 68bc ffbe 284e 0abe 30c1 2ebc 500a 8ebd
00000270: 59ab b93e f05d 36be 21f1 753d 4aa8 483e
00000280: 2a6e bebe eb8b 0cbe dd91 3fbf 707c 9bbd
00000290: 6bd2 aebd ec77 433c 49d1 fa3e 550d b1be
000002a0: 81df 74bd 29b6 873e 9e7e b1be 8035 37be
000002b0: cda9 50bf 4e30 24bd bc01 dabd 000b 09b9
000002c0: 623d 083f 7181 b9be 2ee9 d1bc d0e7 213e
000002d0: 17f0 94be b236 afbd e397 b4be 63f6 a0be
000002e0: 2070 723b 51ec abbd 381b 9e3d d827 f53b
000002f0: 77ab 1d3e a2f8 093e 2b14 debe 8e3d f8bc
00000300: e2ae 26bf 62ad cdbd 0caa 9cbd a20d bcbd
00000310: 18fd be3e e502 81be bd75 93be 8647 383e
00000320: 7a31 b4be 6828 febd 2c72 41bf 250e 04be
00000330: 5072 08bd c22f 85bc 6875 0a3f a892 a4be
00000340: 44a8 a8bd 02a4 853e f911 b4be de63 63be
00000350: aaa9 59bf 6564 afbd 17aa 45bd 843f 3bbc
00000360: 2ddd 183f 16a6 b0be dac5 bdbd f06c 7c3e
00000370: b5fe a4be ad01 94bd 71b6 bbbe 69a0 d2be
00000380: 4858 e7bd 88de 3ebd dfc4 733d b4ef 14bd
00000390: 0084 0e3e 5e2c a13d 3ae4 cabe 784f 96bc
000003a0: 5933 31bf a2b0 36be 75b9 94bd 8811 8cbc
000003b0: 1788 ca3e 4570 3fbe 0403 17be ba00 5b3e
000003c0: ac56 9abe 75ed 22be 2e15 4ebf 80df 2dbe
000003d0: 78e8 bcbc a0d8 ba3b 396e 183f 0a0a acbe
000003e0: 223d b63c 2220 483e 1863 93be 5646 7dbe
000003f0: 2e04 57bf fe8e f6bd c819 bfbc d7ce 16bd
