weight/actions_history_2025-03-25_17-08-02.npy (npy, 20128 bytes, 1 tensors)

array f4 [500, 10]
00000000: bf9c edbd 1cd0 87bd 7581 c9bd a8ed b23d
00000010: 8b5b e9bd 4a1c ed3d f626 eabc 00f1 9eb9
00000020: 9cba 163f 3ea6 cc3e 7269 4dbe 138b 09be
00000030: 282f bcbd ecc0 cc3d 44a4 1abe 5862 293e
00000040: 3fb4 38bd 36c0 07be 3412 e53e 5982 d93e
00000050: 4a5d 7fbe 0612 30be bc3f 16be 6bd2 863e
00000060: 292c a0bd fbbc 403e 686a 0f3e 6d04 87be
00000070: f7ff 123f 64f5 c53e 7b04 8bbe b0b3 2fbe
00000080: bd3b 9bbe 8196 c83e d3e3 bb3d 0942 713e
00000090: f7c8 923e ba7e e8be e8f7 133f 561d fb3e
000000a0: 9495 60be ec00 28be f7d1 a7be 3bd0 de3e
000000b0: 2095 fabc f518 693e f5ee ca3e f0b6 17bf
000000c0: bc9f c63e e20c eb3e 741b e7bd ce39 18be
000000d0: 9058 a3be c393 f83e 5498 35bd af6f 5e3e
000000e0: 339a 003f 28ea 20bf 8461 eb3e ea48 e23e
000000f0: 2684 59bc 43a4 06be c249 17be 7a49 b53e
00000100: f46e 99bc 04e5 873e fb09 0a3f 76a7 17bf
00000110: 5a7f 0f3f 6afa e23e c281 9a3d 1421 b9bd
00000120: 5bcb 07be a28e 9a3e f47c c8bc d07e 943e
00000130: 5eec ed3e b459 0cbf 3265 273f e922 d93e
00000140: 0445 023e 4668 5abd 107a e9bd eb21 623e
00000150: 37c9 80bd a000 8e3e 20c6 a53e d245 f1be
00000160: 83ad 233f 54ac fb3e 124d 0f3e 08a7 c43b
00000170: 60ab 8cbc bdaf 543d c45b 50be 75e5 5a3e
00000180: 1280 373e 6584 aabe 7880 ec3e 41c0 123f
00000190: 8deb ad3d 6422 473d 6c81 543d e6b5 d7bd
000001a0: d849 d5be 7857 293e 37b4 2e3d 949e 32be
000001b0: b0ec d53e ccd2 f73e 002f fc39 662f ef3d
000001c0: 5f0d 4b3e 8855 45be 747b 08bf 8608 a43d
000001d0: a62c c4bc cc11 ccbd a68c e13e fc36 cc3e
000001e0: 518a 92bd 88f1 7f3d 0181 2e3e 47f5 3bbe
000001f0: 36e8 0bbf e16e 393e 34a7 18be afec f7bd
00000200: 3acf e63e 95f1 a73e 1c46 13be 3842 c4bd
00000210: f07f a9bd b713 893e e2ba 79be a0fd c53e
00000220: 3486 09be 822c 92be 8ac2 803e 4467 d03e
00000230: 801a 13be 17e7 77be f210 b4bd eb06 c43e
00000240: e590 e0bd 6ed3 e03e d226 cb3c 53cc f8be
00000250: a089 c63e 3e5f 9d3e ad7d cdbd f45f b0be
00000260: 0532 4abe 53f9 263f 75ed c2bd 9a74 e23e
00000270: d84a 753e 1aa8 1dbf 06ec a13e e05b 7a3e
00000280: d01b aabb 0c27 bcbe 72f0 b7be 5faa 7b3f
00000290: 8401 9bbc 0880 d03e 0af2 f13e 5e3f 35bf
000002a0: 5a00 c43e b914 313e 466f 003e b648 b0be
000002b0: b625 d1be dd43 9b3f 0a68 71bd 1631 b63e
000002c0: c11b 323f f0ad 4dbf 7c91 dc3e 4d80 18bd
000002d0: a082 773e cf79 8ebe 9943 7abe ae9a 873f
000002e0: 9048 b6bb 1a9b a73e e8d5 303f e245 61bf
000002f0: 2ad0 1e3f 9488 783c c864 b53e 4417 4fbe
00000300: adc5 edbd e917 423f 38fe 73bc e865 a93e
00000310: c91f ee3e 9ecc 68bf a83d f43e ee65 ee3d
00000320: f0cd d03e 7c23 03be 36e5 4ebe 8f80 1a3f
00000330: aa7f 2bbe 3828 8e3e 3472 6f3e 89e9 57bf
00000340: 51cf 673e ee7b ce3e 12f2 b43e 1192 d7bd
00000350: e084 f2bd 4a1b 153f 738e 85be 9256 863e
00000360: bcbf 643c c8eb 0dbf facd eebd e0a4 cd3e
00000370: b4a0 8e3e b06d a6bd 7088 493c df3e ea3e
00000380: b00d b8be 35e7 443e 90ed 16be defe 96be
00000390: 7af0 b2bd 28e6 c53e e740 8e3e 9269 babd
000003a0: 8e15 263e 4bc7 a53e d235 b6be c45f bc3d
000003b0: ca63 63be a8c4 0ebe 0a69 afbd 24d7 903e
000003c0: 8511 9c3e d810 30be b0d4 b33e e80c 3e3e
000003d0: 7a48 cbbe 2da0 3c3e a02c b3be 9dbf be3d
000003e0: 66ae c93d a8ea bb3e 4e0c 903e 6ee3 93be
000003f0: 4a02 ba3e 4ad1 d73d dc69 d4be b9aa 6e3e
-0.116021626 -0.066314906 -0.09839145 0.087367356 -0.113944136 0.11577661 -0.028583031 -0.00030315667
0.58878493 0.39970583 -0.20059755 -0.13431959 -0.09188682 0.099977344 -0.15101725 0.16541421
-0.04509377 -0.13256916 0.4474045 0.4248226 -0.2493793 -0.17194375 -0.1467275 0.2633241
-0.07820923 0.1882209 0.14005435 -0.26370564 0.5742182 0.3866378 -0.27151856 -0.17158389
-0.30319014 0.39177325 0.091743134 0.23560347 0.2866895 -0.45409185 0.5780015 0.4904582
-0.2193206 -0.16406602 -0.32777378 0.43518242 -0.030588686 0.22763427 0.39635435 -0.59263515
0.38793743 0.45908266 -0.11284533 -0.148658 -0.31903505 0.48550233 -0.044334725 0.21722291
0.5023529 -0.62857294 0.45972836 0.44196254 -0.013276136 -0.13148598 -0.1477423 0.3540762
-0.018729664 0.26541913 0.5392148 -0.592399 0.560537 0.44331676 0.075442806 -0.09039512
-0.13261168 0.30186945 -0.024473645 0.29003 0.46469396 -0.54824376 0.65388787 0.42409447
0.1272164 -0.0533221 -0.11400235 0.22083251 -0.06288379 0.27734852 0.3237772 -0.4712358
0.6393663 0.49154913 0.13994244 0.006001357 -0.017171562 0.05192541 -0.20347506 0.21376593
0.17919949 -0.33304134 0.46191764 0.57324606 0.08492193 0.04861678 0.05188124 -0.10532741
-0.416579 0.16537273 0.042652335 -0.17443305 0.4178214 0.48403013 0.00048100203 0.116789624
0.1982932 -0.19270909 -0.53313375 0.08009438 -0.023947071 -0.09964332 0.4405262 0.398857
-0.07155288 0.0624862 0.17041399 -0.18355285 -0.546512 0.18108703 -0.14907533 -0.12105691
0.45079976 0.328015 -0.14382213 -0.09582943 -0.08276355 0.26772854 -0.24387696 0.38670063
-0.134301 -0.28549582 0.25148422 0.40703785 -0.14365578 -0.24209248 -0.087922946 0.38286528
-0.109651364 0.43911308 0.024798784 -0.48593387 0.38776875 0.30736727 -0.100337364 -0.34448206
-0.19745643 0.6522419 -0.095179476 0.44229585 0.23954332 -0.6158463 0.31625384 0.2444911
-0.005191304 -0.3674854 -0.35925633 0.9830684 -0.018921621 0.4072268 0.47254974 -0.70799816
0.38281518 0.17293061 0.12542447 -0.34430474 -0.40849084 1.2130085 -0.05893711 0.35584325
0.695736 -0.8034353 0.43079746 -0.037231732 0.24170923 -0.27827308 -0.24439849 1.059408
-0.0055628493 0.3273552 0.69076395 -0.8799726 0.62036383 0.0151692815 0.35428452 -0.20223719
-0.11609969 0.75817734 -0.014892153 0.3308556 0.46508625 -0.9093722 0.4770329 0.11640535
0.40782118 -0.12806505 -0.20204625 0.60352415 -0.16747919 0.2776506 0.23383409 -0.8434072
0.22637679 0.40328926 0.35340935 -0.10525907 -0.1184175 0.58244765 -0.26085243 0.26237923
0.013961729 -0.554379 -0.11660381 0.40164852 0.27856982 -0.0812639 0.012300596 0.45751092
-0.35947943 0.19228823 -0.1473906 -0.29491323 -0.087372735 0.38652158 0.27783892 -0.09102167
0.1621916 0.3237861 -0.35587937 0.09197953 -0.22206035 -0.13942206 -0.085649565 0.2828914
0.30482116 -0.17193925 0.35123205 0.18559611 -0.39703733 0.18420477 -0.34994984 0.09313891
0.09847717 0.36702466 0.28134388 -0.28884453 0.3632987 0.105379656 -0.41487014 0.23307313
