weight/actions_history_2025-03-24_22-33-24.npy (npy, 80128 bytes, 1 tensors)

array f4 [500, 4, 10]
00000000: 1492 2d3d 9c3c 2bbe 5aad c9bd 7522 623e
00000010: 420f 6fbe ee94 8f3e f8aa 51be 5047 d63c
00000020: df21 e03e 8615 083e 02c8 293d 10dd 3cbe
00000030: f4bc 12bd 24b6 3f3e 4e9b 7cbe f10e aa3e
00000040: 4e5c 59be 349d fa3c 91cc 093f c8d3 563e
00000050: fab1 6f3c c819 00be 60eb 913c 4a66 753d
00000060: 5c9e 52be e790 a03e d51f 2ebe 102b d03c
00000070: ad6a e93e baa1 763e 9e6e 86bc 4137 0bbe
00000080: 5cf3 59be 9b60 ef3d fc9e 43be d18d 4b3e
00000090: c8e2 69be cadb 0a3d 5855 253e a591 0a3e
000000a0: cac0 b33d 8b47 bdbe 92be a43e bc67 44be
000000b0: a422 54be bc13 b73e 6a06 7bbe 6677 33be
000000c0: 18cf 053f f835 b83d cee0 073e 013f 06bf
000000d0: 2145 3b3e ea1b 20bd d48a 83be a319 d13e
000000e0: b48d 9bbe 6915 35be 5820 063f 88f9 ad3d
000000f0: 162c 313c 7bee d7be 285e 733c dc6a 463e
00000100: 74b1 3cbe c33e e63e 1246 4cbe e5b1 e7bd
00000110: 56ee 993e 2505 083e 7cf0 893d e3db abbe
00000120: 0734 103e 87d8 f1bd 4b77 9abe 204e 413e
00000130: 02de a0be c877 0abc c5ca a63e fc17 443c
00000140: 12f8 e53d 82f3 3abf 4a63 c93d 6237 2a3e
00000150: e941 89be b18b 143f d71b 97be b8e7 53be
00000160: 1eac e93e 0216 8fbd e92f 2c3e 9a1a 55bf
00000170: 795c 2d3e ed69 973e 35be 91be 2922 2a3f
00000180: 464b 86be 1caf 80be 570a 093f 403b 873b
00000190: 301d 8dba eb7e 34bf 48a3 783d b5a6 ad3e
000001a0: 783e c5bd 0d1b 183f 5c98 b2bd 3304 6ebe
000001b0: bd46 c73e 5f9b 7a3d b58b 8f3e 8895 40bf
000001c0: a94c 433e 0534 c43b bb93 a2be db03 d83e
000001d0: 622b febe d3a4 d3bd f222 183f 8ea7 8cbd
000001e0: ea75 e03d 46f9 77bf 7ac3 223e 5d90 9e3e
000001f0: 04b3 24be 564e 423f dc1e 36be e69c d7be
00000200: bd14 f33e 411f 153d c77f 0f3e 25de 8bbf
00000210: 06b8 ec3d 484f fd3e 80e5 08be 2961 4b3f
00000220: 74cf d4bd d691 0bbf 74b5 e43e 8600 9f3c
00000230: 36d8 2dbd 87bc 79bf 7c84 81bc 3dae 1c3f
00000240: c428 9abd 7799 363f 20ce cebb b2eb f4be
00000250: d046 e13e 3a0c e13c d809 9e3e acef 89bf
00000260: b095 c83c 68cd 853e edeb a4bd 4b6b 103f
00000270: 6ae6 9cbe e654 afbe 39e7 ad3e 8be7 273d
00000280: 3eae 033c 8eb1 9cbf 540e 993e 286d 8a3e
00000290: 9b01 9bbd 9396 583f 9611 f3bd 2712 2abf
000002a0: 5de8 8f3e f4f0 d6bd 2eaa e53d 320b aabf
000002b0: 5625 163e f84b 3c3f 6e5d fabd f990 683f
000002c0: 00c8 0cba 997c 51bf 7924 a63e 0eaf f2bd
000002d0: 95b4 863c e467 9dbf e8f4 7fbe b787 823f
000002e0: a018 e2bd d22c 463f fe30 013e 19b3 15bf
000002f0: 10dd 0d3e 399c 8bbd 417e 633e 29a2 a9bf
00000300: d052 a73b d220 df3e ecef 94bd 6288 203f
00000310: b04e 08be d730 0ebf d8a6 563e ceff 48bd
00000320: fc74 f4bb 21e7 b5bf f6d8 913d 3eb9 1d3f
00000330: d4c3 0dbe 545e 593f 1cee 1dbd 900d 53bf
00000340: 2eae 5f3e 60a3 03be 3e92 d63d 39e2 c5bf
00000350: de56 cabc e015 853f 5889 7abe 6034 6d3f
00000360: a471 df3d 9cf6 82bf 8eda 693e 3b3b 2bbe
00000370: 67af 883e c756 bdbf eaf1 81be 9758 b53f
00000380: a771 98be 69aa 4d3f 306c eb3e 8e24 6cbf
00000390: 843b b73e 74c4 b4bd 4d3b 7c3e da7d c8bf
000003a0: dc83 4abe 2f5b 363f ec01 18be 4109 2a3f
000003b0: 001a abbd 8209 50bf d46f 3c3d 2612 e2bd
000003c0: 06af e93d 46ee ccbf 2037 d8bd ee84 8f3f
000003d0: 64f2 7ebe 173b 743f acb2 0e3e d7f0 88bf
000003e0: fabb 433e bad6 d1bd 8745 a53e 93c6 e0bf
000003f0: 2462 18be 0ec4 be3f 650e babe 04da 803f
0.04237564 -0.1672234 -0.09847517 0.22083457 -0.23345664 0.28043312 -0.20475376 0.026157051
0.43775842 0.1328946 0.041450508 -0.18443704 -0.03582473 0.18721825 -0.24668619 0.33214524
-0.21226618 0.030592538 0.5382777 0.20979226 0.014629835 -0.12509835 0.01781243 0.059912004
-0.20568222 0.31360552 -0.1700433 0.025411159 0.455892 0.24085131 -0.016410168 -0.13595296
-0.2128424 0.11688348 -0.19103616 0.19878317 -0.22840416 0.033901013 0.16145837 0.13532121
0.08777006 -0.36968645 0.32176644 -0.19180197 -0.2071634 0.35757244 -0.24514166 -0.17526016
0.52269125 0.08994669 0.1326935 -0.52439886 0.1828809 -0.03908912 -0.25691855 0.40839872
-0.30381548 -0.17683949 0.523931 0.0849486 0.010813734 -0.42174134 0.014853992 0.19376701
-0.18427068 0.44969758 -0.19948605 -0.113132276 0.30064648 0.13283212 0.06735322 -0.33566198
0.14082347 -0.118088774 -0.30169138 0.18877459 -0.3141938 -0.00845141 0.32576576 0.011968609
0.11228956 -0.73027813 0.09833391 0.1662269 -0.26808098 0.5802565 -0.29513428 -0.20693862
0.45639127 -0.069866195 0.16815151 -0.83243716 0.16929807 0.29573002 -0.2846543 0.66458374
-0.26229304 -0.25133598 0.535314 0.004126936 -0.0010766145 -0.7050616 0.060702592 0.3391625
-0.096310556 0.59416276 -0.087204665 -0.2324379 0.38921157 0.06118333 0.28036276 -0.75228167
0.19072212 0.0059876465 -0.31753334 0.4219044 -0.49642473 -0.10334172 0.5942832 -0.06867896
0.1095999 -0.96864736 0.15894881 0.30969515 -0.16083914 0.7590078 -0.1778521 -0.42111892
0.4747676 0.03640676 0.14013587 -1.0927168 0.11558537 0.4947455 -0.13368797 0.7944513
-0.10391131 -0.54519403 0.44669688 0.01940943 -0.042442523 -0.97553295 -0.015810244 0.61203367
-0.07527307 0.7132792 -0.006311193 -0.4783607 0.43999338 0.02747165 0.30866885 -1.0776267
0.024485439 0.26133275 -0.08052812 0.56413716 -0.30644542 -0.3424446 0.3396547 0.0409923
0.008037148 -1.2241685 0.29893744 0.27036405 -0.075686656 0.8460476 -0.118685886 -0.6643395
0.28106967 -0.10495177 0.112141 -1.3284667 0.1466268 0.7355342 -0.122248515 0.9084621
-0.00053703785 -0.81830746 0.324497 -0.11849795 0.01644353 -1.229733 -0.24995768 1.0197667
-0.11039853 0.7741214 0.12616345 -0.58476406 0.1385386 -0.068169065 0.22216131 -1.3252612
0.0051063076 0.43579727 -0.07272324 0.62708104 -0.13311267 -0.55543274 0.20962083 -0.04907208
-0.0074602347 -1.421116 0.0712146 0.6161078 -0.13844234 0.8490956 -0.038557157 -0.8244257
0.21843788 -0.12855291 0.10477112 -1.5459663 -0.024699625 1.0397301 -0.24466455 0.9265804
0.10910347 -1.0231509 0.22837278 -0.16721813 0.2669632 -1.4792107 -0.25379878 1.416766
-0.2977421 0.8033815 0.45980978 -0.9224328 0.35787594 -0.08826533 0.24631996 -1.5663407
-0.19776863 0.71232885 -0.14844483 0.6642037 -0.083545685 -0.8126451 0.046005085 -0.11038618
0.11410336 -1.6010215 -0.10557389 1.1212442 -0.24897152 0.95402664 0.13935345 -1.0698498
0.19114676 -0.10246034 0.32279608 -1.75606 -0.14881188 1.4903581 -0.36339107 1.0066533
