weight/actions_history_2025-03-26_17-29-31.npy (npy, 20128 bytes, 1 tensors)

array f4 [500, 10]
-0.10650496 -0.026960922 -0.14135425 -0.0865064 -0.012810215 0.015880011 0.06684749 0.023638044
0.27415588 0.115868226 -0.23082615 -0.05703284 -0.3535266 -0.06347868 -0.06929064 0.012702383
0.061629374 -0.029054727 0.11473694 0.15180656 -0.3086233 -0.01965034 -0.3695292 -0.13567837
-0.05846037 0.058961444 0.1812275 -0.07700832 0.094500616 0.23079392 -0.34850955 -0.057906777
-0.568163 -0.09657562 0.0014410242 0.0014418252 0.3640825 -0.258189 0.15080221 0.21384493
-0.30225593 -0.05077622 -0.71252847 -0.0815372 -0.049531735 -0.0026861802 0.46841908 -0.3015612
0.018247783 0.27061754 -0.2612033 -0.066497095 -0.72993696 -0.10782865 -0.042325485 0.04629249
0.45147824 -0.3873818 0.075326204 0.26393145 -0.16579074 -0.11136698 -0.73096424 -0.08144486
-0.035652556 0.09430491 0.50027883 -0.36691976 0.110107794 0.1369618 -0.12970848 -0.07025923
-0.6794104 -0.14469063 0.021408677 0.08459479 0.37827972 -0.25972375 0.14736468 0.14125867
-0.10594567 0.0063055158 -0.63594276 -0.13852102 -0.023738287 0.059524253 0.26804486 -0.15721196
0.19028443 0.063022114 -0.08653033 0.11592337 -0.54723155 -0.21901304 -0.03297425 0.04682786
0.19386816 -0.034456722 0.194747 0.071947165 -0.054449305 0.20621666 -0.5061302 -0.24251194
-0.034046717 -0.018469114 0.0980978 0.12559813 0.25048804 -0.017726667 -0.061408997 0.2319723
-0.404301 -0.34974793 -0.101605475 -0.010575227 0.093369156 0.16317686 0.27355945 -0.005791597
-0.10585794 0.23320019 -0.40422255 -0.29544637 -0.15584742 -0.0019359849 0.044217598 0.24981931
0.2553421 0.06516881 -0.22999367 0.20801988 -0.49982995 -0.2027054 -0.041192144 0.07227456
0.13617232 0.27906546 0.21777037 0.20562924 -0.34023535 0.07602722 -0.59919536 -0.07719441
0.044086687 0.14090708 0.219944 0.037937555 0.16282733 0.1370762 -0.3651129 -0.08078341
-0.5562287 -0.098523036 0.049887322 0.16991216 0.32968917 -0.11179681 0.029093385 0.073690444
-0.3678677 -0.14094564 -0.6558468 0.060402643 0.07240083 0.17397466 0.45478198 -0.207338
0.006513372 0.070412606 -0.28458834 -0.16800582 -0.68662447 0.13013388 0.0038619414 0.17498097
0.5595061 -0.3685475 0.07592334 0.09493235 -0.19302619 -0.16410477 -0.62165827 0.08568667
0.05754078 0.17708477 0.61923033 -0.43403754 0.11334985 0.091389924 -0.080603376 -0.12001305
-0.5924191 0.030858725 0.00091361254 0.16192394 0.48440757 -0.45999163 0.0818297 0.0892797
0.033010483 -0.036173075 -0.55224097 -0.03830575 -0.02001591 0.14773741 0.2958488 -0.39123112
0.07627526 0.04853925 0.123332456 0.12235772 -0.4915473 -0.12594338 -0.1656982 0.010408461
0.18141583 -0.23263967 0.08886627 0.010763109 0.18697388 0.22659981 -0.43544233 -0.19189967
-0.1971367 0.0047498345 0.0499907 0.029576313 0.19899297 0.045154996 0.19801436 0.24913931
-0.33628345 -0.23270012 -0.20695454 -0.046714354 -0.07163196 0.071369246 0.32946086 0.036212534
0.20133145 0.23789647 -0.26695472 -0.25508684 -0.19251475 -0.04148839 -0.17504457 0.21501958
0.25533476 0.06414029 0.07104468 0.14785856 -0.33764875 -0.19192816 -0.120471254 -0.0022640228
00000000: 461f dabd 27dd dcbc 2bbf 10be 442a b1bd
00000010: f0e1 51bc cc16 823c 56e7 883d 92a4 c13c
00000020: 295e 8c3e 524c ed3d b15d 6cbe 449b 69bd
00000030: 7001 b5be 1c01 82bd 40e8 8dbd a81d 503c
00000040: 156f 7c3d 2e04 eebc 33fb ea3d 2e73 1b3e
00000050: e003 9ebe c0f9 a0bc ee32 bdbe 45ef 0abe
00000060: 2474 6fbd 8e81 713d b493 393e 8ab6 9dbd
00000070: 8a89 c13d 3e55 6c3e d86f b2be a82f 6dbd
00000080: 2173 11bf 70c9 c5bd c0e0 bc3a a0fb bc3a
00000090: 0569 ba3e 5931 84be e56b 1a3e 2afa 5a3e
000000a0: 4ac1 9abe bafa 4fbd 4468 36bf fafc a6bd
000000b0: cae1 4abd a00a 30bb a0d4 ef3e 3b66 9abe
000000c0: 607c 953c 628e 8a3e 70bc 85be a12f 88bd
000000d0: 26dd 3abf 44d5 dcbd 7d5d 2dbd 329d 3d3d
000000e0: 2828 e73e e856 c6be a044 9a3d 0622 873e
000000f0: 0cc5 29be 5f14 e4bd 7920 3bbf 90cc a6bd
00000100: 6a08 12bd ef22 c13d 4612 003f e8dc bbbe
00000110: 3280 e13d b73f 0c3e 4dd2 04be 12e4 8fbd
00000120: d7ed 2dbf c829 14be 4061 af3c 0940 ad3d
00000130: e1ad c13e 83fa 84be c4e6 163e 1da6 103e
00000140: 0bfa d8bd 809e ce3b 25cd 22bf 74d8 0dbe
00000150: cc76 c2bc b4cf 733d 2d3d 893e 2cfc 20be
00000160: ecd9 423e bd11 813d d036 b1bd 3b69 ed3d
00000170: 5e17 0cbf f444 60be 0210 07bd 92ce 3f3d
00000180: 6085 463e 7e22 0dbd c26b 473e 0959 933d
00000190: 3c06 5fbd 762a 533e c091 01bf 0d55 78be
000001a0: 9274 0bbd 8a4c 97bc 80e7 c83d cc9c 003e
000001b0: f83f 803e 8437 91bc 0088 7bbd 268a 6d3e
000001c0: 8a00 cfbe 2912 b3be 8816 d0bd b843 2dbc
000001d0: 5438 bf3d d617 273e fc0f 8c3e 70c7 bdbb
000001e0: 0ccc d8bd 08cc 6e3e 42f6 cebe bf44 97be
000001f0: 7796 1fbe e0c0 fdba 831d 353d a2d0 7f3e
00000200: 33bc 823e 3a77 853d 7683 6bbe 2a03 553e
00000210: b6e9 ffbe 0192 4fbe 18b9 28bd af04 943d
00000220: c270 0b3e abe1 8e3e 32ff 5e3e 7990 523e
00000230: 5433 aebe 29b4 9b3d de64 19bf 1a18 9ebd
00000240: 3e94 343d f249 103e 0039 613e 6964 1b3d
00000250: 35bc 263e b45d 0c3e 14f0 babe c671 a5bd
00000260: 0165 0ebf 72c6 c9bd a656 4c3d 74fd 2d3e
00000270: 05cd a83e baf5 e4bd 4055 ee3c 04eb 963d
00000280: 2859 bcbe 0e54 10be 93e5 27bf c368 773d
00000290: e346 943d 6a26 323e 2fd9 e83e 6a50 54be
000002a0: 206e d53b 7c34 903d 90b5 91be b809 2cbe
000002b0: 9fc6 2fbf d141 053e a018 7d3b 362e 333e
000002c0: cb3b 0f3f 42b2 bcbe b27d 9b3d e46b c23d
000002d0: a8a8 45be 150b 28be ff24 1fbf 7e7c af3d
000002e0: e2af 6b3d b655 353e e185 1e3f 2b3a debe
000002f0: f723 e83d a42a bb3d 6213 a5bd 67c9 f5bd
00000300: c7a8 17bf 70cb fc3c 807f 6f3a 64cf 253e
00000310: 4504 f83e 0684 ebbe 5496 a73d 46d8 b63d
00000320: 0036 073d 382a 14bd aa5f 0dbf 7de6 1cbd
00000330: 68f8 a3bc 7a48 173e 7e79 973e 724f c8be
00000340: 3436 9c3d 18d1 463d ba95 fc3d af96 fa3d
00000350: 16ac fbbe 4df7 00be caac 29be 4088 2a3c
00000360: 12c5 393e 1839 6ebe 85ff b53d c057 303c
00000370: 1576 3f3e c809 683e 4cf2 debe 5981 44be
00000380: 34de 49be 80a4 9b3b 0cc3 4c3d 064a f23c
00000390: d0c4 4b3e 72f4 383d 47c4 4a3e 601e 7f3e
000003a0: 582d acbe f148 6ebe e4eb 53be 8d57 3fbd
000003b0: c7b3 92bd 0a2a 923d 18af a83e 9853 143d
000003c0: d529 4e3e 229b 733e 4aae 88be be9a 82be
000003d0: 9622 45be bbef 29bd e23e 33be 182e 5c3e
000003e0: 3dbb 823e fc5b 833d e07f 913d 3c68 173e
000003f0: 4ce0 acbe d188 44be a2b9 f6bd 0060 14bb
