weight/actions_history_2025-03-24_23-20-56.npy (npy, 20128 bytes, 1 tensors)

array f4 [500, 10]
-0.045352235 -0.062094033 -0.06566866 0.0398883 -0.10162734 0.10708219 0.099059604 0.032794505
0.34397984 0.11278209 -0.061688602 -0.11108188 -0.15530434 0.03552749 -0.1463213 0.14814387
0.0364521 0.034916677 0.16628155 0.12956232 -0.059405692 -0.22001071 -0.20687994 0.25658435
-0.04096832 0.2090643 0.1710141 0.034845084 0.22706214 0.17797491 -0.068341605 -0.35881424
-0.25248724 0.36964738 0.12958506 0.29156056 0.30536756 -0.20292418 0.30385023 0.19048133
-0.031136049 -0.3907838 -0.3404356 0.52413595 0.1235398 0.2935085 0.46470186 -0.3411098
0.23991495 0.07625371 0.026233854 -0.46772155 -0.46696183 0.75564665 0.087392636 0.32585958
0.53874975 -0.5209226 0.2894087 0.08531052 0.13829868 -0.48597017 -0.3628511 0.69559026
0.06274865 0.2884859 0.5969023 -0.6455489 0.28956372 0.05677365 0.27237228 -0.4162438
-0.25658563 0.6212316 0.034338094 0.20839778 0.6698623 -0.7035133 0.4214312 0.08488007
0.41348082 -0.28020895 -0.28735828 0.5084379 -0.04970361 0.22033891 0.49870318 -0.6856909
0.524583 0.05762658 0.512958 -0.08881308 -0.28726724 0.332743 -0.19516626 0.18763416
0.39858288 -0.57223785 0.5461545 0.15625072 0.5251657 0.035768207 -0.16237012 0.02004056
-0.4811901 0.18906505 0.19291326 -0.29684228 0.4354345 0.08124405 0.6214687 -0.07046515
-0.1341236 0.22283553 -0.42569667 0.21885934 -0.23014063 0.10510515 0.39040765 -0.04817074
0.52557397 -0.28110084 0.014510237 0.25003478 -0.29600984 0.2830982 -0.2789285 0.18500008
0.42082095 -0.0017616302 0.43440923 -0.4789807 0.0021380559 0.33091125 -0.14812195 0.37918362
-0.074414335 -0.10503371 0.053900227 0.1846529 0.3681103 -0.58214736 0.031060927 0.35043108
-0.13430095 0.39329374 0.03052435 -0.20587443 -0.06576377 0.06826803 0.31477386 -0.71148646
-0.16267139 0.68526566 -0.15782854 0.3420485 0.10777181 -0.38603455 -0.053477287 -0.033874396
0.30542487 -0.79972076 -0.19274852 0.8458968 -0.10927283 0.30945697 0.31158307 -0.49757892
0.00042389333 -0.022213686 0.39592937 -0.79662085 -0.19947618 0.9112368 -0.2089121 0.23739007
0.43388978 -0.6160286 0.16273487 -0.024611738 0.5320023 -0.7391813 -0.07376235 0.71023256
-0.24812323 0.21769789 0.35932568 -0.6687672 0.2517206 0.0060334727 0.67830294 -0.6938592
-0.08367322 0.56695765 -0.30132517 0.21700242 0.17090926 -0.6516095 0.113854155 0.02996185
0.76803523 -0.6376413 -0.043942682 0.41237578 -0.34463614 0.21038744 -0.00726106 -0.56233317
0.12656298 0.10736129 0.7826576 -0.4982642 0.077581905 0.21865718 -0.473055 0.17979355
-0.051283248 -0.4549448 0.24239582 0.08303942 0.7919487 -0.41416854 0.27545133 0.15494053
-0.44483998 0.18960291 -0.14699 -0.1439774 0.2861987 0.08212982 0.7151206 -0.51444054
0.22802049 0.236405 -0.3836735 0.3171945 -0.22628936 0.02207306 0.16291302 0.18075746
0.62804323 -0.6237335 0.10502397 0.39158913 -0.24811164 0.35455388 -0.12621996 -0.036751233
0.052073665 0.24571365 0.512533 -0.7089418 0.13157946 0.44157252 -0.23901835 0.36410323
00000000: 44c3 39bd 5056 7ebd 4a7d 86bd ea61 233d
00000010: ff21 d0bd e84d db3d c3df ca3d 8853 063d
00000020: 201e b03e 4cfa e63d 30ad 7cbd e67e e3bd
00000030: 1a08 1fbe 4685 113d 40d5 15be 07b3 173e
00000040: cc4e 153d ca04 0f3d b645 2a3e fcab 043e
00000050: 6253 73bd 7d4a 61be 56d8 53be 065f 833e
00000060: 66ce 27bd f414 563e 521e 2f3e b8b9 0e3d
00000070: fa82 683e 0e3f 363e aff6 8bbd 80b6 b7be
00000080: 0246 81be 6c42 bd3e f2b1 043e 6d47 953e
00000090: 2359 9c3e 5bcb 4fbe 4292 9b3e 8a0d 433e
000000a0: 0711 ffbc d014 c8be 934d aebe c62d 063f
000000b0: 6f02 fd3d bf46 963e 67ed ed3e f2a5 aebe
000000c0: 44ac 753e e82a 9c3d 61e8 d63c 3379 efbe
000000d0: 9f15 efbe 0f72 413f e9fa b23d 11d7 a63e
000000e0: 81eb 093f 2f5b 05bf 612d 943e 48b7 ae3d
000000f0: 2b9e 0d3e 15d1 f8be 9fc7 b9be 3412 323f
00000100: 5d82 803d 6db4 933e 97ce 183f b142 25bf
00000110: b241 943e 7d8b 683d 6174 8b3e e81d d5be
00000120: 315f 83be 0909 1f3f 1aa6 0c3d 3a66 553e
00000130: 187c 2b3f 7319 34bf d5c5 d73e 9ad5 ad3d
00000140: c2b3 d33e 8c77 8fbe a020 93be fc28 023f
00000150: 0396 4bbd 86a0 613e 0656 ff3e 7089 2fbf
00000160: 124b 063f d909 6c3d 3751 033f a2e3 b5bd
00000170: b114 93be 4a5d aa3e aad9 47be 2b23 403e
00000180: 0e13 cc3e 2e7e 12bf c8d0 0b3f 3000 203e
00000190: 4271 063f af81 123d 5a44 26be 1a2c a43c
000001a0: 8c5e f6be 459a 413e 0e8b 453e b6fb 97be
000001b0: 45f1 de3e 4863 a63d 9318 1f3f 0850 90bd
000001c0: b257 09be ff2e 643e eaf4 d9be aa1c 603e
000001d0: fca9 6bbe 5e41 d73d 83e3 c73e af4e 45bd
000001e0: 048c 063f 73ec 8fbe 58bc 6d3c 8f04 803e
000001f0: 9a8e 97be 3ff2 903e b7cf 8ebe a970 3d3e
00000200: d875 d73e 80e6 e6ba e36a de3e f53c f5be
00000210: a01e 0c3b 336d a93e 48ad 17be 5b24 c23e
00000220: 8b66 98bd ea1b d7bd 7cc6 5c3d a615 3d3e
00000230: f478 bc3e 9c07 15bf 7c73 fe3c b46b b33e
00000240: 3086 09be cc5d c93e 340e fa3c bfd0 52be
00000250: 28af 86bd 1cd0 8b3d 0a2a a13e fa23 36bf
00000260: 5493 26be 926d 2f3f ce9d 21be fb20 af3e
00000270: 77b7 dc3d 52a6 c5be 000b 5bbd e1bf 0abd
00000280: a660 9c3e 80ba 4cbf de5f 45be b18c 583f
00000290: 6fca dfbd 2571 9e3e d187 9f3e aac2 febe
000002a0: 003e de39 7af9 b5bc 41b7 ca3e 58ef 4bbf
000002b0: 7c43 4cbe d146 693f 0eed 55be 6216 733e
000002c0: cd26 de3e 0db4 1dbf f8a3 263e 8e9e c9bc
000002d0: 4d31 083f fc3a 3dbf b710 97bd cdd1 353f
000002e0: 0414 7ebe 32ec 5e3e 89f9 b73e 5434 2bbf
000002f0: 86e1 803e 70b4 c53b 43a5 2d3f c2a0 31bf
00000300: dd5c abbd 2324 113f 4b47 9abe e235 5e3e
00000310: d602 2f3e e1cf 26bf 5e2c e93d 8e72 f53c
00000320: f59d 443f 763c 23bf 3efd 33bd eb22 d33e
00000330: 2674 b0be ce6f 573e 30ee edbb 11f5 0fbf
00000340: ba99 013e 3ce0 db3d 405c 483f 7c1c ffbe
00000350: 43e3 9e3d abe7 5f3e 4434 f2be cd1b 383e
00000360: 620e 52bd 86ee e8be 9c36 783e 9210 aa3d
00000370: 26bd 4a3f e60d d4be f507 8d3e bba8 1e3e
00000380: 11c2 e3be 4427 423e 8c84 16be d06e 13be
00000390: a388 923e ae33 a83d 2512 373f 60b2 03bf
000003a0: 347e 693e 2714 723e da70 c4be 5167 a23e
000003b0: 66b8 67be 90d2 b43c acd2 263e 7c18 393e
000003c0: 71c7 203f 00ad 1fbf cf16 d73d 5f7e c83e
000003d0: fa10 7ebe 1688 b53e ce3f 01be 7688 16bd
000003e0: 324b 553d 5c9c 7b3e 5d35 033f 367d 35bf
000003f0: c4bc 063e cb15 e23e 3ac1 74be bd6b ba3e
