weight/actions_history_2025-03-23_21-22-27.npy (npy, 80128 bytes, 1 tensors)

array f4 [500, 4, 10]
0	0x3b205ba0	0.0024468675
1	0xbdc35f4a	-0.09539659
2	0x3c9af9a8	0.018917874
3	0xbc6aa5dd	-0.014321771
4	0xbdeb5d14	-0.114923626
5	0xbd0799ab	-0.033105534
6	0x3db50cd4	0.088403374
7	0xbc9390ad	-0.018013323
8	0xbd7c6f94	-0.061629847
9	0x3d52e49c	0.05148755
10	0xbd7e3b7a	-0.06206844
11	0xbe76a3ce	-0.24085924
12	0x3d5e5272	0.054277845
13	0xbbf3b622	-0.0074374834
14	0xbdf2dbfc	-0.11858365
15	0xbe40ade2	-0.18816331
16	0x3dc76fea	0.09738143
17	0xbc9f139a	-0.019418526
18	0x3da03c7c	0.078240365
19	0x3df39c57	0.11895054
20	0xbd3382ae	-0.043825798
21	0xbdfa3c5e	-0.122185454
22	0x3ca351c0	0.019936442
23	0x3c09dd80	0.008414626
24	0xbde2a0f1	-0.110658534
25	0xbe1c2925	-0.1525007
26	0x3dc34428	0.09534484
27	0xbd81a13a	-0.0632958
28	0x3d15dd2f	0.03658789
29	0x3e8a0de6	0.2696373
30	0xbd50e825	-0.05100264
31	0xbdc661ca	-0.096866205
32	0x3d0871ba	0.033311583
33	0xbca651b7	-0.020302637
34	0xbdf1fa78	-0.11815351
35	0xbe1b265a	-0.15151349
36	0x3d87c7d2	0.066299096
37	0xbd3e7ec3	-0.04650761
38	0x3e01fc89	0.12693991
39	0x3cc6d4d8	0.024271414
40	0xbe218a0e	-0.1577532
41	0xbe1b58d4	-0.15170604
42	0x3dcc4812	0.09974684
43	0xbcc4e991	-0.024037154
44	0xbe51bb60	-0.20481634
45	0xbe091556	-0.13387045
46	0x3dec0406	0.11524205
47	0xbd52fdc6	-0.05151155
48	0x3e3286f2	0.1743429
49	0xbe9f4fd6	-0.31115597
50	0xbdadff94	-0.08496013
51	0xbea717b4	-0.32635272
52	0x3d83e68f	0.0644046
53	0x3dfea386	0.12433533
54	0xbea42a06	-0.3206331
55	0xbe842a56	-0.2581355
56	0x3e144c98	0.14482343
57	0xbc8e436e	-0.017366137
58	0xbe98259e	-0.297162
59	0xbe938448	-0.2881186
60	0xbe03f9a8	-0.12888205
61	0xbe46faec	-0.19431657
62	0x3d2d017e	0.04223775
63	0x3d183c21	0.03716672
64	0xbe7aa17a	-0.24475661
65	0xbe1f2940	-0.1554308
66	0x3d6d7006	0.057968162
67	0xbde51792	-0.11186136
68	0xbe489548	-0.19588196
69	0xbf423c9d	-0.7587374
70	0xbe0bb4b6	-0.13643155
71	0xbe7dc42e	-0.24781868
72	0x3d868314	0.0656797
73	0x3dce7595	0.10081021
74	0xbec84a54	-0.39119208
75	0xbe53249d	-0.20619436
76	0x3d5726e3	0.05252732
77	0xbd75315b	-0.059861522
78	0xbed8db95	-0.42355028
79	0x3de86449	0.11347253
80	0xbd72b4aa	-0.059254326
81	0xbe7b7d70	-0.2455957
82	0x3d92e600	0.07172775
83	0x3e772883	0.24136548
84	0xbeb27ffa	-0.34863263
85	0xbe82b357	-0.2552745
86	0x3e1e66eb	0.15468948
87	0xbbf6e830	-0.007535003
88	0xbf18d2f7	-0.59696907
89	0x3f3a27b4	0.7271683
90	0xbe259368	-0.16169512
91	0xbe843678	-0.25822806
92	0x3d71a618	0.05899629
93	0x3e27291b	0.16324274
94	0xbebbf890	-0.36713076
95	0xbe83e704	-0.25762188
96	0x3e53b8e7	0.20676003
97	0x3d385a31	0.04500789
98	0x3f458a3c	0.77164054
99	0x3f52640b	0.82183903
100	0xbd86f248	-0.0658918
101	0xbe8bdc37	-0.27316448
102	0x3cbfdcb4	0.02342067
103	0x3e99eede	0.30065054
104	0xbe8b19c2	-0.2716809
105	0xbe96fa90	-0.2948804
106	0x3dd6ee7f	0.10494708
107	0xbd265a0b	-0.040613215
108	0x3ee054aa	0.43814594
109	0x3fb5d8ba	1.4206765
110	0xbdf97ea4	-0.12182358
111	0xbecaed08	-0.39633965
112	0x3db66fa0	0.089080095
113	0xbbec440e	-0.007210261
114	0xbed41dce	-0.4142899
115	0xbe233d14	-0.15941268
116	0x3df1542d	0.117836334
117	0x3d07a5af	0.033116993
118	0x3f8f38bc	1.1189189
119	0xbe63d9c6	-0.22251043
120	0xbd2180b9	-0.0394294
121	0xbea64294	-0.3247267
122	0xbd52ed41	-0.051495794
123	0x3d30c049	0.043152127
124	0xbea36f40	-0.31920815
125	0xbe144644	-0.14479929
126	0x3ded4426	0.11585264
127	0x3c93673c	0.017993562
128	0x3f9173c3	1.1363453
129	0xbfac97d4	-1.3483834
130	0x3da93925	0.082628526
131	0x3d34d37a	0.044146992
132	0xbb1bf8d0	-0.0023799427
133	0x3effa138	0.49927688
134	0xbe83d5ce	-0.25749058
135	0xbd82a396	-0.06378858
136	0x3e5cff04	0.21581656
137	0xbdd201e4	-0.10254267
138	0xbf8b510d	-1.088411
139	0xbf905631	-1.1276304
140	0x3db8c621	0.09022165
141	0xbe0c8548	-0.13722718
142	0xbd573ac0	-0.052546263
143	0x3ec6a01e	0.38794035
144	0xbe7bc71c	-0.24587673
145	0xbb3b7820	-0.0028605536
146	0x3e0ac4a1	0.1355157
147	0xbdcc97fe	-0.09989928
148	0xbf06a4b2	-0.52595055
149	0xbfb0f9c0	-1.3826218
150	0x3e1a40e8	0.15063822
151	0xbda04ec3	-0.078275226
152	0x3d1b7caa	0.037960686
153	0x3ed3df48	0.41381288
154	0xbed8b9d4	-0.42329276
155	0xbe6445b4	-0.22292215
156	0x3e1fd6ab	0.15609233
157	0xbdea53b4	-0.11441746
158	0xbfb842b2	-1.4395354
159	0x3ec0a684	0.3762704
160	0x3e0ec22c	0.13941258
161	0xbe7d2396	-0.24720606
162	0xbd717d88	-0.058957607
163	0x3eff8b0a	0.49910766
164	0xbe96ccf6	-0.29453248
165	0xbe96cff2	-0.29455525
166	0x3e449b0a	0.19199768
167	0x3c1fd974	0.009756435
168	0xbfaa25ee	-1.3292825
169	0x3f84218c	1.0322738
170	0x3a53c700	0.00080786645
171	0xbee6d7bc	-0.45086467
172	0x3c219378	0.009861819
173	0x3e9fe6ec	0.31230867
174	0xbea5b82c	-0.32367074
175	0xbe10345e	-0.14082476
176	0x3e13eb75	0.14445288
177	0xbccd0d20	-0.025030673
178	0x3fba795c	1.4568286
179	0x3faf01d0	1.3672428
180	0xbc63d14e	-0.013904883
181	0xbeaae561	-0.33378127
182	0xbc4536e0	-0.012037009
183	0x3e7cee41	0.24700262
184	0xbe884ea8	-0.2662251
185	0xbe2b6c8b	-0.16740625
186	0x3db60f52	0.08889641
187	0xbc6941fc	-0.014236923
188	0x3f496d62	0.7868253
189	0x3fb2af5c	1.3959765
190	0xbe476a70	-0.19474196
191	0xbe85fda1	-0.26170066
192	0x3d73a210	0.059480727
193	0x3d162242	0.036653765
194	0xbe501fa6	-0.20324573
195	0xbdff2174	-0.124575526
196	0x3e29e77a	0.16592208
197	0x3ad51aa0	0.0016258545
198	0x3fab4852	1.3381445
199	0xbf2f9caa	-0.68598425
200	0xbd3ec2e1	-0.04657257
201	0xbdccf4c3	-0.10007622
202	0xbc9385a9	-0.01800807
203	0x3d931c51	0.07183135
204	0xbe1dbdef	-0.15404485
205	0xbdb56ba0	-0.088584185
206	0x3dea0038	0.11425823
207	0x3c8dd102	0.017311577
208	0x3f847c86	1.0350502
209	0xbfab3b36	-1.3377445
210	0x3e3b4044	0.18286234
211	0x3ed3f98e	0.41401333
212	0xbd20eae0	-0.039286494
213	0x3eea14c4	0.45718968
214	0xbda781b0	-0.08179033
215	0x3d91dacc	0.0712181
216	0x3e08021c	0.13282055
217	0xbde5ee22	-0.11227061
218	0xbf8079f8	-1.0037222
219	0xbf814a22	-1.0100749
220	0x3da03acf	0.07823717
221	0x3bb0ee40	0.0053994954
222	0xbd28e425	-0.0412332
223	0x3ed2f650	0.41203547
224	0xbe1d3fc0	-0.1535635
225	0x3d4f212e	0.050568752
226	0x3e00e65a	0.12587872
227	0xbdec0cda	-0.11525889
228	0xbf3a812a	-0.7285334
229	0xbfa45810	-1.2839375
230	0x3e65c2de	0.22437617
231	0xbde561a8	-0.11200267
232	0x3d5480b0	0.05188054
233	0x3ed10f8e	0.4083218
234	0xbd5fc330	-0.054629505
235	0xbe5c3542	-0.21504691
236	0x3e00b922	0.12570623
237	0x3d8ad27a	0.067784265
238	0xbf832465	-1.0245482
239	0x3f5906b7	0.8477587
240	0x3db5dd37	0.08880084
241	0xbe87123b	-0.26381096
242	0xbd977566	-0.07395439
243	0x3ec8dcfa	0.39231092
244	0xbe3d5731	-0.18490292
245	0xbe62898c	-0.22122782
246	0x3da2263c	0.07917449
247	0x3d4cbdb3	0.0499856
248	0xbf2f3a7a	-0.68448603
249	0x3fa6fdf4	1.304625
250	0xbe617112	-0.22015789
251	0xbf604901	-0.87611395
252	0x3d965002	0.07339479
253	0x3e6134c1	0.2199278
254	0xbdf0a732	-0.1175064
255	0xbe329bfc	-0.17442316
