weight/actions_history_2025-03-24_21-55-11.npy (npy, 80128 bytes, 1 tensors)

array f4 [500, 4, 10]
0	0xbcbaef72	-0.022819255
1	0xbdd58873	-0.10426416
2	0xbd6fd9fe	-0.058557503
3	0xbc232b5a	-0.009959066
4	0xbe331ca0	-0.17491388
5	0x3e7040b9	0.2346219
6	0x3d08bf60	0.033385634
7	0x3df90af6	0.12160294
8	0x3ed9f863	0.42572317
9	0xbbf92300	-0.0076030493
10	0xbd50632a	-0.05087582
11	0xbe115994	-0.14194328
12	0xbe1acd75	-0.15117438
13	0xbcbcbe64	-0.023040004
14	0xbe2028fd	-0.15640636
15	0x3e8ec525	0.27884784
16	0x3a7fdd40	0.0009760447
17	0x3de04f60	0.109526396
18	0x3ec2a70a	0.38018066
19	0x3ca74a04	0.020421036
20	0xbc7709e6	-0.015078044
21	0xbe347534	-0.17622834
22	0xbdc479f1	-0.09593571
23	0xbd652c06	-0.055950187
24	0xbe3814ee	-0.17976734
25	0x3e258712	0.16164806
26	0x3da05d70	0.07830322
27	0x3df674e2	0.120340124
28	0x3e8bbcca	0.27292472
29	0xbc7c825c	-0.0154119395
30	0x3d25e196	0.04049834
31	0xbe335f58	-0.1751684
32	0x3c28071c	0.010255601
33	0xbcaabb8a	-0.020841379
34	0xbe433232	-0.19062117
35	0x3e2a1631	0.16610028
36	0xb9e26400	-0.00043180585
37	0x3e0a092a	0.13480058
38	0x3ecb6aff	0.3973007
39	0xbd86d4d3	-0.06583562
40	0x3a62de20	0.0008654315
41	0xbebb1676	-0.36540574
42	0xbe076e3f	-0.1322565
43	0x3c9a51f4	0.018837906
44	0xbe40d7ae	-0.18832275
45	0x3ec2af3b	0.38024315
46	0xbddad776	-0.10685627
47	0x3e854f68	0.26037145
48	0x3f18a6b4	0.5962937
49	0x3dd3bb0f	0.10338413
50	0xbc9320ba	-0.017959941
51	0xbef385bf	-0.47562978
52	0xbe240c67	-0.16020356
53	0xbcdf0484	-0.027223833
54	0xbe682183	-0.22669034
55	0x3ebeffa2	0.37304407
56	0xbda0ef33	-0.07858124
57	0x3e8f1e6e	0.27952904
58	0x3f1b971c	0.6077745
59	0x3c800918	0.015629336
60	0x3cbf16b8	0.023326263
61	0xbf05de40	-0.5229225
62	0xbe318699	-0.17336501
63	0xbc2ba9ba	-0.010477478
64	0xbe3ee2f5	-0.18641265
65	0x3ead84fd	0.33890525
66	0x3b845078	0.004037913
67	0x3e2a42e7	0.16627084
68	0x3f1943aa	0.5986887
69	0xbc8eaf10	-0.01741746
70	0x3dfb0343	0.122564815
71	0xbf061ec6	-0.52390707
72	0xbe25ff43	-0.16210656
73	0x3d3a1370	0.045428693
74	0xbe39dc34	-0.18150407
75	0x3ec9af9e	0.39391798
76	0xbde87408	-0.11350256
77	0x3e4c7d60	0.19969702
78	0x3ec8c064	0.39209282
79	0x3d45a1c0	0.04824996
80	0x3d0980e5	0.03357019
81	0xbf2e3738	-0.6805301
82	0xbdce3b9c	-0.10069963
83	0x3d9897d7	0.07450836
84	0xbe09ff6a	-0.13476339
85	0x3eca6c6f	0.39535853
86	0xbe1d494f	-0.15359996
87	0x3ea6ef26	0.3260433
88	0x3f16ea63	0.58951396
89	0x3dd67265	0.10471038
90	0x3cee1ebc	0.02906739
91	0xbf5b816d	-0.85744363
92	0xbd7de812	-0.061988898
93	0xbd56a2a8	-0.052401215
94	0xbdf2ba28	-0.11851913
95	0x3eb5cad0	0.35506296
96	0xbdaf9010	-0.085723996
97	0x3ea541b6	0.32276696
98	0x3f60cdb6	0.8781389
99	0x3d91a83f	0.071121685
100	0x3dbf5c13	0.09343734
101	0xbf620d79	-0.8830181
102	0xbde86fb8	-0.11349434
103	0xbc28f41e	-0.010312108
104	0xbdb37538	-0.08762592
105	0x3ec62d12	0.3870626
106	0xbda0fef0	-0.078611255
107	0x3e85e0ce	0.26148075
108	0x3f15d4c8	0.58527803
109	0x3d8738e6	0.066026494
110	0x3e57cadc	0.21073478
111	0xbf5a75db	-0.85336083
112	0xbdaa70a6	-0.08322267
113	0x3db2f056	0.08737247
114	0xbdbd9b33	-0.092581175
115	0x3ecdfea0	0.40233326
116	0xbdb2d3ca	-0.08731802
117	0x3e94a288	0.29030252
118	0x3eeacdc6	0.45860118
119	0x3d99bb01	0.07506371
120	0x3de76ef5	0.1130046
121	0xbf67b3ae	-0.90508544
122	0xbe1deec6	-0.15423116
123	0x3d4d5573	0.05013032
124	0xbd590b7c	-0.052989468
125	0x3ee97bb1	0.45602182
126	0xbdaae460	-0.0834434
127	0x3e938af6	0.28816956
128	0x3ebf7bad	0.37399045
129	0x3e3c12cc	0.18366545
130	0x3da60736	0.08106844
131	0xbf9401b1	-1.1563016
132	0xbdc307c1	-0.09522963
133	0xbca90a52	-0.020634804
134	0xbc33b6d0	-0.010968879
135	0x3ecfb7f5	0.40570036
136	0xbe363ed1	-0.177974
137	0x3e8d689a	0.27618867
138	0x3f2e4bd4	0.68084455
139	0x3e1565ca	0.1458961
140	0x3e24a9e6	0.16080436
141	0xbf929617	-1.1452054
142	0xbe368d11	-0.1782725
143	0x3cc1ea16	0.023671191
144	0x3c9a0498	0.018801019
145	0x3eed1e7f	0.4631233
146	0xbd130ba6	-0.03589978
147	0x3e8a15fa	0.26969892
148	0x3f0d2382	0.55132306
149	0x3e599552	0.21248367
150	0x3e9e58df	0.30927178
151	0xbf95e99d	-1.1711918
152	0xbdcfb752	-0.101423874
153	0x3d229fd4	0.039703205
154	0xbca92510	-0.020647556
155	0x3edfbcfa	0.43698865
156	0xbd253e88	-0.040342838
157	0x3e5da8b4	0.21646386
158	0x3f13e961	0.5777798
159	0x3e2a010c	0.16601962
160	0x3e29f5e6	0.16597709
161	0xbf9b9b2f	-1.2156733
162	0xbd324bb8	-0.043529242
163	0x39904a80	0.00027521327
164	0xbd55c264	-0.05218734
165	0x3ed411b8	0.41419768
166	0xbbec3e80	-0.007209599
167	0x3e310285	0.17286117
168	0x3eb3aeff	0.3509445
169	0x3cea4748	0.028598443
170	0x3e0d3ca0	0.13792658
171	0xbfb750a0	-1.432148
172	0xbc7bc128	-0.015365876
173	0xbd0f9021	-0.03504956
174	0x3cc3fbec	0.023923837
175	0x3eab3d5b	0.33445248
176	0xbd152286	-0.036409877
177	0x3e691e37	0.22765432
178	0x3efeb040	0.49743843
179	0x3da950bf	0.08267354
180	0x3e5a0e82	0.21294597
181	0xbfb8e19c	-1.444385
182	0xbe0509ed	-0.12992068
183	0xbcae88c8	-0.021305457
184	0xbd17ca94	-0.037058428
185	0x3eb330a3	0.34998044
186	0x3d816e17	0.06319826
187	0x3dc15058	0.094391525
188	0x3f0d39ee	0.5516652
189	0x3c129bc8	0.008948274
190	0x3ebbf701	0.36711887
191	0xbfb8af10	-1.4428425
192	0xbd135c3e	-0.03597664
193	0xbd3c4070	-0.04595989
194	0xbd07ddc6	-0.033170484
195	0x3eceea6d	0.40413228
196	0x3dd06e80	0.10177326
197	0x3d39abd8	0.0453299
198	0x3f0cd23a	0.5500828
199	0x3d4adc62	0.04952658
200	0x3e6bbb32	0.23020628
201	0xbfbf0c69	-1.4925662
202	0xbd47a7ca	-0.048744
203	0x3c8b0b4c	0.01697316
204	0xbd87c4d2	-0.06629337
205	0x3ebc344f	0.36758658
206	0x3d99a1c0	0.075015545
207	0x3d884a27	0.066547684
208	0x3e8cb777	0.27483723
209	0xbc086c78	-0.008326642
210	0x3e5ef6b8	0.21773803
211	0xbfd5a316	-1.6690395
212	0xbd130bb2	-0.035899825
213	0x3c9a2eb2	0.018821094
214	0x3aa49800	0.0012557507
215	0x3ebfd99d	0.37470713
216	0xbdee4d76	-0.11635868
217	0x3e1ebbba	0.155013
218	0x3e77bd5a	0.24193326
219	0x3df957c3	0.12174942
220	0x3e95e4d0	0.29276133
221	0xbfe0d0af	-1.7563685
222	0xbd79e004	-0.061004654
223	0xbd6f61dd	-0.05844294
224	0xbd302b72	-0.043010183
225	0x3ea41349	0.32045963
226	0x3de4713f	0.111544125
227	0x3c81ead0	0.015859038
228	0x3ee8bf04	0.45458233
229	0x3d3ceb44	0.046122804
230	0x3ee90380	0.45510483
231	0xbfdec15e	-1.7402761
232	0xbc0c5484	-0.008565072
233	0x3c64bc7d	0.013960955
234	0xbb7ae4a0	-0.0038283244
235	0x3ecb997f	0.39765546
236	0x3d60ed62	0.054913886
237	0x3d9dc662	0.07703854
238	0x3eec5a32	0.46162564
239	0x3dc01c03	0.09380343
240	0x3e90104a	0.28137428
241	0xbfdcbd5a	-1.7245286
242	0xbde26810	-0.110550046
243	0x3d0e7706	0.03478148
244	0xbc769798	-0.015050791
245	0x3ed43e6f	0.41453883
246	0x3dc96a6c	0.098347515
247	0x3d8d1204	0.06888202
248	0x3e4d92fe	0.20075604
249	0x3dae9ad7	0.08525627
250	0x3e919523	0.28434095
251	0xbfee7bd2	-1.8631537
252	0xbd58aaa4	-0.05289711
253	0x3d2248df	0.039620277
254	0xbc564238	-0.013077311
255	0x3ec692a2	0.38783747
