weight/actions_history_2025-03-25_19-45-58.npy (npy, 20128 bytes, 1 tensors)

array f4 [500, 10]
0	0x3ced4245	0.028962264
1	0xbdcac745	-0.09901289
2	0xbe0710c3	-0.13189988
3	0xbc5dbb68	-0.013533451
4	0xbdd761ba	-0.10516687
5	0x3e2b6a15	0.16739686
6	0x3bd41728	0.006472487
7	0xbe3fa69e	-0.18715903
8	0x3eae7475	0.34073225
9	0x3e5a4b5a	0.21317807
10	0x3d7870e4	0.060654536
11	0xbe39da56	-0.18149695
12	0xbe8b4367	-0.2719986
13	0x3e0fb0fc	0.14032358
14	0xbddca734	-0.10774079
15	0x3e4aea6b	0.19815986
16	0xbd28b62b	-0.041189354
17	0xbe8ce647	-0.27519438
18	0x3e9be4bf	0.30447957
19	0x3e161a30	0.14658427
20	0x3dbedf6e	0.093199596
21	0xbe8a1a9a	-0.2697342
22	0xbe87ec50	-0.2654748
23	0x3e9889a5	0.29792514
24	0xbd4ef1a4	-0.050523415
25	0x3e951b5d	0.2912244
26	0x3c4ea054	0.012611467
27	0xbec246bb	-0.37944588
28	0x3eb40bf0	0.35165358
29	0x3dd0ecde	0.10201429
30	0x3e042c0a	0.12907425
31	0xbec9cfc0	-0.39416313
32	0xbebc650c	-0.36795843
33	0x3f02bca9	0.5106912
34	0x3e179faf	0.14807008
35	0x3e9cbfbd	0.30615035
36	0x3e44a9fc	0.19205469
37	0xbf06375f	-0.5242824
38	0x3eca4270	0.39503813
39	0x3e215882	0.1575642
40	0x3e79e6eb	0.24404494
41	0xbedd1dde	-0.4318685
42	0xbef762e2	-0.4831763
43	0x3f408722	0.75206196
44	0x3e2a75b8	0.16646469
45	0x3e8f7b85	0.28023925
46	0x3e9c9669	0.30583504
47	0xbf332e38	-0.699924
48	0x3e892795	0.2678801
49	0x3d80abcc	0.06282768
50	0x3ebb70ff	0.36609647
51	0xbefc1bf8	-0.49240088
52	0xbf02be56	-0.5107168
53	0x3f5f965e	0.8733882
54	0x3e1c8a70	0.15287185
55	0x3e97417c	0.29542148
56	0x3eec321a	0.46131974
57	0xbf5328b0	-0.8248396
58	0x3e5c6cb4	0.21525842
59	0x3da776aa	0.0817693
60	0x3f08ddf3	0.5346367
61	0xbf0a6fab	-0.5407664
62	0xbf23dfc1	-0.64013296
63	0x3f90f50e	1.1324785
64	0x3e4f4fc0	0.20245266
65	0x3e869fbc	0.26293743
66	0x3f0d70e7	0.552504
67	0xbf6aee5d	-0.91769964
68	0x3e6c5672	0.23079851
69	0x3c2dc20c	0.010605346
70	0x3f2fd8e5	0.6869033
71	0xbf11330a	-0.56718504
72	0xbf091be6	-0.53558195
73	0x3f7f98ec	0.99842715
74	0x3e10e368	0.14149249
75	0x3e769eb7	0.24083982
76	0x3f03dd13	0.5150921
77	0xbf825fda	-1.0185502
78	0x3dab39a7	0.08360606
79	0xbc3014c4	-0.010747138
80	0x3f4efe08	0.8085637
81	0xbf190253	-0.5976917
82	0xbeceef54	-0.40416968
83	0x3f513b57	0.8173117
84	0x3dff4dee	0.12466036
85	0x3e7d86f7	0.24758516
86	0x3eff1c9c	0.49826515
87	0xbf7e6e31	-0.9938689
88	0x3dd24b15	0.10268227
89	0xbd3ad0ed	-0.045609403
90	0x3f68004f	0.9062547
91	0xbf16dcf8	-0.5893092
92	0xbed81e7c	-0.42210758
93	0x3eef718e	0.46766323
94	0x3c1b45c0	0.009477079
95	0x3e96f726	0.29485434
96	0x3ec715ef	0.38883922
97	0xbf7fe02b	-0.9995143
98	0x3d21cc66	0.03950157
99	0x3d52f7d7	0.05150589
100	0x3f69f082	0.9138261
101	0xbf153a65	-0.5829223
102	0xbee0f3ba	-0.4393595
103	0x3e398756	0.18118033
104	0xbe229b2e	-0.15879509
105	0x3e84ee27	0.25962946
106	0x3e896f1b	0.2684258
107	0xbf5f9bba	-0.87346995
108	0x3de07543	0.10959866
109	0x3d10b9cf	0.03533345
110	0x3f54f839	0.8319126
111	0xbf095032	-0.53637993
112	0xbec76eb8	-0.3895166
113	0x3e22d03a	0.15899745
114	0xbe7a1506	-0.24422082
115	0x3e7beb01	0.24601366
116	0x3dd96568	0.10615045
117	0xbf17dcc4	-0.59321237
118	0x3e462792	0.19351032
119	0xbd41feb1	-0.047362033
120	0x3f4f74cf	0.8103761
121	0xbf02db85	-0.5111621
122	0xbe84cc62	-0.25937182
123	0x3d85d5ae	0.06534897
124	0xbe984870	-0.29742765
125	0x3ea20324	0.3164302
126	0x3cd0f5fa	0.025507916
127	0xbec61efd	-0.38695517
128	0x3e519c0c	0.20469683
129	0xbd68b96d	-0.05681746
130	0x3f2bb183	0.67067736
131	0xbf279876	-0.6546701
132	0xbeb43d16	-0.35202855
133	0x3ec8ebe0	0.39242458
134	0xbdb69a38	-0.08916134
135	0x3eb5eb24	0.3553096
136	0x3df8f136	0.12155382
137	0xbed0baef	-0.4076762
138	0x3e3a0234	0.18164903
139	0x3bb2b898	0.005454134
140	0x3f2cc265	0.6748412
141	0xbf3cf2b1	-0.7380782
142	0xbee02800	-0.43780518
143	0x3f02fae0	0.51164055
144	0xbd904d00	-0.070459366
145	0x3e896bd2	0.26840073
146	0x3e9746f9	0.29546335
147	0xbf088940	-0.53334427
148	0x3e63b442	0.22236732
149	0x3931a500	0.00016941503
150	0x3f4316a9	0.7620645
151	0xbf548a33	-0.83023375
152	0xbf362386	-0.71147954
153	0x3f553af0	0.83293056
154	0xbe09029a	-0.13379899
155	0x3e73378d	0.2375166
156	0x3ecc12b1	0.3985801
157	0xbf212a3e	-0.6295508
158	0xbc375cc8	-0.011191554
159	0xbd165671	-0.03670353
160	0x3f6da429	0.92828614
161	0xbf652a62	-0.89517796
162	0xbf33e225	-0.70266944
163	0x3f84134a	1.0318387
164	0xbda4fa0d	-0.08055506
165	0x3e471d2f	0.19444726
166	0x3f28343c	0.65704703
167	0xbf492bab	-0.7858226
168	0x3dfd0adf	0.12355589
169	0xbd35c019	-0.04437265
170	0x3f894a64	1.0725827
171	0xbf603ded	-0.8759449
172	0xbf437101	-0.76344305
173	0x3f974b54	1.1819863
174	0xbd05882a	-0.03260056
175	0x3e186689	0.14882864
176	0x3f35331d	0.7078112
177	0xbf6898a5	-0.9085792
178	0x3e46b382	0.19404414
179	0xbd03b639	-0.032156203
180	0x3f9ae03b	1.209968
181	0xbf598115	-0.8496259
182	0xbf10f861	-0.56628996
183	0x3f68d3d7	0.9094824
184	0xbddcf274	-0.10788432
185	0x3e1fa691	0.15590884
186	0x3f1768d3	0.59144324
187	0xbf754924	-0.9581473
188	0x3d9a6d5d	0.07540391
189	0xbdf5c4b8	-0.12000412
190	0x3fa34838	1.2756414
191	0xbf6220c7	-0.88331264
192	0xbf10245e	-0.5630549
193	0x3f1a5440	0.60284805
194	0xbde03f81	-0.109496124
195	0x3e5f9b4b	0.21836583
196	0x3ee5c91f	0.44880006
197	0xbf81fff8	-1.015624
198	0x3d12ffe2	0.03588856
199	0xbbfb77e8	-0.007674206
200	0x3f9aa886	1.2082679
201	0xbf7065de	-0.93905437
202	0xbf218b81	-0.6310349
203	0x3ec02d77	0.37534687
204	0xbe2fc490	-0.17164826
205	0x3e6a30f3	0.22870235
206	0x3eaa363a	0.33244497
207	0xbf7da724	-0.9908316
208	0x3e024f68	0.12725604
209	0xbc20c9e4	-0.0098137595
210	0x3f9041df	1.1270102
211	0xbf6c78f9	-0.9237209
212	0xbee9cff8	-0.4566648
213	0x3e5192aa	0.20466104
214	0xbe42dc82	-0.1902943
215	0x3e259088	0.16168416
216	0x3e5baab6	0.2145184
217	0xbf4dd42d	-0.8040188
218	0x3e3165cf	0.17323993
219	0x3ce3fbce	0.02783003
220	0x3f8e8108	1.1133127
221	0xbf69d118	-0.91334677
222	0xbe699caf	-0.22813676
223	0x3bfc691e	0.0077029606
224	0xbe542f4e	-0.2072117
225	0x3e612bd7	0.2198938
226	0x3e05be53	0.13060884
227	0xbf1a21a9	-0.6020761
228	0x3dc7694d	0.097368814
229	0xbc871282	-0.016488317
230	0x3f803361	1.001568
231	0xbf7ef4ab	-0.99592084
232	0xbe38721f	-0.18012284
233	0x3d106452	0.035251923
234	0xbde8470d	-0.11341677
235	0x3e9c82c8	0.30568528
236	0x3c19a124	0.009376798
237	0xbf081eec	-0.53172183
238	0x3e32f3b3	0.17475776
239	0x3c5afe0c	0.013366234
240	0x3f6478f8	0.89247084
241	0xbf848937	-1.0354375
242	0xbea8ad7e	-0.32944864
243	0x3e9589fc	0.29206836
244	0xbd7b71f0	-0.061387956
245	0x3e8dd83f	0.27704045
246	0x3e665e47	0.22496901
247	0xbf191bca	-0.5980803
248	0x3da240cf	0.079225175
249	0xbd827464	-0.06369856
250	0x3f53016a	0.8242403
251	0xbf87022f	-1.0547541
252	0xbf030226	-0.51175153
253	0x3f03db22	0.51506245
254	0xbd8cf81c	-0.068832606
255	0x3e777a9f	0.2416787
