weight/actions_history_2025-03-24_21-53-01.npy (npy, 80128 bytes, 1 tensors)

array f4 [500, 4, 10]
00000000: 266f 4d3d 5a8e 00be fb28 53bd 956b 873c
00000010: b8f6 51be d453 5f3e b675 9f3d e210 433d
00000020: 10fb 3d3e 5c94 63bd e083 8a3a ca49 ccbd
00000030: aced 19be c09e 803d 53e9 5dbe 6a35 493e
00000040: 3fa6 ae3c 0c31 623d f4f3 593e f989 c43d
00000050: c48f 43bc 5e58 09be a64c 85bd ae3c a63c
00000060: 58c5 58be 79f9 133e 2045 4b3c b8d7 f03c
00000070: fbc5 713e acd0 fe3c 15a1 ee3c 904c 10be
00000080: 70d0 693b 69fa e53c aed7 36be 9221 663e
00000090: 4243 c33d 9a74 d63d 89e5 ce3e 85a3 debd
000000a0: db10 d33d 9508 d0be 5af3 c2bd bdb8 cebb
000000b0: 79cf 46be b1b8 af3e 082a 623d 1fcf 453e
000000c0: 4664 103f b2c1 3bbd d797 bdbc 7074 9abe
000000d0: 7b03 47bd a575 9f3c 6698 32be 903e 9f3e
000000e0: d0c8 473d 1361 0c3e 3902 f03e 2036 083d
000000f0: e05f edba 0aac c9be ba9d 453d 556a f7bc
00000100: 7084 52be beaf 853e a026 203d 3474 1a3e
00000110: da83 2b3f c643 773d 70ed 2d3d f50e d7be
00000120: f6f7 99bd 8efb bc3d 103b 33be 0744 a23e
00000130: e95e d0bd 70d7 7a3e a27f f73e f9cc 993d
00000140: f4e5 163e 6e28 36bf 650c 12be 322c b23d
00000150: 7cc9 3ebe 34c0 973e 9317 d0bd c58f 8a3e
00000160: 3c8b ab3e a743 b13d 7c62 12bd 8793 0ebf
00000170: 2e6d 28bd bfdb a13d 92c6 03be 6dd9 ac3e
00000180: 4234 a3bd e4d5 8e3e 976e cd3e f48f 5e3e
00000190: 2d00 e63c dd1e 29bf b04f ebbc 15da 7a3d
000001a0: 9745 0bbe e76c 953e 9053 51be d96a 9a3e
000001b0: a72b b33e a2aa 2e3e 3635 593d 8b31 2abf
000001c0: 1a60 25bd 9644 f63d f4ff 35be 92bb 943e
000001d0: 7bc4 ecbd 92a6 553e 2d10 913e 3e74 073d
000001e0: 9715 5a3e 1f56 77bf c801 823c 9459 163c
000001f0: 87d9 07be 6cd1 a83e 32fd 423e bbe2 033e
00000200: 719c 103f 8fbc 20be 3a10 2bbd 87ea 4cbf
00000210: b01c 9fbd 4312 e73d 80c6 c1bd dfa2 ab3e
00000220: f5fc 8fbd ea5f 5a3e baeb b03e 7151 833d
00000230: 7213 953d 8d51 60bf c8c1 3f3d 2e76 be3d
00000240: 798a e2bd cfb8 9a3e c05c 2ebb d91c 313e
00000250: 541c bf3e 2217 95bd 9af0 7c3d 7fac 67bf
00000260: 6e32 443d 2459 813d b8d4 17be 4787 b13e
00000270: ede4 823d c8c0 053e dca9 023f 8a38 bcbd
00000280: 9e62 613e 9587 97bf b012 6e3c 5d11 67bd
00000290: 5c2e 00be 8856 9f3e 1872 723e f07d 3c3d
000002a0: 134c d13e f188 c1be 5c2a 343d cfe3 76bf
000002b0: 022b 823d 05d8 4c3d de3c 1bbe 90a2 b63e
000002c0: 1c8c be3d b8af e53d 7b2c 053f e458 62be
000002d0: b772 243e 8f14 83bf e73d 9e3d b7e8 fb3b
000002e0: fe12 fabd 0b1b 9f3e 35e5 ed3d 5937 103e
000002f0: 5ced 9a3e 64dd 50be ff6a dd3d c8c2 87bf
00000300: a000 503d ecb2 b13d 3524 07be 90b0 ae3e
00000310: 36e2 8b3d 0888 dd3d 4c54 9c3e 8add 56be
00000320: be3a 833e 9e36 a9bf 8909 f8bd c0c2 a43d
00000330: 18d8 77bc c415 bb3e acf0 43bd 9ea5 603e
00000340: 58dc 4abd 1dc4 8dbd 5c14 8b3d 31a2 95bf
00000350: 7829 593c d136 673d 5564 13be 9967 ae3e
00000360: 24a7 5e3c 0e99 a23d 1e27 993e 280f 36be
00000370: 65e2 483e 0f53 9ebf c85d 143d 55ca 4e3d
00000380: b068 57bd 6e35 a43e a60c a23c 9224 613e
00000390: c42c 4b3e 730a c0bd cd82 333e 5627 a2bf
000003a0: b075 323d bcf2 923d edab a1bd 4e56 bf3e
000003b0: e09b f3ba 7f2e 0d3e 0ea6 853e 56b1 aebd
000003c0: 7458 ae3e 0f9f bcbf 46b5 48be e30e 553e
000003d0: 206d a23b 89b9 b73e b6ae 023d b59f 203e
000003e0: 8c1f 77bd b627 053d 5b24 893d 72f4 adbf
000003f0: e4b6 b1bd e9b1 073e cd1e 25bd 8eee b43e
0.050154828 -0.12554303 -0.051552754 0.016530791 -0.20504272 0.21809322 0.077861235 0.047623523
0.18552804 -0.05556141 0.0010567866 -0.09975012 -0.15032071 0.06280279 -0.21671037 0.19649282
0.021319507 0.055222556 0.21284467 0.09596629 -0.011936132 -0.13412616 -0.0650876 0.020292606
-0.2116903 0.14450635 0.012406617 0.029399738 0.2361068 0.031105362 0.029129544 -0.14091706
0.0035677217 0.028073506 -0.17855713 0.22473744 0.09534313 0.10471459 0.40409496 -0.108710326
0.10305949 -0.40631548 -0.09519072 -0.0063086436 -0.19415082 0.34320596 0.055215865 0.19317292
0.56403005 -0.04583902 -0.023143692 -0.3016696 -0.048587304 0.019465277 -0.17440948 0.3110242
0.048775494 0.13708906 0.46876696 0.033254743 -0.0018110238 -0.39389068 0.048246123 -0.03020207
-0.20558333 0.26110643 0.039099336 0.1508339 0.66998065 0.06036737 0.042462766 -0.420036
-0.07517998 0.09227668 -0.17503 0.31692526 -0.10174353 0.24496245 0.48339564 0.075097986
0.14736158 -0.7115544 -0.1426254 0.08699836 -0.18631548 0.29638827 -0.101607464 0.27062812
0.33504665 0.08655482 -0.035738453 -0.5569386 -0.041119747 0.07903241 -0.12868717 0.33759633
-0.07968952 0.2789756 0.40123436 0.21734601 0.028076256 -0.6606272 -0.028724521 0.061243135
-0.13600765 0.29184648 -0.20442033 0.30159643 0.34994242 0.17057279 0.05302926 -0.66481847
-0.040374853 0.120248005 -0.1777342 0.29049355 -0.11560913 0.20864323 0.28332654 0.03306984
0.21297298 -0.96615785 0.01586999 0.0091766305 -0.13266574 0.32972276 0.19041899 0.1287946
0.5648871 -0.1569693 -0.04176352 -0.8004536 -0.077691436 0.1128278 -0.09461689 0.33522698
-0.070306696 0.21325651 0.34554845 0.06412018 0.072790995 -0.87624437 0.046815664 0.09299885
-0.11061568 0.30219123 -0.0026605576 0.17296161 0.373263 -0.07279803 0.061752893 -0.90497583
0.047899656 0.0631583 -0.1482724 0.3467352 0.063913204 0.13061821 0.51040435 -0.091904715
0.22010276 -1.1838251 0.014530823 -0.056413043 -0.12517685 0.31120706 0.23676336 0.04601854
0.40878353 -0.3779979 0.04398571 -0.9644136 0.06355859 0.0500107 -0.15159938 0.356709
0.093040675 0.11215156 0.52020997 -0.22104222 0.16059385 -1.0240649 0.07726651 0.007687654
-0.12210654 0.3107532 0.116159834 0.14083613 0.30259216 -0.20396954 0.108114235 -1.0606318
0.050781846 0.08676705 -0.13197406 0.34119081 0.06830256 0.108169615 0.30533063 -0.20982948
0.25630754 -1.3219793 -0.12111194 0.08044958 -0.015127204 0.36540043 -0.047836944 0.21938178
-0.049526542 -0.06922171 0.067909926 -1.1690122 0.013254516 0.05644876 -0.14393742 0.34063414
0.013589654 0.07939349 0.29912657 -0.17779219 0.19617613 -1.2369097 0.03622225 0.050485928
-0.052590072 0.32072014 0.019781422 0.21986607 0.19841295 -0.09376993 0.17530365 -1.2668254
0.043569267 0.07175204 -0.0789412 0.37370533 -0.0018585883 0.13787268 0.26103252 -0.08529918
0.3405186 -1.4736041 -0.196004 0.2080646 0.0049568564 0.3588374 0.0319049 0.15685923
-0.06033282 0.032508574 0.066963874 -1.3590224 -0.08677462 0.13251461 -0.040312577 0.35338253
