weight/actions_history_2025-03-23_18-55-16.npy (npy, 80128 bytes, 1 tensors)

array f4 [500, 4, 10]
-0.02698432 -0.016116783 -0.13232772 0.036087386 -0.014117584 -0.048573673 -0.027495567 0.27419353
-0.0408447 0.06908798 -0.04254134 -0.04730694 -0.123831294 0.082518 -0.006397128 -0.034462042
-0.048844364 0.19639273 -0.06629704 0.06009646 -0.070520625 -0.084116295 -0.058839206 0.0726133
-0.03313832 -0.018953845 -0.20431472 0.12900308 0.072255075 -0.041865565 -0.04389207 -0.027499486
-0.07616039 0.017237097 -0.04879272 -0.02335316 -0.11162642 0.20223144 0.038383543 0.036153268
-0.024251007 -0.012654259 0.013012054 -0.14884889 -0.093841955 -0.011971526 -0.15512046 0.27479228
0.017687123 -0.017502744 -0.095212415 -0.06705201 -0.12323592 0.007996716 0.0064989775 0.005439874
-0.018055376 0.060041353 0.054859117 -0.021165434 -0.041435063 -0.017419867 0.15481493 -0.22517744
-0.10609138 0.12834781 -0.3376124 0.08884741 -0.10294162 0.061490353 -0.056514055 -0.014410623
-0.05755013 -0.06717215 -0.0035573095 -0.034069404 -0.068109185 0.07937175 0.02064832 -0.024851207
-0.032549366 0.020511637 -0.023430694 -0.08890356 -0.03454739 0.027154699 -0.14481996 -0.06514341
0.14203967 -0.16140036 -0.13456611 -0.115408115 -0.17937736 0.051683843 0.02100595 0.05912918
0.117652774 -0.17016955 0.08560735 0.0046216063 -0.043521225 0.09041294 0.13032293 -0.14350551
-0.043332934 0.16616192 -0.35880142 -0.17033057 0.2737345 -0.21115324 -0.058329463 -0.011114766
-0.077775575 -0.03458628 0.0023569614 0.0059951395 0.07426022 -0.07403415 0.113243416 -0.02002174
-0.04308109 0.018365204 -0.007723619 -0.12581176 -0.015451066 0.14386204 0.12682447 -0.016054405
0.03829299 0.20613587 -0.123144045 -0.20413081 -0.23923172 0.065238744 0.050639488 0.09693657
0.28527457 -0.230765 0.079160884 0.14090785 -0.054100007 0.15180379 0.12366899 -0.23688424
-0.018806092 0.26817417 0.20441571 -0.13503477 0.03560146 0.27294558 -0.058886066 -0.019227106
-0.1316101 -0.031197384 0.063854404 0.032856397 0.18369204 -0.05424224 0.076009475 0.040877063
-0.049151734 0.027630705 -0.0733391 -0.18633139 -0.10170084 0.060676917 0.053075265 0.20280075
0.19856189 -0.07791008 -0.119510874 -0.14508337 -0.23214291 -0.059260666 -0.03845995 0.036505178
0.08577086 0.15724109 0.21071263 0.112597376 -0.028403565 0.21980073 -0.050495494 -0.39444026
-0.28682357 0.0983848 0.28749293 0.37781993 0.30872786 0.015379708 -0.05088459 -0.013903097
-0.13798198 -0.0648907 -0.012948841 -0.0032380857 0.012323491 0.07532284 0.085571066 -0.056586467
-0.042063758 0.010137966 -0.0942732 -0.21508682 -0.13245589 0.049420495 0.031343114 0.12139988
-0.08643806 0.09762345 -0.13242945 -0.11733153 -0.25286254 -0.17667837 -0.04464312 0.018528044
0.22636509 0.29656017 -0.096860096 0.15040451 -0.0132192895 0.18141267 -0.17628019 -0.5412284
-0.42137742 0.052066416 0.41439965 0.5652379 -0.063349605 0.24066436 -0.04464613 -0.014023558
-0.12062105 -0.115960374 -0.034702644 -0.020001795 0.04870892 0.19704469 -0.07895451 0.1665847
-0.04874353 -0.0012005717 -0.09380456 -0.2819673 -0.09615174 0.09459918 0.15572456 0.22594328
0.11804702 0.06440139 -0.1337565 -0.12917536 -0.27149662 -0.2934033 -0.00066167116 0.11151988
00000000: 380e ddbc 5807 84bc eb80 07be 5ed0 133d
00000010: 704d 67bc 30f5 46bd 623e e1bc 1863 8c3e
00000020: c64c 27bd 007e 8d3d d43f 2ebd ecc4 41bd
00000030: 439b fdbd 32ff a83d 009f d1bb 1228 0dbd
00000040: 0711 48bd 2d1b 493e bec6 87bd b527 763d
00000050: 1e6d 90bd 2a45 acbd 6101 71bd 48b6 943d
00000060: 0cbc 07bd 1845 9bbc e137 51be 6219 043e
00000070: 78fa 933d 3a7b 2bbd 2cc8 33bd 9a46 e1bc
00000080: fbf9 9bbd d034 8d3c e0da 47bd 204f bfbc
00000090: 649c e4bd c215 4f3e 1038 1d3d 7315 143d
000000a0: 0caa c6bc cf53 4fbc 8330 553c d86b 18be
000000b0: 3630 c0bd 3824 44bc e6d7 1ebe 93b1 8c3e
000000c0: 96e4 903c ea61 8fbc bafe c2bd 9052 89bd
000000d0: 1d63 fcbd a804 033c 60f5 d43b f840 b23b
000000e0: dee8 93bc eced 753d f4b3 603d 2263 adbc
000000f0: d0b7 29bd 1cb4 8ebc ce87 1e3e ea94 66be
00000100: 7046 d9bd 9c6d 033e 88db acbe a2f5 b53d
00000110: 0ed3 d2bd 4fdd 7b3d 487b 67bd 891a 6cbc
00000120: afb9 6bbd 8d91 89bd c021 69bb 5c8c 0bbd
00000130: d47c 8bbd a88d a23d aa26 a93c c294 cbbc
00000140: 7c52 05bd 0508 a83c baf1 bfbc 1213 b6bd
00000150: 9081 0dbd 8873 de3c af4b 14be e869 85bd
00000160: d972 113e 2346 25be b3cb 09be 175b ecbd
00000170: b3ae 37be 70b2 533d ac14 ac3c 7031 723d
00000180: f0f3 f03d ed40 2ebe e852 af3d d870 973b
00000190: 5043 32bd 6b2a b93d 6073 053e 1cf3 12be
000001a0: e07d 31bd 5a26 2a3e d2b4 b7be 236b 2ebe
000001b0: ee26 8c3e 8e38 58be e0ea 6ebd b51a 36bc
000001c0: cd48 9fbd 58aa 0dbd 4077 1a3b e072 c43b
000001d0: be15 983d 379f 97bd 2aec e73d a204 a4bc
000001e0: cc75 30bd a072 963c 6a16 fdbb ccd4 00be
000001f0: 7826 7dbc 9250 133e 46de 013e 8784 83bc
00000200: 1cd9 1c3d 4815 533e f232 fcbd ab07 51be
00000210: 29f9 74be e49b 853d 5a6b 4f3d ae86 c63d
00000220: 820f 923e a94d 6cbe 1a1f a23d 264a 103e
00000230: f897 5dbd 7472 1b3e 2b46 fd3d c891 72be
00000240: 3c0f 9abc 204e 893e 5a52 513e 8e46 0abe
00000250: d6d2 113d 86bf 8b3e 8432 71bd 2a82 9dbc
00000260: ccc4 06be a891 ffbc 19c6 823d 6e94 063d
00000270: c419 3c3e 1c2d 5ebd dbaa 9b3d b56e 273d
00000280: 5453 49bd ca59 e23c cf32 96bd a8cd 3ebe
00000290: 8848 d0bd 5c88 783d 7365 593d 00ab 4f3e
000002a0: cf53 4b3e 528f 9fbd 1ec2 f4bd bc90 14be
000002b0: dfb6 6dbe 50bb 72bd 2e88 1dbd 7486 153d
000002c0: a2a8 af3d cf03 213e 0dc5 573e 7499 e63d
000002d0: 98ae e8bc 7113 613e 5dd4 4ebd 13f4 c9be
000002e0: 8ada 92be f87d c93d 4632 933e 9d71 c13e
000002f0: 9411 9e3e 2cfb 7b3c 5c6c 50bd d1c9 63bc
00000300: 264b 0dbe 6ae5 84bd 6027 54bc 1036 54bb
00000310: 78e8 493c dc42 9a3d e23f af3d 36c7 67bd
00000320: 0c4b 2cbd b619 263c 4f12 c1bd b83f 5cbe
00000330: 84a2 07be 256d 4a3d a361 003d 80a0 f83d
00000340: 7006 b1bd ceee c73d 969b 07be 834b f0bd
00000350: 3377 81be 2deb 34be b4db 36bd 20c8 973c
00000360: 40cc 673e bcd6 973e 965e c6bd a403 1a3e
00000370: b895 58bc 3ec4 393e cb82 34be f28d 0abf
00000380: c8be d7be 9843 553d 312c d43e 6eb3 103f
00000390: 70bd 81bd b870 763e dcde 36bd 11c3 65bc
000003a0: 2b08 f7bd a27c edbd 5c24 0ebd ceda a3bc
000003b0: 0183 473d 15c6 493e e7b2 a1bd 2e95 2a3e
000003c0: 4ca7 47bd 805c 9dba 9b1c c0bd 055e 90be
000003d0: 34eb c4bd 37bd c13d 4276 1f3e ad5d 673e
000003e0: a3c2 f13d e0e4 833d 77f7 08be 8c46 04be
000003f0: 9b01 8bbe f538 96be 0074 2dba 8964 e43d
