weight/actions_history_2025-03-22_20-23-39.npy (npy, 20128 bytes, 1 tensors)

array f4 [500, 10]
0	0x3d954162	0.072878614
1	0xbdf0e875	-0.11763088
2	0xbebb9185	-0.3663446
3	0x3ead63c0	0.33865166
4	0xbdde2b0d	-0.10848055
5	0x3e93fb55	0.2890269
6	0xbd1c3bc5	-0.03814294
7	0x3eb26de2	0.3484946
8	0xbb704490	-0.003666196
9	0x3db6a964	0.089190274
10	0xbda7ff12	-0.08202948
11	0xbbd1e22c	-0.0064051356
12	0x3f1b4e9a	0.6066681
13	0xbf3fb1af	-0.748805
14	0xbdc12231	-0.094303496
15	0x3dda15fc	0.106487244
16	0xbc128ab4	-0.008944202
17	0xbe1296fc	-0.14315408
18	0xbbf07548	-0.0073381998
19	0xbdea10f0	-0.11429012
20	0xbb5baf80	-0.0033521354
21	0x3d8ccacf	0.0687462
22	0xbe8a75b3	-0.27042922
23	0xbd7c1d66	-0.061551474
24	0x3e02c82c	0.12771672
25	0x3e337a86	0.17527208
26	0x3f60eaaf	0.878581
27	0x3df33526	0.11875372
28	0x3d24b8e7	0.0402154
29	0x3e9d3b47	0.30709288
30	0x3dd93fbd	0.1060786
31	0x3dba9bad	0.09111724
32	0xbeab289b	-0.33429417
33	0xbe8f49b5	-0.27985922
34	0xbca5fe04	-0.020262726
35	0xbe8ee56f	-0.2790942
36	0x3f75c997	0.96010727
37	0x3f461a33	0.77383727
38	0xbd9993a4	-0.07498863
39	0x3e173f58	0.14770257
40	0x3cbeb41a	0.023279238
41	0xbc33c5d6	-0.010972461
42	0xbec18538	-0.3779695
43	0xbeeeb8ce	-0.4662537
44	0x3e10f574	0.14156133
45	0xbd4c04a9	-0.04980913
46	0x3f900562	1.1251643
47	0x3eddf80c	0.43353307
48	0x3dc5cc1c	0.096580714
49	0x3e53b8a0	0.20675898
50	0xbdb4906c	-0.08816609
51	0xbdfc78f7	-0.1232776
52	0xbeae0459	-0.33987692
53	0xbf3ae1a1	-0.7300053
54	0xbe74648c	-0.2386648
55	0xbed35d39	-0.4128206
56	0x3fb164af	1.3858851
57	0x3f4dcef0	0.80393887
58	0xbe55333a	-0.20820323
59	0x3e7e71f8	0.24848163
60	0xbdf8de7c	-0.121518105
61	0xbe43998d	-0.19101544
62	0xbf0d4955	-0.5519002
63	0xbf043a53	-0.51651496
64	0x3e033e60	0.12816763
65	0x3d83f104	0.064424545
66	0x3f8d9be0	1.1063194
67	0x3eed3670	0.46330595
68	0x3e27206e	0.16320965
69	0x3e6637a0	0.22482157
70	0xbe7fc73d	-0.24978347
71	0xbe68744e	-0.22700617
72	0xbf15c1c5	-0.58498794
73	0xbf1e008d	-0.6171959
74	0xbe8feec0	-0.2811184
75	0xbe5e419e	-0.21704718
76	0x3f542b17	0.8287825
77	0x3f1991f7	0.5998835
78	0x3d0916f7	0.033469167
79	0x3e4769ab	0.19473903
80	0xbe9a5072	-0.301395
81	0xbe98f097	-0.29871055
82	0xbecd993e	-0.40155977
83	0xbf2d3ffb	-0.6767575
84	0x3a65bb80	0.00087635964
85	0x3e517415	0.20454438
86	0x3e961a08	0.29316735
87	0xbd58cf80	-0.052932262
88	0xbe392d7a	-0.18083754
89	0x3d465bb5	0.048427302
90	0xbeb8da2e	-0.36103958
91	0x3dff2472	0.12458123
92	0xbf250380	-0.64458466
93	0xbf0fd007	-0.561768
94	0x3e1451c8	0.14484322
95	0xbd5dc8d7	-0.054146614
96	0xbe6acb99	-0.22929229
97	0x3e5c7efc	0.21532816
98	0xbf2c5b85	-0.6732715
99	0x3cbc9c5e	0.02302378
100	0x3ab0eb00	0.001349777
101	0xbd80f7eb	-0.062972866
102	0xbd9b7c10	-0.075920224
103	0xbf39a0d1	-0.7251101
104	0x3e735d2e	0.23766014
105	0x3e17d884	0.14828688
106	0x3eaab6dd	0.3334264
107	0x3f819f42	1.0126727
108	0x3edb0281	0.42775348
109	0x3ddadcbc	0.10686633
110	0xbd253cd6	-0.04034122
111	0x3c0e661a	0.008691335
112	0xbf3e09f0	-0.74233913
113	0xbf14956b	-0.58040494
114	0xbec70f73	-0.38878974
115	0xbea05ed5	-0.3132235
116	0x3f324813	0.69641227
117	0x3e6a08cc	0.22854918
118	0xbe6e7faa	-0.23290887
119	0x3d5b468b	0.053534072
120	0xbe59c183	-0.21265225
121	0xbe10eb6c	-0.14152306
122	0x3ea05b5d	0.31319705
123	0xbf5e6891	-0.86878306
124	0x3d110c4e	0.035412125
125	0x3e365dca	0.17809215
126	0x3eb117d7	0.345885
127	0x3e3e2fb4	0.18572885
128	0x3d87af5c	0.06625244
129	0x3d1d0ccf	0.038342293
130	0xbe7cbc3d	-0.24681182
131	0x3e2d0dd1	0.16899802
132	0xbf324254	-0.6963246
133	0xbed567f5	-0.41680875
134	0xbe27fa5a	-0.16404095
135	0xbe5546a0	-0.20827723
136	0xbe4129a7	-0.18863545
137	0x3e895696	0.26823872
138	0xbf1cf5e9	-0.6131273
139	0xbe170cd9	-0.14750995
140	0xbd3c5252	-0.045976944
141	0xbd9ee932	-0.07759322
142	0x3e723b28	0.23655379
143	0xbf1f10a2	-0.62134755
144	0x3e86dd32	0.26340634
145	0x3e1aedfa	0.15129843
146	0x3ed47534	0.4149567
147	0x3f78ac3b	0.971378
148	0x3e880aec	0.26570833
149	0x3dd1694c	0.10225162
150	0x3d194cae	0.037426643
151	0xbe0b6158	-0.13611352
152	0xbf30d7f5	-0.69079524
153	0xbea7555c	-0.32682312
154	0xbee74930	-0.45173025
155	0xbf22a050	-0.6352587
156	0x3f166949	0.587544
157	0x3e5008ac	0.20315808
158	0xbe35247a	-0.17689696
159	0x3e186668	0.14882815
160	0xbe084c13	-0.1331027
161	0xbe8eb74b	-0.27874216
162	0x3e8a30e5	0.2699043
163	0xbefcd430	-0.49380636
164	0x3e087104	0.13324362
165	0x3e4d327e	0.20038792
166	0x3f3230ad	0.69605523
167	0x3ec5a2b4	0.38600695
168	0x3e367906	0.17819604
169	0x3dd7bf38	0.10534519
170	0xbe5667d9	-0.20938052
171	0xbe4902dd	-0.19629999
172	0xbf20a2fa	-0.6274868
173	0xbde12e31	-0.109951384
174	0xbe81a682	-0.25322348
175	0xbd7413b1	-0.05958909
176	0xbe3ad909	-0.18246855
177	0xbe832b8a	-0.25619155
178	0xbea63751	-0.32464078
179	0xbe5c6b9c	-0.21525425
180	0xbe36e5ba	-0.17861071
181	0x3d98d4b2	0.074624434
182	0x3e882462	0.26590258
183	0xbe9225e1	-0.28544524
184	0x3d128a5a	0.035776474
185	0x3aafa1e0	0.0013399683
186	0x3e2b9abb	0.16758244
187	0x3ed2262a	0.41044742
188	0xbd2853c1	-0.0410955
189	0x3e33d3d6	0.17561278
190	0xbd2424e4	-0.040074244
191	0xbc07fdd6	-0.008300265
192	0xbf454c3d	-0.77069455
193	0xbdfa682b	-0.122269
194	0xbdd6613f	-0.10467767
195	0xbda9ce54	-0.08291307
196	0x3ea4e52f	0.32206103
197	0x3e95d62b	0.2926496
198	0x3d48b437	0.04899999
199	0xbd09344b	-0.033497136
200	0xbcb8b710	-0.022548229
201	0xbd862edf	-0.06551909
202	0xbe494d19	-0.19658317
203	0xbd8fe70d	-0.07026491
204	0xbe201166	-0.15631637
205	0x3d0db61f	0.034597512
206	0x3f1b892a	0.6075617
207	0x3df9f3b4	0.12204686
208	0x3cd6fd0e	0.026243713
209	0x3e168c20	0.14701891
210	0xbbf019c0	-0.0073272884
211	0xbd0e61ae	-0.034761123
212	0xbf0c4808	-0.5479741
213	0xbe976680	-0.2957039
214	0xbd104e9e	-0.035231225
215	0x3d9793e8	0.07401258
216	0xbe25e73b	-0.16201489
217	0xbe7e42b8	-0.24830139
218	0xbec64fcb	-0.38732752
219	0xbe633bda	-0.221908
220	0xbca22b14	-0.019795932
221	0x3db065ca	0.08613165
222	0xbed54f89	-0.41662243
223	0x3e6ef964	0.23337322
224	0xbd994797	-0.07484358
225	0xbe679f4a	-0.22619358
226	0x3f3313df	0.69952196
227	0x3e968dbf	0.2940502
228	0x3d74513f	0.059647795
229	0x3e58cc42	0.21171668
230	0x3c92a9c8	0.017903224
231	0x3e336732	0.17519835
232	0xbf3736eb	-0.71568173
233	0xbeb8e6fa	-0.3611372
234	0xbccf7944	-0.025326379
235	0x3e5277c9	0.20553507
236	0x3f49c210	0.7881174
237	0x3e64e738	0.22353828
238	0x3e779d70	0.24181151
239	0xbe45fee6	-0.19335517
240	0x3ae63a80	0.0017565042
241	0x3e6a8a9c	0.22904438
242	0xbf0f6e35	-0.5602754
243	0xbe22af18	-0.15887105
244	0xbe4e5cee	-0.20152637
245	0x3d90f350	0.07077658
246	0x3f24eadd	0.6442087
247	0x3da4c98c	0.080462545
248	0x3c425adc	0.011862483
249	0x3eabe65a	0.33574182
250	0x3ca5f968	0.020260528
251	0x3e2c94cc	0.16853637
252	0xbee8e98d	-0.45490685
253	0xbe9946fb	-0.29936966
254	0x3d83e53b	0.064402066
255	0x3e10195d	0.14072175
