weight/actions_history_2025-03-25_18-30-46.npy (npy, 20128 bytes, 1 tensors)

array f4 [500, 10]
0	0xbd8f2d10	-0.06991017
1	0xbcefc1cf	-0.02926722
2	0xbdc686e2	-0.096936956
3	0xbe106485	-0.14100845
4	0xbe6e7ebe	-0.23290536
5	0x3e7d99e4	0.24765736
6	0xbe0e3fb0	-0.13891482
7	0xbda3b7c2	-0.079940334
8	0x3ebb2cba	0.3655756
9	0x3d6729eb	0.05643646
10	0xbdfc7e4e	-0.12328778
11	0xbd0f495b	-0.034982067
12	0xbebedadb	-0.37276348
13	0x3e992cc6	0.29916972
14	0xbe89921e	-0.2686929
15	0x3e73fd28	0.2382704
16	0xbc848956	-0.016178768
17	0xbdcc002f	-0.099609725
18	0x3e81e992	0.25373513
19	0xbccba0e4	-0.024856992
20	0xbe6826f8	-0.22671115
21	0xbd3754bb	-0.04475854
22	0xbece65dd	-0.4031209
23	0x3eacc745	0.3374578
24	0xbe1d32ea	-0.15351453
25	0x3ea9b107	0.33142874
26	0x3df6e2da	0.12054987
27	0xbe33ea14	-0.17569762
28	0x3eb7877a	0.35845548
29	0xbc9eb65e	-0.019374069
30	0xbea064e4	-0.31326973
31	0xbdfbaf32	-0.12289275
32	0xbf2ea638	-0.6822238
33	0x3f46f9b3	0.7772476
34	0xbd83719f	-0.06418156
35	0x3e8bf3ce	0.27334446
36	0x3e9c1b5b	0.3048962
37	0xbe892ff1	-0.2679439
38	0x3e90e0ee	0.28296608
39	0xbc8e29ca	-0.017353911
40	0xbe89f4e8	-0.2694466
41	0xbd596343	-0.05307318
42	0xbf2338e6	-0.63758695
43	0x3f645ffe	0.8920897
44	0x3d622ef6	0.055220567
45	0x3e8c8498	0.2744491
46	0x3ed74e75	0.42052045
47	0xbecb8d5c	-0.39756286
48	0x3e192a23	0.1495748
49	0x3d9dfe06	0.07714467
50	0xbddd7956	-0.108141586
51	0xb9d15580	-0.0003992729
52	0xbeb17217	-0.34657356
53	0x3f28db9e	0.6596011
54	0x3c509ba8	0.012732424
55	0x3e6d58ee	0.23178455
56	0x3f119604	0.5686953
57	0xbf03fb8a	-0.51555693
58	0x3e199467	0.14998017
59	0xbd84af40	-0.06478739
60	0x3d931515	0.071817555
61	0x3d98604c	0.07440242
62	0xbe8a9545	-0.2706701
63	0x3eedcdc0	0.46446037
64	0xbd10791e	-0.035271756
65	0x3e8e5194	0.27796614
66	0x3ef14af2	0.4712749
67	0xbf08a943	-0.5338327
68	0x3d15466c	0.036444113
69	0xbcb51856	-0.02210633
70	0x3e68aa2f	0.2272117
71	0x3d731c65	0.05935325
72	0xbea38a25	-0.31941333
73	0x3e95a19d	0.29224864
74	0xbe3b2af8	-0.1827811
75	0x3e74889a	0.23880234
76	0x3e9c52f3	0.30532035
77	0xbef6409f	-0.48096177
78	0x3c6a50f0	0.014301524
79	0xbd19d0b3	-0.037552547
80	0x3e9b0943	0.30280504
81	0xbacc7520	-0.0015598871
82	0xbe4b3d32	-0.19847563
83	0x3d5527ac	0.052039787
84	0xbe962eba	-0.29332525
85	0x3e7df58c	0.248007
86	0x3e4074ea	0.18794599
87	0xbec6d827	-0.38836786
88	0x3e428ee3	0.1899982
89	0x3d2304d1	0.039799515
90	0x3eabc116	0.3354575
91	0xbd431bf7	-0.04763409
92	0xbd4a6cc2	-0.049420126
93	0xbd47c070	-0.048767507
94	0xbea6fd35	-0.32615057
95	0x3ead3bf5	0.33834806
96	0x3db40ca6	0.08791475
97	0xbe5e8075	-0.2172869
98	0x3e838c8e	0.25693172
99	0x3d7996ed	0.06093495
100	0x3e90df1c	0.2829522
101	0xbe4049f4	-0.18778211
102	0xbd449166	-0.047990225
103	0xbdad5d78	-0.084650934
104	0xbeab2ec9	-0.33434132
105	0x3edca785	0.43096557
106	0xbce5d41e	-0.028055247
107	0xbe5f8b8f	-0.21830581
108	0x3e706ebd	0.23479743
109	0x3d60560d	0.054769564
110	0x3e4efb0b	0.20212953
111	0xbe47a1b0	-0.19495273
112	0xbe85b5f7	-0.2611539
113	0x3e3142bd	0.17310615
114	0xbe5ca396	-0.21546778
115	0x3f028d3b	0.5099675
116	0xbbef4f38	-0.007303145
117	0xbe92d91a	-0.2868126
118	0x3e2ec75f	0.17068242
119	0x3c25ffc4	0.01013178
120	0x3dee0275	0.116215624
121	0xbe224ce0	-0.15849638
122	0xbe960a7b	-0.2930487
123	0x3ea01da2	0.31272608
124	0xbe0759dc	-0.13217872
125	0x3f0b7392	0.5447322
126	0x3de720d0	0.11285555
127	0xbebfaa99	-0.37434843
128	0x3d9e86ee	0.077405795
129	0xbbee0578	-0.0072638355
130	0x3d9a2144	0.07525876
131	0xbe53494e	-0.20633432
132	0xbf0cca94	-0.5499661
133	0x3f26c789	0.65148216
134	0xbe3d9e7e	-0.18517491
135	0x3f04788e	0.5174645
136	0x3e97a06d	0.29614583
137	0xbeda99fe	-0.42695612
138	0x3df4fc02	0.11962129
139	0xbd138859	-0.036018703
140	0x3e4eb053	0.2018445
141	0xbe60ae2e	-0.21941444
142	0xbf199513	-0.59993094
143	0x3f6439d1	0.8915072
144	0xbdfecfdb	-0.12441989
145	0x3ee9921b	0.45619282
146	0x3eded0a5	0.43518558
147	0xbf08fe2b	-0.5351283
148	0x3c4e33d0	0.012585595
149	0xbd0608d7	-0.032723274
150	0x3ea6a3c2	0.32546812
151	0xbe4fb99c	-0.20285648
152	0xbed5570f	-0.41667983
153	0x3f4f67a3	0.8101751
154	0xbdb5ac23	-0.08870723
155	0x3eb66122	0.3562098
156	0x3f04bbcd	0.5184906
157	0xbf18754f	-0.59554
158	0xbe27cd93	-0.16387014
159	0xbd8df3d2	-0.06931271
160	0x3edf698c	0.43635213
161	0xbe28d0fc	-0.16485971
162	0xbe2b392a	-0.16721025
163	0x3ebd6218	0.36988902
164	0xbe2eb1da	-0.17060032
165	0x3ebe8939	0.37214068
166	0x3ed9f105	0.42566696
167	0xbf23eeb2	-0.64036095
168	0xbe0f1e42	-0.13976386
169	0xbd960454	-0.07325044
170	0x3eed7355	0.46377054
171	0xbe5b6528	-0.21425307
172	0xbeb05fed	-0.34448186
173	0x3ea62e7d	0.32457343
174	0xbe8daad8	-0.27669406
175	0x3eabb573	0.33536872
176	0x3ea1b39b	0.3158234
177	0xbf1b5fa3	-0.60692805
178	0xbdcd302c	-0.10018954
179	0xbda7e460	-0.08197856
180	0x3ef85364	0.48501122
181	0xbe3eef8c	-0.18646067
182	0xbe801067	-0.25012514
183	0x3da25e7f	0.0792818
184	0xbead5c2c	-0.33859384
185	0x3e827b6a	0.25484782
186	0x3e3fbc9a	0.1872429
187	0xbf0c3254	-0.54764295
188	0x3c9df1d8	0.01928036
189	0xbd0b806f	-0.03405803
190	0x3f099c56	0.53754175
191	0xbe5c04d1	-0.21486212
192	0xbe058eee	-0.13042805
193	0x3c522502	0.012826206
194	0xbe972b35	-0.29525152
195	0x3ebe8621	0.37211707
196	0x3cce70ba	0.025200237
197	0xbe94bb08	-0.29048944
198	0x3e6b31b3	0.22968177
199	0x3d8c1318	0.06839579
200	0x3ee8e5b3	0.45487747
201	0xbea55a86	-0.32295626
202	0xbd81bc81	-0.063347824
203	0xbd3b7840	-0.045768976
204	0xbe9d1a07	-0.3068392
205	0x3ee33df4	0.44383204
206	0x3d7e693d	0.06211208
207	0xbe81929b	-0.25307164
208	0x3e756cbf	0.23967265
209	0x3d3a9253	0.045549702
210	0x3eb1af82	0.34704214
211	0xbe93636a	-0.28786784
212	0xbe8f91c8	-0.2804091
213	0x3e669b31	0.22520138
214	0xbe4492aa	-0.19196573
215	0x3f005dd3	0.50143164
216	0x3dc8cb9c	0.098044604
217	0xbe9195d1	-0.28434613
218	0x3e1278c6	0.14303884
219	0xbc023c7c	-0.007948991
220	0x3e8172ee	0.25282997
221	0xbe99ba3f	-0.30024907
222	0xbeb0f7a8	-0.34563947
223	0x3ec3946a	0.38199168
224	0xbe5bf700	-0.21480942
225	0x3ef496ac	0.47771204
226	0x3e8519e3	0.25996312
227	0xbeb3cbd9	-0.3511646
228	0x3d565234	0.05232449
229	0xbd80b4de	-0.06284498
230	0x3e6f2013	0.23352079
231	0xbeb3f054	-0.35144293
232	0xbf03a5ee	-0.51425064
233	0x3f23cd4b	0.6398513
234	0xbe5a233c	-0.21302503
235	0x3ed31ef6	0.4123456
236	0x3eab584a	0.33465797
237	0xbee223ad	-0.44167843
238	0xbcc92b88	-0.02455689
239	0xbc5d2004	-0.013496403
240	0x3e842d6d	0.25815907
241	0xbe815a88	-0.25264382
242	0xbef34545	-0.47513786
243	0x3f31f52d	0.69514734
244	0xbdf9a0dc	-0.121888846
245	0x3ed27b97	0.41109917
246	0x3ed12667	0.4084961
247	0xbf09aa3b	-0.53775376
248	0x3c8d2ac8	0.017232314
249	0x3d34a6cd	0.044104386
250	0x3eba0864	0.36334527
251	0xbe84e8f1	-0.2595897
252	0xbecb53b1	-0.3971229
253	0x3f3369c3	0.70083255
254	0xbe33ecef	-0.17570852
255	0x3eac83b6	0.33694237
